main/Pytorch/v4/englishv3.pt (torch, 414475 bytes, 26 tensors)

layer1.0.weight f4 [16, 1, 3, 3]
000000 f0 42 da 3d a4 98 bb bf 39 10 10 c0 8b e3 f1 3f
       0.106572986 -1.4655957 -2.2509902 1.8897566
000010 85 c5 19 3e 0c b1 20 c0 0a eb f3 3f 20 86 2d 40
       0.15016754 -2.510806 1.9056103 2.7113113
000020 c4 28 97 bd 56 fe 23 c0 3b 42 06 bf 71 d8 33 40
       -0.07380822 -2.5623984 -0.5244481 2.8100855
000030 76 ee 49 c0 1c 3b 3a bc 20 27 49 3f be 0a 5c bf
       -3.1551795 -0.011366632 0.78575325 -0.8595389
000040 16 83 f1 bf 17 33 1d 3e 70 d8 e6 bf 1d b8 50 c0
       -1.8868129 0.1535152 -1.8034801 -3.2612374
000050 b6 5d 67 be 8e ef 5c bf b6 5b 93 c0 d7 0e 9e be
       -0.22594342 -0.8630303 -4.604945 -0.30870697
000060 a9 85 6f be 7c 7b 5d c0 ff 34 8b bf 8a 5d 88 bf
       -0.23390831 -3.460662 -1.0875548 -1.0653546
000070 7f e1 0d 3e ae 95 97 bf 09 04 0d 40 09 37 95 40
       0.13855551 -1.1842554 2.2033713 4.662968
000080 e5 a1 b2 3f a7 cd c0 3f 6a 1d ea 3f ea 97 77 3f
       1.3955656 1.506276 1.8290226 0.9671618
000090 5a 33 2e c0 06 c8 9c be d2 52 a4 3f 31 de 44 c0
       -2.7218843 -0.30621356 1.2837775 -3.0760615
0000a0 bf 53 05 3e b2 8e 16 40 dc 76 7f bf 9f fc b5 3f
       0.13020228 2.3524594 -0.9979074 1.4217719
0000b0 db 0e d7 3f af 62 c6 3d d3 69 36 40 a6 bd 49 3e
       1.6801409 0.09686791 2.850209 0.19701251
0000c0 2f c9 82 bf 9d 90 70 be 10 8f 3a 40 38 5d 4e c0
       -1.0217646 -0.23492666 2.9149818 -3.2244396
0000d0 0d f1 ad bf 42 dd 56 3f d4 3f 14 c0 26 9a 19 c0
       -1.3589188 0.8393136 -2.3163958 -2.4000335
0000e0 b6 bb e5 bf 1a 48 f6 be c1 9d bb 3e 8b 67 6f 3f
       -1.794791 -0.48101884 0.36643794 0.9351737
0000f0 72 62 00 40 a1 73 17 40 43 bf 07 40 90 71 0f 3f
       2.0060086 2.3664324 2.1210487 0.5603266
000100 b2 00 0c 40 39 b9 9f bf f8 2b 59 bf be 71 2d c0
       2.1875424 -1.24784 -0.84832716 -2.7100673
000110 b9 80 9c c0 f7 e6 09 c0 0a 11 d4 bf e9 74 aa 3f
       -4.890713 -2.154722 -1.65677 1.3316928
000120 8f 53 bd bf 3b c3 dc bf 15 2f 72 bf e6 9f 57 3f
       -1.4791125 -1.724708 -0.9460309 0.8422836
000130 ad 9e 6f 40 c1 23 9c bd 42 f3 05 c0 7e 23 76 bf
       3.7440598 -0.07624007 -2.0929723 -0.96147907
000140 fb 25 12 bf 34 f8 0d 40 e1 e6 1e 40 d4 d7 15 40
       -0.57089204 2.218274 2.4828417 2.341298
000150 71 22 8c 3f fa 91 2f bf 06 3b 9f 3f 18 7d 98 3f
       1.0948011 -0.6858212 1.2439888 1.1913176
000160 57 39 f1 3f af 9f eb 3f 05 84 04 40 37 62 f2 3f
       1.8845624 1.8408107 2.0705578 1.8936223
000170 bd 26 e7 3f 03 8a ca be 73 f6 8b be 6b db 65 3e
       1.8058697 -0.3955842 -0.27336463 0.22446983
000180 06 07 04 c0 77 d2 cf bf 4e 08 4b c0 cd b7 b9 bf
       -2.0629287 -1.6236104 -3.1723819 -1.4509217
000190 ff c3 ea bb a3 cc 5d bd 89 1a ba bf 89 dc 5e 40
       -0.007164478 -0.054150235 -1.4539348 3.4822104
0001a0 46 de 0b bf bf fb 95 3e 7a d8 ce 3f 0d 84 45 c0
       -0.5463604 0.2929363 1.6159813 -3.0861847
0001b0 a5 7f 86 3f 80 aa 1b 40 71 dd a3 bb ed 67 15 40
       1.0507704 2.4322815 -0.005000763 2.3344681
0001c0 42 c1 1e 3f 4b 77 1c c0 80 5a 38 3d 2c c3 e9 bf
       0.6201364 -2.444781 0.045008183 -1.8262687
0001d0 52 8a 19 c0 1c 45 e7 bf 2a 3d 09 c0 dd 4f db bd
       -2.3990674 -1.8067966 -2.1443582 -0.10708592
0001e0 33 84 ea bf 54 92 9d bf af 6c 60 3f bb ea e7 bf
       -1.8321594 -1.2310281 0.8766584 -1.8118509
0001f0 f5 e3 6d bf 90 0f 3d 40 ae 36 ef 3f 71 0a 83 bf
       -0.9292596 2.9540749 1.8688562 -1.0237561
000200 92 94 18 c0 ad 19 09 40 d3 7a fd 3d a9 61 0d c0
       -2.384068 2.1421921 0.123769425 -2.2090857
000210 30 de b0 3f 76 b4 4c bf de 75 1d c0 f7 4e 7c 3f
       1.3817806 -0.7996286 -2.460319 0.9855799
000220 80 99 1c c0 60 13 84 3f 61 1f 40 c0 44 4f 16 40
       -2.446869 1.0318413 -3.0019152 2.348588
000230 e8 cf 17 c0 52 a2 94 3f f7 b6 a8 bf 7e 52 b0 3f
       -2.3720646 1.1612036 -1.3180836 1.3775175

layer1.0.bias f4 [16]
000000 77 3c 06 40 88 f4 b9 bf 70 8f 87 bf 78 6f 5b c0
       2.0974405 -1.452775 -1.0590649 -3.4286785
000010 67 cd eb bf bc 8c 87 3e 4c e9 50 be 8a d7 eb 3f
       -1.8422059 0.2647456 -0.20401496 1.8425152
000020 27 f3 b4 3f 56 0a 7c 3f 23 7f 98 bd da 99 31 40
       1.4136704 0.9845327 -0.074461244 2.7750154
000030 fe 09 c1 3f 03 13 51 c0 62 85 85 3e d4 db 23 3f
       1.5081174 -3.2667854 0.26078326 0.64007306

layer1.1.weight f4 [16]
000000 de 1e 0a 40 96 39 48 40 cc 67 b9 40 3e 3c d6 3f
       2.158134 3.1285148 5.7939205 1.6737134
000010 e9 88 f2 3f 7e 94 d1 3f 6c 5c 0b 40 bc e7 b7 40
       1.8948032 1.6373441 2.177516 5.747038
000020 2e 56 ee 3f 05 a2 ca 3f 96 96 02 40 a1 e7 92 3f
       1.862005 1.5830694 2.040441 1.1476938
000030 e2 09 09 40 1b 5d 75 40 71 32 26 40 13 75 1c 40
       2.1412282 3.8338077 2.5968287 2.4446456

layer1.1.bias f4 [16]
000000 44 c3 22 3e 95 88 d1 be d8 d4 fb 3e 04 4a 1f c0
       0.158948 -0.40924516 0.49185824 -2.4888926
000010 4b d5 d0 bb 6a a0 21 3e 34 fd 47 3e cc 45 e9 be
       -0.0063730828 0.1578385 0.19530183 -0.45561063
000020 fa 13 85 bf 7c cd 80 bf 68 b5 1c 3e 5b 6c b1 be
       -1.0396721 -1.0062709 0.15303576 -0.3465298
000030 3a a1 ff bd d1 3c a8 bf 33 ac 13 bf cb 20 a4 be
       -0.124819234 -1.314356 -0.5768463 -0.3205627

layer1.1.running_mean f4 [16]
000000 e1 09 08 40 16 ea e2 bf e2 9a 01 c0 42 a8 32 c0
       2.125603 -1.7727687 -2.0250783 -2.7915196
000010 ce 9f ed bf 2a 97 a8 3e 6c ce 1e be be 47 a2 3f
       -1.8564394 0.3292783 -0.15508431 1.2678144
000020 22 7d 9b 3f 47 34 e8 3f fa ed 2b be 15 e5 2c 40
       1.2147563 1.8140954 -0.1679 2.701482
000030 30 8a bf 3f 45 9a 68 c0 96 55 65 3d 0c fe 00 3f
       1.4964046 -3.6344159 0.055989824 0.50387645

layer1.1.running_var f4 [16]
000000 9d a1 a6 3f 76 07 f3 3f 3e 12 00 41 2d 43 88 40
       1.301807 1.8986652 8.004454 4.2582
000010 56 03 cd 3f be a8 97 3f d8 b7 ce 3f f7 b2 64 40
       1.6016643 1.1848371 1.6149855 3.5734231
000020 a9 c0 fa 3e 72 33 9f 40 3f f4 b9 3f 74 ef ed 3e
       0.48975113 4.97503 1.4527663 0.4647175
000030 81 54 b2 3f 0e df 0a 40 70 9d db 3f 28 d8 c4 3e
       1.3932039 2.1698642 1.7157421 0.38446164

layer2.0.weight f4 [32, 16, 3, 3]
000000 52 0e f0 3c 31 87 ee 3f 2e a0 ad bd 7f b1 ea be
       0.029303703 1.8635007 -0.084778175 -0.45838544
000010 17 c0 cc bf 3f 10 4d 3f ad 1d 4a bf aa dc 8a be
       -1.5996121 0.80102915 -0.7895153 -0.27121478
000020 60 29 86 3f 74 8d d5 3f 4c 14 91 bf 31 b8 c2 be
       1.0481377 1.6683793 -1.1334319 -0.38031152
000030 d1 5d c1 3f 93 92 06 c0 6c 9b d0 bf 1d ad b8 3f
       1.5106755 -2.1026962 -1.6297431 1.442783
000040 34 7d c4 3f 40 66 86 bf d4 1d 94 3f ec 34 d2 3e
       1.5350709 -1.0499954 1.1571603 0.41056
000050 9f b2 3c 3e 93 dc 4b 40 eb 8d 5c 40 12 8f 60 40
       0.18427514 3.1853378 3.446162 3.5087323
000060 77 05 55 3f d6 44 40 3f 62 b8 65 3f f5 c0 d5 be
       0.83211464 0.75105035 0.8973447 -0.41748777
000070 b9 da d1 bf db 4c 9d 3f cf 22 80 bf ce fd fd be
       -1.6394874 1.228908 -1.0010623 -0.496077
000080 e0 97 a8 bf f2 ee 70 3f 6d 7d d2 be a7 00 26 3f
       -1.3171349 0.941146 -0.41111317 0.64844745
000090 48 db 1a bf eb 6a a8 bf a7 b2 0f 3f 88 10 8a bf
       -0.60490847 -1.3157629 0.56131977 -1.0786295
0000a0 5f 9e b1 bf bc 91 9f bf e3 8d 1c 3f 73 90 12 3f
       -1.3876456 -1.246635 0.61154 0.5725166
0000b0 3e f0 c7 bf dc 1a 66 3e fe cf 82 bf 25 fe 1c be
       -1.5620191 0.22471184 -1.0219724 -0.15331323
0000c0 d4 55 76 bf e2 3a 43 c0 23 fe 13 bf c1 03 d3 bf
       -0.96224713 -3.050469 -0.57809657 -1.6485521
0000d0 c1 12 13 3d 4e 07 e4 bf 68 8d f6 3b fa 5a 1c bf
       0.035906557 -1.7814729 0.007524181 -0.6107632
0000e0 9e 3e e7 bf c3 52 ba bf d9 5c 89 bf 1a f7 33 c0
       -1.8065984 -1.4556507 -1.073146 -2.811957
0000f0 3a 5e 52 bf 8f 66 82 bf 12 ae e0 bf c1 d5 07 c0
       -0.8217503 -1.0187548 -1.7553122 -2.1224215
000100 6e 2e e8 bf e3 4d a4 bf 1f d2 24 3f 44 8d cd 3f
       -1.8139169 -1.2836269 0.6438312 1.6058736
000110 02 b3 84 3f c5 83 01 3f 2d e4 ef be d3 80 69 3e
       1.0367129 0.5059169 -0.46853772 0.22803049
000120 49 7a ea c0 9f f3 f8 bf b6 9a b2 3f d8 5a c0 c0
       -7.3274274 -1.9449347 1.3953464 -6.0110893
000130 70 75 7b c0 08 c6 bb bf aa ca 02 c0 dc 24 59 c0
       -3.9290428 -1.4669809 -2.0436196 -3.3928747
000140 c1 c8 a5 c0 fc 06 8c 3e f1 03 c3 be 7d 61 70 3f
       -5.180756 0.2734908 -0.38088945 0.93898755
000150 b3 fb 19 bf ce 75 9f bf 38 ce a1 be 28 53 10 3f
       -0.6014969 -1.2457826 -0.31602645 0.56376886
000160 89 26 6e bf a0 81 e6 be 52 44 0d c0 5c 58 db bf
       -0.9302755 -0.4502077 -2.207295 -1.713634
000170 89 0c 3e be 73 d8 44 c0 e8 b1 ef bf 67 de ee be
       -0.1855947 -3.075711 -1.8726168 -0.46654055
000180 5c 00 79 be e4 89 28 3f 15 d1 50 3f f2 12 98 c0
       -0.24316543 0.65835404 0.81569034 -4.7523127
000190 c9 53 1a c0 9a 9a f3 3e 66 52 17 c0 33 f1 95 c0
       -2.4113638 0.4757889 -2.3644042 -4.6856933
0001a0 77 97 3c c0 1c 59 c4 bf db e7 d6 bf c4 d0 4e c0
       -2.9467447 -1.5339694 -1.6789507 -3.231492
0001b0 02 c6 96 c0 e7 ba 1e c0 c3 2f c5 be 00 2a 07 c0
       -4.711671 -2.4801576 -0.38513002 -2.1119385
0001c0 a0 7a fd bf 02 4c eb bf a1 74 94 be 81 21 42 bf
       -1.9803047 -1.8382571 -0.2899523 -0.7583237
0001d0 74 5e e1 bf 47 ce 8a bf 0b 0b d2 bf a6 3a 28 3d
       -1.760695 -1.0844201 -1.640962 0.041071557
0001e0 97 b2 4e bf c0 dd 65 c0 ce 2f a2 c0 8c c6 00 40
       -0.80741256 -3.5916595 -5.0683355 2.0121183
0001f0 c7 74 3d c0 05 37 4d c0 7f a7 80 c0 81 ad 1b c0
       -2.9602525 -3.2064831 -4.0204463 -2.4324648
000200 a9 16 b9 bf 31 15 37 bf 97 b6 58 c0 b6 e1 8b bf
       -1.446004 -0.7151671 -3.3861444 -1.0928257
000210 4a 54 8b 3c 24 35 f5 3e 58 64 9c 3f 04 4c e9 3f
       0.017007966 0.47892106 1.2218122 1.8226323
000220 29 5b 9b 3f c8 d5 54 3e 51 59 3c 3e 18 d5 dd bf
       1.2137195 0.20784676 0.18393447 -1.7330656
000230 95 7e b0 3e 81 0c a4 bd 2c 61 ed bf e3 dc 09 c0
       0.34471574 -0.080101974 -1.854528 -2.1541069
000240 e1 be 82 bf 8d c7 c1 bf 0f 51 dd 3f 89 1d a9 bf
       -1.0214502 -1.5139023 1.7290362 -1.3212138
000250 0c 18 c7 bf 5a 4a bd 3f c9 6a 07 c0 08 b2 23 be
       -1.5554214 1.4788315 -2.1158926 -0.15985882
000260 12 28 01 40 03 ac c4 bf 73 5b 56 c0 f2 d7 8c bf
       2.0180707 -1.5364994 -3.3493316 -1.1003401
000270 01 b9 34 c0 01 e4 df bf b4 6a 31 40 dd b0 ad 3e
       -2.8237917 -1.7491456 2.7721376 0.33923998
000280 67 58 39 40 0d 2c da 3f 03 48 23 c0 77 09 55 c0
       2.8960207 1.7044693 -2.5512702 -3.3287027
000290 6a 45 0a c0 7c 23 4f c0 84 2a 19 c0 ab 18 78 c0
       -2.1604867 -3.2365408 -2.39322 -3.8765056
0002a0 3e 79 ad bf 18 4f 16 c0 49 05 81 bf 12 d4 5a bf
       -1.3552625 -2.3485775 -1.0079738 -0.85479844
0002b0 3f 8e 20 3f 18 3c 34 3e 9d 4d 59 c0 bb bf 8a c0
       0.6271705 0.17601049 -3.3953621 -4.3359046
0002c0 e7 22 4d c0 10 11 41 bf b3 62 60 bf 32 b7 a1 bf
       -3.2052553 -0.7541666 -0.87650603 -1.2634032
0002d0 0c 7e 19 3f 49 e4 71 bf 41 44 9b bd 1a 89 12 40
       0.5995796 -0.9448896 -0.07581378 2.289618
0002e0 c4 a4 69 3f 21 67 2a 3f c5 b9 2c 40 26 9c 18 40
       0.9126704 0.6656361 2.6988385 2.3845305
0002f0 15 ef b6 bf 92 45 62 3e 4c 02 9c 3f 4c 4e 26 40
       -1.4291712 0.22096851 1.2188201 2.5985289
000300 9c f2 71 bf 52 af 37 bf 63 b5 7c 40 d0 2e 31 bf
       -0.9451082 -0.7175189 3.948571 -0.69212055
000310 a7 c8 84 3f 28 3b 55 40 d9 8d 04 be 61 30 50 be
       1.0373734 3.3317356 -0.12944736 -0.20330955
000320 99 b2 6e 3d 87 0b 63 3e 89 ca 9e c0 d5 a7 7a bf
       0.058275793 0.22172366 -4.9622235 -0.9791234
000330 e5 50 a4 3f bb c8 7e c0 1b 6e e8 bf ff 39 64 3f
       1.2837187 -3.9810016 -1.8158602 0.89150995
000340 65 62 61 3f 2d 4c f3 bf 83 77 8c 3f 8b e7 1c c0
       0.88040763 -1.9007622 1.0973972 -2.4516323
000350 8d 59 3d c0 86 12 0d 3e fb 9a 89 c0 da 29 9b bf
       -2.9585907 0.13776597 -4.3001685 -1.2122147
000360 a4 cd 22 be 1d bf 25 bf 54 28 c9 bd 7b 88 91 3e
       -0.15898758 -0.6474474 -0.09822145 0.2842444
000370 bf 84 99 bf eb c7 36 40 6e 96 4a 3f ff 13 61 bf
       -1.1993636 2.855952 0.7913579 -0.87921137
000380 e6 9c c4 3f cd 89 55 be 7f 8a 59 40 bb fc 21 40
       1.5360382 -0.20853348 3.3990781 2.5310504
000390 21 15 e4 bf 1d b2 26 bf 94 9d 82 bf 9a 7c 09 c0
       -1.7818948 -0.6511553 -1.0204339 -2.14823
0003a0 28 58 40 c0 61 a5 98 c0 4c ca 82 3f 1d 53 d9 3f
       -3.0053806 -4.770188 1.0217986 1.6978489
0003b0 54 b5 7d 3e b2 8a 09 bd 66 1f b1 bf 24 91 cd 3f
       0.24776202 -0.033579536 -1.3837707 1.6059918
0003c0 96 83 6f 3f 06 7e 3c c0 df 7b 01 40 a1 7a a1 be
       0.9356016 -2.9451919 2.0231855 -0.3153887
0003d0 a8 19 25 bf 54 c6 7c 3f d2 c9 0b 3f 08 6e 3b 40
       -0.64492273 0.98740125 0.5460483 2.9285908
0003e0 c5 ce be 3f e3 b9 19 40 b6 00 2f 40 72 2b 35 3f
       1.4906851 2.4019706 2.7344184 0.7076942
0003f0 44 3c a1 3f 12 c5 09 3f 34 05 7a be 43 9e 3f 40
       1.2596517 0.5381633 -0.24416047 2.9940345

layer2.0.bias f4 [32]
000000 ba 50 e8 be 57 ca ff bf 3d a2 a1 3f f8 99 34 c0
       -0.4537409 -1.9983624 1.2627636 -2.8218975
000010 cf 0e a3 3d 2d d4 1c bf c8 0d 83 bd 64 55 d2 bf
       0.07961809 -0.61261255 -0.06399113 -1.6432309
000020 25 68 18 3f e9 c3 1b bf 9f a1 c5 bc 08 a8 b7 3f
       0.5953391 -0.6084581 -0.024124919 1.4348154
000030 63 20 1c 3f e3 7d 63 3d 87 02 02 c0 bd db a5 be
       0.6098692 0.055539977 -2.0314043 -0.3239421
000040 7d 51 6f 3f d3 ca 38 3f 87 1e 1d bf 26 8c 00 c0
       0.93483716 0.72184485 -0.61374706 -2.008554
000050 e9 22 c8 be 56 11 95 bd d4 b5 8c 3d 75 0a 35 3f
       -0.39089134 -0.07278697 0.068706185 0.7071908
000060 02 1f e7 bf 60 82 d7 3e 50 69 1c 40 c9 ce 78 3f
       -1.8056338 0.42091656 2.4439278 0.9719053
000070 98 e4 12 3f 11 d0 38 3f e7 c3 50 3c 0b 21 1b 3f
       0.57380056 0.72192484 0.012742019 0.60597295

layer2.1.weight f4 [32]
000000 f8 6f 86 40 27 e4 18 40 62 a4 22 40 9f 3a 57 40
       4.201168 2.3889253 2.5412831 3.362953
000010 79 96 08 40 ea ca 02 40 ce 7d d7 3f 94 ed 1c 40
       2.1341841 2.043635 1.6835268 2.4520006
000020 40 38 ae 3f 23 39 c9 3f b3 40 dc 3f 84 17 19 40
       1.3610916 1.5720562 1.7207245 2.3920603
000030 1e 50 53 40 96 dc 23 40 5b 90 f7 3f 55 d1 00 40
       3.301765 2.5603385 1.9340929 2.0127766
000040 6b 75 10 40 9a fd be 3f e3 bf e7 3f 3f a5 ca 3f
       2.2571666 1.4921143 1.8105434 1.5831679
000050 d1 b3 52 40 7c 33 0e 40 11 93 1e 40 86 08 17 40
       3.2922251 2.2218924 2.4777262 2.3598952
000060 eb 07 05 40 fb 7d 25 40 d5 8c e6 3f 16 39 18 40
       2.0786083 2.5858142 1.8011729 2.3784842
000070 c1 98 df 3f c1 f8 0c 40 63 61 a2 3f ad fe 26 40
       1.7468492 2.2026827 1.268597 2.6092942

layer2.1.bias f4 [32]
000000 b0 b1 1f be 17 1a 6c c0 2f d2 22 c0 f4 ad e1 bf
       -0.15595126 -3.6890924 -2.5440786 -1.7631211
000010 62 55 24 c0 86 fd 3d c0 83 2c fd bf f7 00 80 bf
       -2.5677114 -2.9685988 -1.9779209 -1.0000294
000020 40 42 70 bf 3a 12 80 bf 4a 36 3c bf 88 e4 82 bf
       -0.9385109 -1.0005562 -0.7352034 -1.0225992
000030 7f f0 b0 bf f2 59 83 bf a1 dc 05 be dc 03 f8 bf
       -1.3823394 -1.0261824 -0.13072444 -1.9376178
000040 90 e4 84 bf d9 8e 06 bf 9c cc 96 be 13 77 e6 3e
       -1.0382252 -0.5256172 -0.2945298 0.4501272
000050 4e 1b 89 bf f8 80 19 bf dd dd 86 bf 7a d6 f9 be
       -1.0711458 -0.59962416 -1.0536457 -0.48796445
000060 96 dd 51 c0 b6 80 38 bf 4d 50 d0 bf 6d f4 6a bf
       -3.2791495 -0.720714 -1.6274506 -0.91779214
000070 59 b9 63 bf a5 b8 48 c0 cd f3 f0 be 9a b2 67 bf
       -0.88954693 -3.1362698 -0.47061005 -0.905069

layer2.1.running_mean f4 [32]
000000 f6 17 0e c2 bb 6e 66 c2 5a bc be c2 b7 1f 11 c2
       -35.5234 -57.608135 -95.367874 -36.28097
000010 d6 e0 48 c2 2a aa 99 c2 e5 4f bd c2 71 5f 01 c2
       -50.219566 -76.83235 -94.656044 -32.343204
000020 df c4 89 c2 60 a6 47 c1 cd 21 86 c2 f2 48 2c c1
       -68.884514 -12.478119 -67.06602 -10.767809
000030 1b 6d 61 c2 a1 4d a4 c1 29 2f 51 c2 14 16 25 c1
       -56.35655 -20.537905 -52.296055 -10.31789
000040 d1 dd 09 c1 2e 33 43 c2 2b 09 16 c2 aa 5d 6b 41
       -8.616654 -48.79998 -37.508953 14.710367
000050 0a dd bc c0 2b f2 53 c2 43 39 01 c2 0a 27 e4 40
       -5.9019823 -52.986492 -32.30592 7.1297655
000060 e2 26 2d c2 0e 7e 8a c1 e4 9e 20 41 8d 13 e0 c1
       -43.28797 -17.31155 10.038792 -28.009546
000070 b4 9d f7 c0 fe 96 3f c2 1e d7 17 c2 89 84 23 c2
       -7.738001 -47.897453 -37.960075 -40.87943

layer2.1.running_var f4 [32]
000000 7d ea 28 46 87 82 90 44 f3 5b 05 45 dd 72 f8 45
       10810.622 1156.079 2133.7468 7950.358
000010 47 fe 3e 44 81 f3 a5 44 6f 2e be 44 cb c1 4b 45
       763.9731 1327.6095 1521.451 3260.112
000020 4a bf be 44 89 54 19 45 62 6e 6f 45 2a 38 99 45
       1525.9778 2453.2834 3830.899 4903.0205
000030 7a d4 dd 45 34 e7 c8 45 7a 4e d8 44 e6 33 b5 44
       7098.5596 6428.9004 1730.4524 1449.6218
000040 e9 3e 14 45 e4 57 bc 44 55 8b e0 44 41 4f 47 45
       2371.932 1506.7466 1796.3541 3188.9534
000050 a3 f1 48 45 e8 8c 81 45 2a 6c aa 45 a5 ec 62 45
       3215.1023 4145.6133 5453.5205 3630.7903
000060 36 a4 86 44 d0 eb 4d 45 99 82 41 45 cf c8 cd 45
       1077.1316 3294.7383 3096.1624 6585.101
000070 bd 99 32 45 33 8f a9 44 4b 9f b1 44 0f fe 63 45
       2857.6086 1356.475 1420.9779 3647.8787

layer3.0.weight f4 [64, 32, 3, 3]
000000 e3 7d 35 3e 11 44 86 3f 2c 3e ba be d1 38 1d c0
       0.17723803 1.0489522 -0.36375558 -2.4565928
000010 d2 d6 44 c0 02 5d 70 c0 b8 ae 03 c0 97 69 7c c0
       -3.0756116 -3.7556767 -2.057539 -3.9439447
000020 41 fa 35 c0 bb 81 cb 3e 17 be 96 3f e8 c1 97 bf
       -2.8433993 0.39747414 1.1776761 -1.185605
000030 f5 c5 94 3f 9d 6a 88 40 51 7d 44 40 5d 1b ff 3e
       1.1622912 4.2630143 3.0701487 0.49825564
000040 80 6f 05 c0 8c a1 01 41 90 d2 c1 bf e3 72 90 c0
       -2.0849304 8.10194 -1.5142384 -4.5140243
000050 c6 69 15 c0 d8 19 bd 3f d0 8c 1b 40 7d ee a6 3f
       -2.334581 1.4773512 2.4304695 1.3041531
000060 e7 a1 6d 3f 05 13 0a 40 27 e9 69 40 02 15 6d 3e
       0.9282517 2.1574109 3.6548555 0.23152545
000070 1b dc 20 40 f3 dd df bf 9b 5c 11 40 ee d6 28 bf
       2.5134342 -1.7489609 2.2712772 -0.65952957
000080 5b 48 76 c0 06 03 ac 3f dd e8 cc 3e 59 46 b0 c0
       -3.8481662 1.3438423 0.4002141 -5.5085874
000090 fc a0 5f 3d 3f 66 86 3e 39 35 85 3e 63 87 94 bf
       0.054596886 0.26249883 0.26017168 -1.1603817
0000a0 24 24 9b bf 63 58 84 3f 4d 26 80 c0 44 d8 95 3e
       -1.2120404 1.0339473 -4.0046754 0.2926656
0000b0 dd 3a 05 40 8b d3 a8 bf cc 76 de 3c 60 35 4a bf
       2.0817177 -1.3189558 0.027156256 -0.78987694
0000c0 e9 9e c0 bf 24 1b 8b be df 5d 90 3f 67 88 2a be
       -1.5048496 -0.27169144 1.1278647 -0.16653596
0000d0 3e 57 34 bf 92 0b 41 3f 80 35 d3 3f c7 75 9e 3f
       -0.7044562 0.7540828 1.6500702 1.2379693
0000e0 6b 1b 61 3e e7 52 c4 3f 33 68 82 3e 26 f6 08 40
       0.21983115 1.53378 0.25470123 2.1400237
0000f0 07 12 fc bf 95 57 51 3f 81 25 bb 3f 95 89 80 bf
       -1.9693002 0.81774265 1.462082 -1.0041987
000100 ba bd a1 bf e1 0d 53 3f 07 37 0e be af 7c 01 3f
       -1.2636025 0.8244305 -0.13888179 0.5058088
000110 4e 22 37 bd 9f 4a 97 bd 30 82 d7 3e 8a fc d1 bf
       -0.04471045 -0.0738728 0.42091513 -1.6405194
000120 fe 35 ef 3f 0d 27 82 3e 3d b9 c6 bf cf 03 bd 3f
       1.8688352 0.25420418 -1.552528 1.4766787
000130 c8 1f 73 40 fd f2 be 3f 5a b8 78 be 87 5a 59 3e
       3.7988148 1.4917904 -0.24289075 0.2122594
000140 ea 24 93 40 e6 86 b6 3f e4 6a 55 bf cb 05 02 bf
       4.598256 1.4259918 -0.8336623 -0.5079009
000150 79 70 2f be 11 68 86 bd ae fb d3 be f4 4e ef be
       -0.17132749 -0.06562818 -0.41402954 -0.46739924
000160 5b 48 c8 be bd 0c 8b 3e 48 de ac 3e 18 66 97 3f
       -0.39117703 0.27158156 0.33763337 1.1828032
000170 f9 c3 a3 3f c6 29 23 3f 85 0a ca be 6f 4b 01 bf
       1.2794181 0.63735616 -0.3946115 -0.5050573
000180 74 b6 80 3f ed 6d 0a 40 01 d0 9a 3e 62 96 04 c0
       1.005568 2.1629593 0.3023682 -2.0716786
000190 92 49 68 3f b9 82 88 3f 26 5c 6a bf 9e 0d 0b c0
       0.9073726 1.0664893 -0.9154686 -2.1727061
0001a0 03 7d 5b bf 91 ae 2a 3f d2 ae 96 3e 1b cf 64 be
       -0.8573763 0.6667262 0.29430252 -0.2234463
0001b0 b2 5a ea bf 80 92 7c 3e 9c df e8 3f 6c ea d0 3e
       -1.8308928 0.2466526 1.819324 0.4080385
0001c0 87 0e f5 3e a7 91 e4 3f 0d 61 2a bf 29 60 09 c0
       0.47862646 1.785695 -0.6655434 -2.1464942
0001d0 d8 0e 58 c0 ab 7d 61 3f b6 ca e9 bf cd c5 47 3f
       -3.375906 0.8808238 -1.8264987 0.78036195
0001e0 eb 76 5c bf dc a8 dd bf ff ac 0b c0 64 c7 60 bf
       -0.86118954 -1.7317157 -2.1824338 -0.87804246
0001f0 08 75 d2 bf d1 4d 0a 3c 6f bd 56 3f 6e 12 b7 3f
       -1.6441965 0.008441404 0.838828 1.4302499
000200 59 f4 16 40 d1 7f 47 bf 3a dd 03 3e c2 7a 86 40
       2.3586638 -0.7792941 0.1287736 4.202485
000210 0d 4f 1f bf e4 9d 32 c0 09 b7 89 3f e1 2f 81 3e
       -0.62229997 -2.7908869 1.0758983 0.2523184
000220 d2 6b 61 3f 4e 55 8b 3f 6b 4d 6a 3f e5 d4 47 3e
       0.88055146 1.0885408 0.9152438 0.19514807
000230 0b 55 04 3f c9 84 ee bf 9b 0b 3f bf 97 68 ee 3f
       0.51692265 -1.8634273 -0.74627084 1.8625668
000240 b2 88 d9 3e bc 58 b6 3f 4f e9 21 3f 10 77 de 3f
       0.42487103 1.424583 0.63246626 1.7380085
000250 40 d1 ff 3e cd 3f 05 bf 7a 88 69 3f 2e c7 64 40
       0.49964333 -0.5205048 0.9122387 3.574657
000260 24 38 cd bf 53 9e 77 bf e6 d9 8d bf 43 2a 0b c0
       -1.6032758 -0.9672596 -1.1082122 -2.1744545
000270 c7 0d fd 3f be 77 87 bd 5b 7c 41 c0 15 c2 c1 3f
       1.976983 -0.06614636 -3.023215 1.5137354
000280 14 11 19 40 3e 47 47 be 07 38 31 bf 65 e3 19 bf
       2.3916674 -0.1946077 -0.69226116 -0.601126
000290 f6 0d da bf e5 80 d2 3f 08 20 9b 3f 2b b8 1c 40
       -1.703551 1.6445585 1.211915 2.4487407
0002a0 94 ef 94 3f 29 e9 82 3e 7b 4a 36 3f 70 62 35 3f
       1.1635613 0.25568512 0.712074 0.7085333
0002b0 cd 85 81 3f 8e c2 b2 bd 9e 75 df 3f 0f e9 89 3f
       1.0118958 -0.087285146 1.7457769 1.0774249
0002c0 7c ce 6f bf 37 dd 20 be 31 4c b3 3f 3e ca 1d 40
       -0.93674445 -0.15709387 1.4007627 2.465469
0002d0 e3 53 ee 3e fe d9 8f bf 0d 34 af 3e 73 bc 7c 3f
       0.46548375 -1.1238401 0.342194 0.9872505
0002e0 ac 33 39 bf 15 27 53 3f 80 3a 87 3f 11 42 b9 3f
       -0.7234447 0.8248151 1.0564728 1.4473287
0002f0 65 9c 9c 3f 83 e3 41 3f e7 13 61 bf 05 64 40 3d
       1.2235228 0.7573778 -0.87920994 0.046970386
000300 be 2c 12 3f 13 b8 25 3f 8d ae 40 3e f8 f4 24 bf
       0.5709952 0.64734 0.18816586 -0.6443629
000310 9e 36 0e bd aa b7 b9 be be 65 84 bd 0a 02 03 c0
       -0.034720056 -0.36272937 -0.06464718 -2.0469995
000320 0b 17 d9 bf 3c ac 49 bf 07 79 93 c0 3a 9e e8 bf
       -1.6960157 -0.78778434 -4.608524 -1.8173287
000330 9b b4 a4 3d 8b 10 5a c0 15 ec 92 bf 11 75 fe 3e
       0.0804226 -3.4072597 -1.1478297 0.4969869
000340 bd f4 87 bf 26 27 81 bf 26 45 c4 3f 47 36 09 c0
       -1.0621563 -1.0090072 1.5333602 -2.1439378
000350 6f a2 8d bf 47 c7 86 3e 5a dc d9 3f bb f6 2c c0
       -1.1065196 0.26323912 1.7020371 -2.7025592
000360 92 f3 ec 3f c2 6e c8 3f 26 6a 7a 3f 79 be 32 bf
       1.8511832 1.5658801 0.9781822 -0.6982189
000370 35 6d 5a 3f 72 0a 2f c0 5e af 94 bf 74 95 dc bf
       0.85322887 -2.7350125 -1.1616018 -1.723311
000380 8e 20 e0 3f a5 14 8f bf 30 51 08 c0 b0 a1 6e be
       1.7509935 -1.1178175 -2.1299553 -0.23303866
000390 6e 5f b5 bf c7 d1 9f c0 77 ad 16 3f 01 f1 5d be
       -1.4169748 -4.9943576 0.58858436 -0.21673967
0003a0 f2 f2 99 bf 10 a4 25 c0 91 8b ec 3e 05 22 90 bf
       -1.2027266 -2.5881386 0.4620023 -1.1260382
0003b0 59 35 79 3f df eb ec 3e 4d 3a df be fc 06 c1 3e
       0.9734703 0.46273705 -0.43599167 0.3770064
0003c0 13 65 d3 3e 46 f9 5c c0 29 2e 0a c0 08 82 22 40
       0.4128805 -3.4527144 -2.1590674 2.5391865
0003d0 28 ac 4c 3e f5 70 20 3c 90 52 98 3f 1c b9 73 be
       0.19987547 0.009792556 1.1900196 -0.23801082
0003e0 2f e8 67 be 4e 57 a5 3f 97 5c 0c 40 bd 2b dc 3f
       -0.22647165 1.2917268 2.1931512 1.7200848
0003f0 2f 57 11 bf fb ab 80 3f dd 42 e4 3e 47 17 d9 bf
       -0.56773657 1.0052484 0.44582263 -1.6960229

layer3.0.bias f4 [64]
000000 48 c8 92 bd 97 96 50 bd 0f 90 4e bd 9a 12 bc bd
       -0.07167107 -0.050924864 -0.050430354 -0.091832355
000010 c4 cd 1a bd 93 1d 85 bd ca 58 60 3e f0 3b dd 3c
       -0.03779389 -0.064997815 0.2190887 0.02700612
000020 f3 7b 31 3d b2 d8 a0 3d 02 bc ed 3d 33 d1 4f bd
       0.043331098 0.07853831 0.11608125 -0.050736617
000030 15 1d 55 3e 34 b3 cd 3d c0 d1 cd 3d b7 f2 aa 3d
       0.20811875 0.10043946 0.10049772 0.083470754
000040 77 81 14 be 9b 74 00 3d 3b 18 3f be e6 94 d8 ba
       -0.14502512 0.031361204 -0.18661587 -0.0016523867
000050 34 d8 43 3d 1f 44 dc 3b 36 77 b3 bc 36 bc 93 bd
       0.04781361 0.006721988 -0.02190743 -0.07213633
000060 6a a0 91 3e bd 5c 98 3d 54 01 d5 3d 2a 6f ae 3d
       0.284427 0.074395634 0.10400644 0.085172966
000070 59 4e 98 bd 5a 71 1c 3d dc c2 a0 bd c7 c5 c1 bd
       -0.07436819 0.038194038 -0.078496665 -0.09461551
000080 49 b4 fd bc 36 45 f8 bd e8 cf 02 3e 5f b8 1f 3e
       -0.030969756 -0.12122576 0.12774622 0.15597676
000090 65 b2 f0 3c 2c 6f 72 3d 63 8e 1d be e7 97 a1 bd
       0.02938194 0.059188053 -0.15386347 -0.07890301
0000a0 30 67 6d bd 4c 75 80 3d 37 17 bb 3d 3f dc 41 3c
       -0.057959735 0.062723726 0.09135287 0.011832296
0000b0 23 5c 9b bd ed 37 da bd f0 a4 0f 3d 80 1c 4c bd
       -0.07585933 -0.10655198 0.035069406 -0.049831867
0000c0 ab bf 0e be db 10 94 3d f0 ee df bd e0 07 01 be
       -0.13940303 0.072297774 -0.109342456 -0.1260066
0000d0 cb c6 b3 bd 2e 6f d7 be 99 69 95 3d 1e 30 a3 3d
       -0.08778151 -0.4207701 0.07295532 0.07968162
0000e0 ae 69 a0 bd e8 e5 45 3c 82 0b 38 3c d3 ad bb bc
       -0.07832657 0.01207874 0.011233212 -0.022910034
0000f0 b6 25 b0 3d 23 ba c9 bd 92 c7 77 3d 30 cd 99 bc
       0.08600943 -0.09849956 0.06049306 -0.018774599

layer3.1.weight f4 [64]
000000 f3 a1 e2 3f 18 40 09 40 06 33 08 40 03 eb 04 40
       1.7705673 2.144537 2.1281142 2.076844
000010 82 f5 11 40 3c 9e e1 3f 6b 47 05 40 a7 11 1c 40
       2.2806096 1.7626414 2.082484 2.4385774
000020 83 f7 07 40 8f 3f f7 3f 39 c6 3a 40 0a b4 e5 3f
       2.124482 1.9316272 2.9183486 1.7945569
000030 e4 16 d6 3f 17 9f fb 3f ad 7f 2a 40 56 4b 08 40
       1.6725736 1.9657925 2.6640427 2.1295981
000040 b9 a5 15 40 a2 f7 15 40 f5 ec ec 3f 41 e0 0a 40
       2.33824 2.3432393 1.8509814 2.1699374
000050 dd d0 e2 3f 7e 3b 87 3f 91 7d 1f 40 08 51 f2 3f
       1.771999 1.056503 2.492039 1.8930979
000060 f5 67 f8 3f 43 bb f3 3f b0 64 e9 3f 18 e6 df 3f
       1.9406725 1.9041523 1.8233852 1.7492094
000070 dd 09 e8 3f 96 0c 0e 40 f8 36 07 40 7e c6 1d 40
       1.812801 2.2195182 2.11273 2.46524
000080 fa 94 f8 3f 73 a2 0b 40 84 a3 17 40 1f 27 08 40
       1.9420464 2.18179 2.3693552 2.1273878
000090 68 15 ca 3f e6 b5 05 40 81 a6 0b 40 7a 16 0a 40
       1.5787783 2.0892272 2.1820376 2.1576219
0000a0 6c ca e4 3f 93 28 1f 40 0c 89 1c 40 56 bb f9 3f
       1.7874274 2.4868515 2.4458647 1.9510295
0000b0 ff cc 04 40 b2 06 15 40 49 2a 04 40 ce 78 11 40
       2.075012 2.3285336 2.065081 2.2729983
0000c0 9b 02 de 3f 05 bb c8 3f 03 8c 0b 40 9c d9 10 40
       1.7344545 1.5682074 2.1804206 2.2632818
0000d0 81 90 20 40 50 5a f1 3f c0 ef f4 3f 7a 5f 0f 40
       2.5088198 1.8855686 1.9135666 2.2402024
0000e0 1d 11 20 40 7d ff 18 40 ea 6d d8 3f 42 de 27 40
       2.5010445 2.3905938 1.6908543 2.6229405
0000f0 08 72 17 40 c9 cf d2 3f 3c cc dd 3f 10 17 14 40
       2.366335 1.6469661 1.7327952 2.3139076

layer3.1.bias f4 [64]
000000 1d 26 a8 bf a2 de 0c c0 15 38 10 c0 8c d3 e5 bf
       -1.3136631 -2.2010884 -2.253423 -1.7955184
000010 df d2 8f bf 10 ee 10 c0 5a bf be bf 1f 27 17 c0
       -1.1236228 -2.2645302 -1.4902146 -2.3617628
000020 c5 c4 f1 bf cc ae 03 bf 45 48 55 c0 c5 ff b4 bf
       -1.8888174 -0.51438594 -3.332536 -1.4140555
000030 ff 8c 98 bf bd ec 10 c0 25 07 d3 bf fc 14 e9 be
       -1.1918029 -2.2644494 -1.6486555 -0.45523822
000040 49 0c 18 c0 bd 99 d4 bf 08 03 be bf a9 d6 f3 bf
       -2.3757498 -1.6609417 -1.4844675 -1.9049884
000050 a7 75 99 bf a3 9a 73 bf bc 3f f1 bf 47 cb bc bf
       -1.198903 -0.9515783 -1.8847575 -1.4749535
000060 3c 4c 3f c0 f1 f6 08 c0 89 36 d0 bf 76 65 47 bf
       -2.989028 -2.140072 -1.6266643 -0.7788919
000070 b5 12 af bf fb 46 e3 bf 61 a8 9d bf 66 11 eb bf
       -1.3677584 -1.7756037 -1.231701 -1.8364685
000080 a3 af 89 bf 43 a6 ee bf 2b c2 ef bf 05 13 0c c0
       -1.0756725 -1.8644489 -1.873113 -2.1886609
000090 74 4b 9f bf 08 eb 17 c0 6e a5 06 c0 24 f1 9c bf
       -1.2444901 -2.3737202 -2.103847 -1.226109
0000a0 e0 41 21 c0 4f d5 55 bf 5d 9e 01 c0 20 d2 cc bf
       -2.5196457 -0.8352861 -2.0252907 -1.6001625
0000b0 ea 5e 3d bf 0c ce de bf 86 ad 1d c0 9c 58 3f c0
       -0.7397295 -1.740663 -2.463716 -2.9897833
0000c0 a4 d6 8c bf 8c c2 b8 bf 2f 77 92 bf e9 74 f0 bf
       -1.1003003 -1.4434371 -1.1442622 -1.8785678
0000d0 bc ea db bf c6 48 ed bf 36 7b d7 bf a1 e5 ae bf
       -1.718101 -1.8537834 -1.6834476 -1.3663827
0000e0 3c fe 00 c0 9c 79 5f bf b8 91 18 bf 48 f2 dc bf
       -2.0155172 -0.87294936 -0.5959735 -1.7261438
0000f0 63 88 e0 bf 9f a2 92 bf c3 ed 24 c0 f7 1b 36 c0
       -1.7541622 -1.1455878 -2.5770118 -2.8454568

layer3.1.running_mean f4 [64]
000000 06 a4 c1 c1 8c 9e 61 c2 ed 39 35 c1 f2 1a 64 c2
       -24.20509 -56.40483 -11.326642 -57.026314
000010 fe ed 91 c2 e9 38 8c c1 2f 76 8d c2 45 98 6a c1
       -72.96483 -17.527788 -70.73083 -14.662175
000020 61 f6 0a c2 a9 0b f7 bf af eb 5a c2 52 94 6e c2
       -34.740604 -1.9300433 -54.73016 -59.644844
000030 85 41 0a c2 f0 8b 2d c2 e4 09 53 c2 3f 89 5a c2
       -34.563984 -43.386658 -52.75966 -54.63403
000040 3f 4a 67 c2 17 6a 5f c2 3f 1d 1d c2 87 c1 d3 c1
       -57.822506 -55.853603 -39.27856 -26.469496
000050 0e 18 82 c2 ab 9c f7 c0 c5 1a a1 c2 2f 79 5a c2
       -65.04698 -7.7378745 -80.552284 -54.618343
000060 d1 28 1a c2 af 6f ef c0 55 a4 b9 c1 bb 96 a7 c2
       -38.53986 -7.4823833 -23.20524 -83.794395
000070 f6 e6 61 c2 34 05 29 c2 57 07 76 c2 bd fa c7 c1
       -56.475548 -42.25508 -61.507168 -24.99743
000080 c8 53 16 c2 2b f1 59 c2 e1 ce 7a 41 b7 7e 62 c2
       -37.581818 -54.485516 15.675508 -56.623745
000090 07 c7 37 c2 7c 75 fd c0 b6 f4 11 c1 a0 4e fd c1
       -45.944363 -7.9205914 -9.122244 -31.663391
0000a0 b5 4d e3 c1 94 34 52 c2 56 e1 ee c0 e2 70 11 c2
       -28.412943 -52.551346 -7.465007 -36.360237
0000b0 50 65 2e c2 d8 8b f1 c1 08 23 92 c0 58 4b ae c1
       -43.598938 -30.193283 -4.5667763 -21.786789
0000c0 86 34 0b 42 c6 db 44 c1 98 95 65 c2 bd 9e 5a c2
       34.801292 -12.303656 -57.396088 -54.655018
0000d0 af 9c 03 c2 bc e9 22 c2 c8 26 3c c2 98 fd 12 c2
       -32.90301 -40.728256 -47.037872 -36.74765
0000e0 c5 7f 31 c2 df 65 2e c2 d4 93 69 40 60 aa 40 c2
       -44.374775 -43.599483 3.6496477 -48.16638
0000f0 9a aa 4a c2 0c 50 39 c1 07 e2 59 c0 7a af 10 c2
       -50.666603 -11.582043 -3.4044206 -36.171364

layer3.1.running_var f4 [64]
000000 f5 81 02 45 18 28 24 45 7a 62 2b 45 6e bb b9 45
       2088.1223 2626.5059 2742.1548 5943.4287
000010 33 e1 a6 45 09 cc 21 45 88 15 93 45 2f 31 b1 45
       5340.15 2588.7522 4706.6914 5670.148
000020 6e f2 4e 45 45 b2 bf 45 29 13 cd 45 c7 f9 b3 45
       3311.1519 6134.2837 6562.395 5759.222
000030 cf 5f 03 45 c9 2f 3d 45 7e a1 0f 46 cf ad e9 45
       2101.988 3026.9866 9192.373 7477.726
000040 fd 43 55 45 0b 6d af 45 dd 37 66 45 78 91 a8 45
       3412.2493 5613.6304 3683.4915 5394.1836
000050 19 c8 a9 45 3a 9e 7d 45 87 74 c1 45 cd 7d 9e 45
       5433.012 4057.8892 6190.566 5071.725
000060 fb dc 10 45 84 31 6c 45 20 d0 89 45 e8 7a 95 45
       2317.8113 3779.0947 4410.0156 4783.3633
000070 ef 57 75 45 e0 54 9f 45 05 4f 68 45 2b 35 e2 45
       3925.4958 5098.6094 3716.9387 7238.646
000080 5b c8 bc 45 f0 63 bd 45 d3 42 a2 45 d2 97 a4 45
       6041.0444 6060.492 5192.353 5266.9775
000090 e7 0f 69 45 b2 94 b2 45 ed 00 0d 45 04 61 5e 45
       3728.994 5714.587 2256.0579 3558.0635
0000a0 9b 71 fc 44 9e ca 06 46 41 ce b6 45 88 c5 3d 45
       2019.5502 8626.654 5849.7817 3036.3457
0000b0 67 94 dc 45 a2 9a ac 45 6d 96 1e 45 c2 32 16 45
       7058.5503 5523.329 2537.4016 2403.1724
0000c0 12 e5 86 45 a0 90 1f 45 ac c9 e3 45 e9 f2 59 45
       4316.634 2553.039 7289.209 3487.182
0000d0 46 f9 68 45 c6 76 7e 45 80 38 6f 45 77 98 bc 45
       3727.5796 4071.4233 3827.5312 6035.058
0000e0 b2 70 0e 46 94 d3 f1 45 da 7a 72 45 7d 5c fb 45
       9116.174 7738.4473 3879.6782 8043.561
0000f0 c4 c7 c9 45 dc 63 66 45 d3 6d e4 44 b6 e7 31 45
       6456.9707 3686.2412 1827.432 2846.482

layer4.0.weight f4 [128, 64, 3, 3]
000000 10 69 1e 3e 5d cd c8 bc b6 1c 2d 3f e3 48 92 be
       0.15469766 -0.024511987 0.67621934 -0.28571233
000010 a6 2a 43 bf a4 9d ed 3e 9a 08 f8 be 23 41 bf be
       -0.7623695 0.46409333 -0.48444062 -0.37354383
000020 31 b1 60 3f d9 38 22 3e 28 d7 5d be 5b 22 24 3e
       0.8777037 0.15841998 -0.21664107 0.1602873
000030 5c 74 22 bf 50 39 14 bf f7 e4 28 be 3e c8 13 bf
       -0.634588 -0.5789995 -0.16493593 -0.5772742
000040 f6 17 d2 bd 3b 27 2c 3f 30 c3 1c 3f 11 47 c7 bd
       -0.102584764 0.6724736 0.6123533 -0.09730352
000050 40 26 a5 3e ea 72 1b 3e df 31 42 bf 62 3e f3 be
       0.32255745 0.15180555 -0.7585735 -0.47508532
000060 90 71 f9 be b9 34 69 bf 35 08 18 3f 19 49 e8 be
       -0.48719454 -0.91096073 0.5938752 -0.4536827
000070 1b 44 15 bf 96 44 6d be d9 4d ab 3e c4 c9 c9 be
       -0.58307046 -0.23170695 0.3345783 -0.39411747
000080 84 5f 61 be 3f 9a 42 3f 4d 07 ad bd 51 a6 ba be
       -0.22009093 0.7601661 -0.08448658 -0.36455014
000090 9a de f8 be f7 64 aa be ab d5 a0 3c a0 49 21 bf
       -0.48607332 -0.33280155 0.019633135 -0.6300297
0000a0 08 f5 2f bf b4 53 82 bd a3 95 30 be b3 72 ee be
       -0.68733263 -0.06363621 -0.17244582 -0.46571884
0000b0 1b e5 a4 bd a3 32 1d 3f 40 ad 9c 3e 7e 6b 7c 3e
       -0.08051511 0.6140539 0.3060093 0.2465038
0000c0 71 d5 90 3c 85 18 9c be 9f 7b b5 be b9 38 ef be
       0.017679902 -0.30487457 -0.35445878 -0.46722963
0000d0 21 84 e1 be 20 1e 32 3f 66 63 30 be 42 4b 88 bd
       -0.4404612 0.6957722 -0.17225417 -0.06654979
0000e0 97 2d 80 3e c1 ad 11 bf d3 e9 1f bf ff 75 23 3e
       0.25034782 -0.5690575 -0.6246616 0.1596298
0000f0 91 ff 1a bf 3c c8 3c 3d c6 0c 0f 3f 25 44 0b 3f
       -0.60546213 0.046089396 0.55878866 0.54400855
000100 58 ab a4 3e e8 a5 c8 be c6 1a ca 3e 07 bd ca 3e
       0.32161975 -0.39189076 0.39473552 0.3959734
000110 ac 1d ac 3e 1f 0f 3b bf 20 6d 4f bf cc 8f 88 be
       0.33616388 -0.7306995 -0.81025887 -0.26672208
000120 44 04 83 3e f2 50 46 3e 08 33 4b bf df a8 39 bf
       0.25589192 0.19366816 -0.7937474 -0.725233
000130 4c 37 1b bf d6 9e a8 3e f2 b3 13 bf 3e 43 8b be
       -0.6063125 0.32933682 -0.5769645 -0.2719974
000140 68 f2 4a 3f f3 f8 1b 3e 2a 7a 8d be e4 b3 6a bd
       0.7927613 0.15231685 -0.27632266 -0.057300463
000150 bf 8a 1e 3d e0 db 8e be f9 cb d2 be 15 b6 29 bf
       0.038706537 -0.27902126 -0.41171244 -0.6629346
000160 2c b0 86 3d 66 89 05 3f f6 7a f5 3e 07 9d 7d be
       0.06576571 0.5216278 0.47945374 -0.24766932
000170 3f 88 78 bf 1e 1d 14 3f 83 28 7c 3e 7a a0 4d 3e
       -0.97082895 0.5785693 0.24624829 0.20080748
000180 fe c4 07 bf 08 f0 3f bf 63 2e 11 3f 7f 54 0e 3f
       -0.5303496 -0.74975634 0.56711406 0.5559768
000190 ce ca 7f 3f 66 db 6d be da ba a9 3e 02 ed c5 be
       0.9991883 -0.23228225 0.3315037 -0.38657385
0001a0 1e 48 97 be cd 37 bd be e7 02 1e bf 5d e7 14 3f
       -0.2954721 -0.36956635 -0.6172318 0.5816553
0001b0 47 61 c5 3e f9 71 b7 3e 7f f7 2a 3f 23 9b 04 bf
       0.3855078 0.35829142 0.667839 -0.5179922
0001c0 48 b9 33 bf 31 7f b3 bd f5 83 40 bf 11 79 55 bd
       -0.7020459 -0.08764494 -0.7520135 -0.05211741
0001d0 32 30 44 3f a2 f1 44 3e 66 47 ba be c6 00 5a 3f
       0.7663604 0.192328 -0.36382598 0.8515743
0001e0 7f 41 2d bd 0c 3c 45 bf fd b1 0e 3e 65 6d 83 3d
       -0.04229879 -0.7704475 0.13935085 0.0641735
0001f0 97 c4 af 3c 05 5a 41 3f 56 2a d3 3e 32 c3 39 3f
       0.021456046 0.75527984 0.41243237 0.7256347
000200 ba 2d 2a bf 8e df d8 3f 63 37 67 3f 27 00 8c be
       -0.66476023 1.6943223 0.9031889 -0.27343866
000210 c6 24 f2 3d 57 c5 da be 36 44 f4 be 12 51 3b bf
       0.1182342 -0.42728683 -0.4770829 -0.7317058
000220 e6 45 bb be fe 2c 29 bf 87 7f be 3d 2e ae 06 3f
       -0.36576766 -0.6608428 0.09301668 0.5260953
000230 4d 9e 80 3e a9 0e 01 be dc df 04 be a5 fb 88 be
       0.25120774 -0.12603249 -0.1297602 -0.2675449
000240 d9 58 d5 3e be 14 9b 3e 23 03 81 be dd 42 da be
       0.41669348 0.30289263 -0.25197706 -0.42629138
000250 99 86 14 be 49 83 47 3e 5b 3f 5d bf 74 d8 1b be
       -0.1450447 0.19483675 -0.864248 -0.15219289
000260 0d bf 2e 3f 93 94 11 3f 11 61 be 3e e1 b4 3b 3f
       0.6826027 0.5686733 0.3718343 0.73322874
000270 72 21 55 3f df dc 6e 3e 4b a1 cc 3c b4 50 97 bd
       0.8325416 0.23326443 0.024979254 -0.0738844
000280 11 2d 57 bf d0 18 a2 bd 81 62 f1 3e a7 f1 89 be
       -0.8405314 -0.07914889 0.47145465 -0.2694218
000290 56 25 59 be 5f 52 d1 bd 28 f3 51 bf e7 c0 53 be
       -0.21205649 -0.10220789 -0.8201165 -0.20679055
0002a0 09 23 15 bd 68 4a 48 be 08 4f 0c 3f 54 dc a5 be
       -0.036410365 -0.19559634 0.5480809 -0.3239466
0002b0 28 6f b9 3e 71 34 cf be 01 98 0d 3e 15 8a ac 3e
       0.36217618 -0.40469697 0.13827516 0.33699098
0002c0 14 42 23 be e3 78 5c 3e b8 2a 34 bf fa b4 2d be
       -0.15943176 0.2153049 -0.70377684 -0.16963568
0002d0 4f 08 a3 bb 81 0b 34 3f 7d e4 70 3f 9c 86 04 3e
       -0.0049753557 0.70330054 0.94098645 0.12941974
0002e0 fa a9 89 bc 0a 90 4e be 77 14 ff be 12 74 44 bf
       -0.016804684 -0.20172134 -0.498203 -0.7673961
0002f0 6b 94 a4 bd 15 e0 f7 3e f9 8a 14 be b3 f6 97 3e
       -0.08036121 0.4841315 -0.14506139 0.29680404
000300 78 95 ba be 94 8d 59 be 82 6a 0e 3e 5d 86 09 bf
       -0.3644216 -0.21245414 0.13907817 -0.5372065
000310 7a c6 b9 be 12 b8 26 3f 95 ff 52 3d 56 8d 3a 3f
       -0.36284238 0.6512462 0.051513273 0.7287191
000320 0a 58 4f bd 7c 92 ee 3d 17 ef ef bc f8 3c 21 3d
       -0.05062107 0.116490334 -0.029288812 0.039364785
000330 e0 43 e7 be cb 0a 2c 3e 49 73 cc 3d 44 e1 05 3f
       -0.45168972 0.16800992 0.099829264 0.52296853
000340 e3 79 8e bd 48 1f 71 be d2 c2 6b be e0 00 4e bf
       -0.06956842 -0.23547089 -0.23023537 -0.80470085
000350 43 eb 9c bd 43 7e a2 be d5 ed 3c bf 75 fd 04 bf
       -0.0766206 -0.31736955 -0.738004 -0.51949245
000360 c5 f8 fc bd ff 5c f9 3d fc 31 c0 3e 29 c1 0b 3e
       -0.123521365 0.12175941 0.37538135 0.13647904
000370 39 5b 20 bf cb 45 e8 3e f3 51 23 bf 08 33 f3 be
       -0.62639195 0.45365748 -0.6379692 -0.4749987
000380 3a 2e 43 3f 0e 58 bd 3e 12 e3 f0 3e 7b da 97 3e
       0.7624241 0.36981243 0.4704824 0.29658875
000390 58 85 cc 3e 32 b4 b2 bd 90 b1 95 3e 5f 05 21 bf
       0.39945483 -0.08725776 0.29237032 -0.6289882
0003a0 35 f1 d8 be 04 42 66 3f ae 21 1f 3f 3e 11 57 3d
       -0.42371526 0.8994448 0.62160766 0.052506678
0003b0 ed 50 4d be c9 ce 27 be c5 0c 3e 3f 42 17 82 3e
       -0.20050402 -0.16387476 0.74238235 0.2540837
0003c0 c9 eb 28 be a8 aa fa bd f8 3c 97 be 54 94 57 3f
       -0.16496195 -0.12239581 -0.29538703 0.84210706
0003d0 e4 3d ba 3d 17 fd ed be cb 0b a0 be e2 af 4e bf
       0.09093836 -0.46482155 -0.31258997 -0.80737126
0003e0 3b b4 94 be e9 62 17 bf e9 f2 54 bf 8b 09 03 3f
       -0.29043755 -0.591353 -0.8318315 0.51186436
0003f0 e5 05 24 3f 29 27 ab 3e fd 9a de 3e 6d 35 17 bf
       0.64071494 0.33428314 0.43477622 -0.59065896

layer4.0.bias f4 [128]
000000 a9 f8 db 3c 5e d0 01 bd a3 9c b4 bd 47 1e b1 bd
       0.026851969 -0.031692855 -0.088189386 -0.08648353
000010 a1 88 38 3d 57 19 05 3d 3a 78 e5 bc a4 a8 13 bd
       0.045052174 0.03249487 -0.02801143 -0.0360495
000020 41 a5 8b 3c dc f1 9a 3c ce 47 3a bd 6f 80 00 3e
       0.017046573 0.018914156 -0.045478635 0.12548994
000030 c8 e1 31 3c 74 22 33 3d 21 00 59 bd f4 ef 3f 3c
       0.010857053 0.04373403 -0.05297864 0.011714924
000040 6b 91 37 bc 68 25 8d 3d 2f d2 86 b9 8f d5 78 3d
       -0.011204104 0.068919 -0.0002571507 0.06075054
000050 7f 98 da bc e9 c6 81 3c 5a e0 98 bc 4a 52 57 bc
       -0.026684044 0.015841918 -0.018661667 -0.013142178
000060 d1 d8 57 bd df 9d a6 3b 99 6a 89 3b 13 d5 19 3b
       -0.052697007 0.0050847377 0.0041936156 0.002347295
000070 e9 11 f7 3c 7c b1 8b 3c 3f ca ca bc 37 23 84 bd
       0.030159907 0.017052405 -0.024754642 -0.06452029
000080 54 80 fc 3b 3f db 8b 3c 0a 8f 8b bc 2e 2f ce 3b
       0.0077057276 0.017072318 -0.01703598 0.0062922454
000090 77 fc 1e bd 26 db 8e 3d 3f a8 1a 3d 6f e8 63 bd
       -0.038814988 0.06975393 0.03775811 -0.055641588
0000a0 e4 82 99 ba e4 4b 21 bd 1a e1 87 3d 6c 3b 44 bc
       -0.0011711982 -0.039379016 0.066347316 -0.011977058
0000b0 c8 4b 82 3d dc 63 b9 bc 87 e2 81 3d 9e fe ba 3c
       0.063621104 -0.022630624 0.06342035 0.022826489
0000c0 57 2a c4 bc 81 61 02 bd 63 ef 77 bd 80 ae f6 39
       -0.02394597 -0.03183127 -0.06053103 0.0004705079
0000d0 c6 bc 4f bc 7b 2c 16 bd a6 c0 52 bd e5 22 46 bd
       -0.012679284 -0.036663514 -0.051453255 -0.04837312
0000e0 2f dd 2a 3b 26 73 cd 3d 25 67 b1 3b 24 d8 70 3c
       0.0026071777 0.100317284 0.005413907 0.014699969
0000f0 b1 f5 14 3d 44 d3 27 3d c0 a6 03 3d 84 6c 8d 3d
       0.036367122 0.040972963 0.032141447 0.06905463
000100 88 0d 65 bc 10 25 8b bc d0 08 0f 3d c6 9c c2 bc
       -0.013980277 -0.016985446 0.034920514 -0.023756396
000110 3a 8d 47 3d 4a 04 fd 3c 15 00 ab 3c d7 71 32 3d
       0.04871867 0.030885834 0.020874063 0.043565597
000120 0c 75 26 bc e9 00 d5 3d f5 fc a4 bc ed 60 8a bc
       -0.010159742 0.10400564 -0.02014015 -0.016891921
000130 d5 c8 60 3c 2c 0b a6 bc 1c 9f 6d 3b 3a da 65 bb
       0.013719757 -0.020268999 0.0036258167 -0.00350727
000140 06 a0 c0 3c c1 d3 84 3c 60 a5 05 3d 81 10 b7 3c
       0.023513805 0.016214253 0.032628417 0.022346737
000150 fa d8 6a bd 2f eb 05 3d 27 88 a1 bb 28 06 c0 bd
       -0.05733583 0.03269499 -0.0049295607 -0.09376174
000160 4f 90 96 3c b5 61 08 3d fd 2a ac bc f8 66 d9 3c
       0.018379359 0.033296306 -0.021016592 0.026538357
000170 17 0d 14 3d 03 52 2d bd 74 ff 9c 3b 01 d7 21 bc
       0.036145296 -0.04231454 0.0047911946 -0.009877921
000180 ab a2 41 ba e5 89 b4 bd f3 87 a0 3c 62 7b d3 3c
       -0.0007386605 -0.08815364 0.019596076 0.02581567
000190 29 c0 49 3d 9c ea 90 bd 37 d0 ca 3c 52 40 de 3c
       0.049255524 -0.07075998 0.024757488 0.02713028
0001a0 b2 86 12 3d 6c 37 e0 3b e1 31 85 3b 48 4c 91 3c
       0.035772987 0.0068425443 0.004064784 0.017736569
0001b0 04 92 9c 3b 4f 1e 8e bd da f2 36 bc 34 18 aa bd
       0.0047781486 -0.06939375 -0.011166299 -0.08305398
0001c0 d6 1f 24 bc 59 8e 26 3c 40 38 03 bd 23 a7 6e 3b
       -0.010017356 0.010165774 -0.032036066 0.003641554
0001d0 b8 bb 9d 3b 5e 97 1d 3d 08 e9 08 3c 51 4d 33 bd
       0.0048136376 0.038474433 0.00835634 -0.043774907
0001e0 e2 57 85 3d 5b 1a 0b 3d 46 a7 fd bc 71 8d 92 3d
       0.06510903 0.03396068 -0.030963551 0.07155884
0001f0 de 3b b6 3d 22 04 8d 3d c3 4e 85 bd bc b1 a4 bc
       0.088981375 0.06885554 -0.06509163 -0.020104282

layer4.1.weight f4 [128]
000000 17 95 70 3e f0 86 37 3f f4 9d 4b 3f 68 9a 74 3f
       0.23494373 0.71690273 0.7953789 0.95548105
000010 10 4f 20 3f 32 83 86 3f b3 e4 55 3f 2a db 66 3f
       0.6262064 1.0508788 0.8355209 0.9017817
000020 5c c9 1b 3f 85 d0 5c 3f 69 79 44 3f 66 ad 4c 3f
       0.60854125 0.86255676 0.7674776 0.79952085
000030 7e 41 5c 3f fe 56 41 3f de 4b 7a 3f ed 9b 5b 3f
       0.86037433 0.75523365 0.97772014 0.857848
000040 04 0c 7f 3f e3 7b 4b 3f 24 84 7b 3f d3 cd 67 3f
       0.9962771 0.7948591 0.98248506 0.9054844
000050 2f cb 8e 3f a5 f5 49 3f 91 32 84 3f 5c b0 87 3f
       1.1155757 0.7889045 1.0327932 1.0600696
000060 4f 47 1d 3f a1 a4 8d 3d fa 42 43 3f ae f3 80 3f
       0.61436933 0.06916166 0.76274073 1.0074365
000070 c4 96 37 3f 67 0a 37 3f 26 ec 2d 3f 69 5d 5e 3f
       0.71714425 0.7150025 0.6793846 0.8686128
000080 52 c4 23 3f 5a 95 2c 3f 8c de 55 3f 30 57 83 3f
       0.63971436 0.6741539 0.83542705 1.0260983
000090 a6 b3 71 3f 3a e2 90 3f be 79 22 3f 20 68 64 3f
       0.94414747 1.1319039 0.63467014 0.8922138
0000a0 bf 9e 4c 3f d4 22 57 3f 8d c2 1f 3f 28 b9 5d 3f
       0.7992973 0.8403752 0.62406236 0.8661065
0000b0 28 7b 7a 3f fd 31 17 3f aa 89 61 3f 48 36 56 3f
       0.9784417 0.5906065 0.88100684 0.83676577
0000c0 fe fa 93 3f 51 34 54 3f 92 6b 9b 3f 0b e0 8a 3f
       1.1560972 0.8289233 1.2142203 1.0849622
0000d0 6e f6 2c 3f 02 b9 8d 3f f8 50 91 3f 4b 60 1a 3f
       0.6756352 1.1072085 1.1352835 0.6030318
0000e0 84 86 35 3f 8e 76 4a 3f 37 79 83 3f d9 16 57 3f
       0.7090838 0.7908715 1.0271367 0.8401924
0000f0 ff ac af 3f ce 27 80 3f 95 5d 2f 3f 9f bf 5d 3f
       1.3724669 1.0012147 0.6850217 0.86620516
000100 76 14 38 3f 04 0e 8c 3f b9 70 9e 3f 21 7a 7f 3f
       0.7190622 1.0941777 1.237815 0.9979573
000110 01 eb 77 3f 34 2c 84 3f 7a 2c 0e 3f 43 34 28 3f
       0.9684296 1.032599 0.55536616 0.65704745
000120 f4 91 4c 3f f3 c3 3e 3f 38 00 27 3f 38 9f 19 3f
       0.79910207 0.74517745 0.6523471 0.60008574
000130 16 72 51 3f 43 a9 64 3f 0f b1 77 3f 8c 30 b8 3e
       0.81814706 0.8932077 0.96754545 0.35974538
000140 ed a4 7e 3f 6d 9e 2c 3f 4c f5 5b 3f 47 68 74 3f
       0.99470407 0.6742924 0.8592117 0.95471615
000150 bd 1d 1b 3f 70 d3 27 3f 5d f3 58 3f d5 0d 2e 3f
       0.6059225 0.65557003 0.8474634 0.67989856
000160 80 6d 53 3f 17 7c 36 3f 00 a9 48 3f 4e 99 4e 3f
       0.8258896 0.71283096 0.78382874 0.80702674
000170 ce a8 69 3f a5 80 4c 3f 0c 83 36 3f 55 79 85 3f
       0.912732 0.79883796 0.7129371 1.0427653
000180 52 0c 08 3f 74 f2 60 3f 86 12 34 3f 0a 69 3c 3f
       0.531438 0.87869954 0.70340765 0.73597777
000190 20 81 56 3f 2e b5 63 3f 2b b2 3d 3f a9 53 41 3f
       0.8379078 0.88948333 0.7409999 0.7551828
0001a0 32 f6 52 3f 18 8f 6e 3f 54 52 6e 3f f0 17 89 3f
       0.82406914 0.93187094 0.9309437 1.071043
0001b0 f8 68 7c 3f 37 e0 4a 3f 4d 0e 3e 3f d3 25 9e 3f
       0.9859767 0.79248375 0.7424057 1.2355293
0001c0 ed aa 54 3f e3 97 9a 3f e9 b0 78 3f 89 f9 16 3f
       0.8307331 1.2077602 0.97144943 0.5897451
0001d0 d5 7d 9e 3f 43 8c 4c 3f e8 12 63 3f f3 6a 36 3f
       1.2382151 0.7990152 0.88700724 0.7125694
0001e0 82 07 91 3e 3c bd 1c 3f b0 6e 81 3f ef 4a 70 3f
       0.2832604 0.6122625 1.0111904 0.9386434
0001f0 e3 29 5e 3f 3b 1e 39 3f 49 eb 3c 3f 0d 85 54 3f
       0.86782664 0.72311753 0.73796517 0.8301552

layer4.1.bias f4 [128]
000000 d1 11 7d bf 1a c4 0c bf 6d ea ef be f3 36 86 bf
       -0.9885531 -0.5498673 -0.4685854 -1.0485519
000010 47 b9 a1 be 5c 74 7c bf cb 41 86 bf 47 a3 c6 be
       -0.31586668 -0.9861505 -1.0488828 -0.38796446
000020 2e d6 e3 be c4 a8 61 bf 01 c0 92 be e7 d5 98 bf
       -0.44499344 -0.8814814 -0.28662112 -1.1940278
000030 38 a1 54 be b7 08 24 bf be 7c 01 bf af ca 7d bf
       -0.20764625 -0.640758 -0.50580966 -0.99137396
000040 94 ed 2d bf 26 96 0a bf 8e 98 ab be 5e 47 22 be
       -0.6794064 -0.5413536 -0.33514827 -0.15847537
000050 d3 85 81 bf 1f 38 1d bf fd 06 9f bf 54 5a 35 bf
       -1.0118965 -0.6141376 -1.2424008 -0.70840955
000060 39 01 58 bf d8 18 1f bf 87 51 01 bf 84 f3 83 bf
       -0.84376866 -0.62147284 -0.50515026 -1.030869
000070 2e cd 31 bf b3 fb 95 bf 5c f4 49 bf 20 22 5c bf
       -0.69453704 -1.1717438 -0.7888849 -0.8598957
000080 83 ad 1f bf 8d 1a fa be ab 3e ea be 75 04 19 bf
       -0.6237413 -0.48848382 -0.45750937 -0.59772426
000090 71 07 33 bf 2a 5c 29 bf 91 44 04 bf 9e 75 29 bf
       -0.6993323 -0.66156256 -0.51667124 -0.66195095
0000a0 05 b9 37 bf 9c 11 15 bf a7 6f 81 bf 02 62 0d bf
       -0.7176669 -0.58229995 -1.0112199 -0.55227673
0000b0 f4 de ef be 3c 01 27 bf b8 8d 13 bf 8c 3b 35 bf
       -0.46849787 -0.6523626 -0.5763812 -0.70793986
0000c0 1c cb c2 bf 02 c8 80 bf 84 97 8a bf a6 5e 88 bf
       -1.5218234 -1.0061038 -1.0827489 -1.0653884
0000d0 c9 d3 28 bf 16 2c ae bf c8 ba 68 bf 40 3f ce be
       -0.6594816 -1.3607204 -0.90910006 -0.4028263
0000e0 75 76 2f bf f7 03 8c bf 9b fd 6f bf 49 1d 64 bf
       -0.68540126 -1.093871 -0.93746346 -0.89107186
0000f0 a3 60 ff be 4e 7a ce be 6f 5f 97 bf 3f d8 4d bf
       -0.49878415 -0.40327686 -1.1825999 -0.8040809
000100 9c dd 40 bf 82 d5 3b bf 09 c3 96 bf 24 c5 86 bf
       -0.7533815 -0.7337266 -1.177827 -1.0528913
000110 6f 8a 8f bf 6e 22 97 bf 4b 0e 72 be 30 69 ac bf
       -1.1214122 -1.1807382 -0.23638265 -1.3469601
000120 92 2a 6b bf cf 09 1a bf c0 a3 58 bf 77 30 85 bf
       -0.9186183 -0.60171217 -0.8462486 -1.0405415
000130 f1 18 bd be 70 6b 82 bf 85 61 7f bf f9 59 87 bf
       -0.3693309 -1.0189037 -0.9975818 -1.0574332
000140 98 24 fe be 0f 3f 03 bf d2 de 44 bf 40 d5 66 bf
       -0.49637294 -0.51268095 -0.76902497 -0.90169144
000150 5d c1 3e bf 9f 00 6a bf b3 f4 30 bf c2 7d 41 bf
       -0.745138 -0.914072 -0.6912338 -0.75582516
000160 1d 63 fe be fe ed 17 bf ec 4c 4f bf a2 78 bc be
       -0.49684992 -0.5934752 -0.8097675 -0.36810786
000170 1b 6c 1d bf 74 c2 09 bf 6e 7d 8d bf be 57 8a bf
       -0.6149308 -0.53812337 -1.1053903 -1.0808027
000180 a4 80 56 bf 74 0c 49 bf 73 47 1d bf b3 2b 58 bf
       -0.8379004 -0.78534627 -0.6143715 -0.8444168
000190 45 10 1d bf 7e 85 8c bf a6 57 53 bf 29 5c 50 bf
       -0.6135295 -1.0978239 -0.82555616 -0.81390625
0001a0 25 e3 2e bf 08 9a 9c be 42 e3 2e bf 7f 9b 68 bf
       -0.68315345 -0.30586267 -0.6831552 -0.9086227
0001b0 24 37 8c bf 84 50 fa be a4 56 16 bf 05 cf 5f bf
       -1.0954328 -0.48889554 -0.58725953 -0.8742526
0001c0 30 e4 a6 be 0a af b2 bf 70 cb 5f bf ec 01 4a be
       -0.32595968 -1.3959668 -0.87419796 -0.19727296
0001d0 3b 9f 86 bf b5 c1 e4 be ab d9 7d bf 64 9d 72 bf
       -1.0517343 -0.44679037 -0.9916026 -0.9477141
0001e0 cb 75 92 bf 2f 3e 68 bf 6b e0 69 bc cc db 87 bf
       -1.1442198 -0.90719885 -0.014274697 -1.0613952
0001f0 f8 16 5b bf f5 75 09 bf 92 23 1e bf d2 de 9f be
       -0.8558192 -0.53695613 -0.61773026 -0.31224686
