main/Pytorch/v8/englishv8.pt (torch, 404679 bytes, 10 tensors)

conv1.weight f4 [16, 1, 3, 3]
00000000: 5857 373e 5873 20bd 9441 47be 670f 023d
00000010: 4841 fd3e 3aae f73b f32f 80be 3c3c c2bd
00000020: 1457 823e cc5f 963d e2e3 263e 983f fd3d
00000030: b14a 873d 9b44 233b 1de0 aabc f431 71be
00000040: 2690 c7be 3c01 36be 6801 0dbd ca61 31be
00000050: 965f 10be 5163 733d dade 6b3e 4a01 d73d
00000060: 4e91 44be 7862 933e ad76 54be b0c4 f0bd
00000070: 7675 2b3e bcb5 07be cc35 71be 77a5 c83e
00000080: 1c98 63be c66e 3ebd 3d1f a83d bf1f 07be
00000090: aa4a 85bd e34a 51be 81f0 99bf 8fa0 0d3e
000000a0: eb08 5c3d 606f c6bf fcbd 1d3e 5738 fabc
000000b0: 96a5 02bf 38a1 d73d fb71 c53d 63e4 283e
000000c0: d330 88be d9bd 9cbd 6a9e 243e 5b86 56be
000000d0: 61fe eabc fdf0 3b3e 52d4 4e3d 15db f23d
000000e0: b8b8 c03b d22e 9c3d b0ce 1d3d 847a 64bd
000000f0: bb8d 5f3d 45bd 1b3c 8337 acbe e436 3cbd
00000100: 2b64 4abe b954 34be 3d41 023d eb5f 8cbc
00000110: fdba 023d 6afa 8c3d b9ce 043e 0f50 1a3e
00000120: ea94 6c3b 972b 0abe 5a00 413a b5cb a5be
00000130: 3d1d 05bd 504a fc3d b812 513d 2d23 5d3e
00000140: 545e bc3d 7b07 60bd a893 c4bd 0227 aebc
00000150: 5317 26bb 883c 863e a8c0 633e 2ebc 52bc
00000160: 83b5 22be 3911 3fbe bac4 5a3d 3b25 353d
00000170: d66c 99bc 0c22 4c3c 88d2 c63d 7caf 8e3d
00000180: c272 cc3d a429 d83d 76f0 ce3d a6f9 b63c
00000190: 463e 8f3d bb86 18be f2f6 383e 9a12 9639
000001a0: 1e51 99be 9d23 ca3d 7d2c ad3d 878d 2b3d
000001b0: 6307 553e 1dba a33d e8fc 81be 32f2 b63c
000001c0: 8e35 04be cfef 15c0 d863 0abf cfc9 a2bf
000001d0: afe2 9e3d 752e 8e3d f103 9a3d 8073 613d
000001e0: 12fd d33d 46e7 3b3d a6ce ac3d c8ac 3d3d
000001f0: 59e4 203d 70a6 783c d55f 64be ef21 093e
00000200: d5b4 093e 268a adbf 4f57 fbbd bffa 2b3e
00000210: d268 3c3c b8f4 8fbf 1eab 01be a168 1ebe
00000220: 19de 263d 597c ae3d 3d09 683d 96cf 9f3d
00000230: ccf5 153d d21f 7bbd 529a 3c3d 7963 073e
0.17904413 -0.0391725 -0.1945861 0.03175297 0.49463868 0.007558611 -0.25036582 -0.09484145
0.2545706 0.073424906 0.16297868 0.12365645 0.06606043 0.0024912718 -0.020858819 -0.23554212
-0.38977164 -0.17773908 -0.03442517 -0.1732246 -0.14098963 0.059420887 0.2303423 0.10498293
-0.19196054 0.28786063 -0.20748396 -0.11756265 0.16744027 -0.1325292 -0.23555678 0.3918874
-0.22225994 -0.04649236 0.08209083 -0.13195704 -0.06508382 -0.20438723 -1.2026521 0.1383078
0.053719442 -1.5502739 0.15404505 -0.030544443 -0.51033914 0.10528797 0.09640881 0.16493373
-0.2659975 -0.07653398 0.16076055 -0.2094969 -0.02868575 0.18353648 0.050495453 0.11858193
0.005881395 0.07626118 0.03852719 -0.055780903 0.054578524 0.009505575 -0.33636102 -0.045950785
-0.19764774 -0.17610444 0.031800497 -0.017135581 0.031916607 0.068837 0.12969483 0.15069602
0.0036099502 -0.1349319 0.0007362418 -0.3238198 -0.032498587 0.123188615 0.051043242 0.2159545
0.09197679 -0.054694634 -0.09598476 -0.021258835 -0.0025343492 0.26218057 0.22241461 -0.012862248
-0.15889554 -0.18658914 0.05341027 0.04422496 -0.018728655 0.012459289 0.097081244 0.06967065
0.09982826 0.10554817 0.10104458 0.022335839 0.069942996 -0.14895146 0.18062952 0.0002862409
-0.299447 0.09870074 0.08455751 0.041883018 0.20803599 0.07994483 -0.25388265 0.022332285
-0.12911054 -2.3427618 -0.540586 -1.2717837 0.0775808 0.06942455 0.07520283 0.05504179
0.10351004 0.045874856 0.084378526 0.046307355 0.03928027 0.015176401 -0.22302182 0.13391851
0.13447888 -1.3557785 -0.12272512 0.16794871 0.0114996005 -1.1246557 -0.12662932 -0.154696
0.040739153 0.08519811 0.056649435 0.07803266 0.036611363 -0.061309643 0.04604561 0.1322154

conv1.bias f4 [16]
00000000: 4eaa d3be d447 b3bb 6a60 13bc fcae cbbc
00000010: 9fed ce3c 6763 aabd 25ef 4bbb 8017 7fbb
00000020: 5ee9 8fbb d002 9fbb 6cf1 593a b4c2 a5ba
00000030: 2970 233d a7d7 113c 54f3 d73c 08c5 493a
-0.4134087 -0.005471209 -0.008995155 -0.024863712 0.025259791 -0.08319741 -0.0031117883 -0.003892392
-0.004391833 -0.00485263 0.0008313868 -0.0012646527 0.039901886 0.008901513 0.026361145 0.00076969014

conv2.weight f4 [32, 16, 3, 3]
00000000: fbe8 60bf 5d5c fbbd 0a89 7e3b 3667 a53d
00000010: 376c 4d3e 08fc 0c3e e497 dbbd 117b 313e
00000020: 5772 a13e da44 88be 1602 9f3e 66f5 e9bd
00000030: 881e b6be fcf6 e83d 5a22 aa3d 5198 c2be
00000040: e715 01bf 4cf2 e33d 49b1 8fbf 288a 6b3d
00000050: 7f46 553e a2f0 bcba e1f0 a4bf e70d e53d
00000060: 521d 413e 03c8 06be da85 06be 244a 2dbf
00000070: df1e dd3e dde0 123e 4567 84be a831 08bf
00000080: 39f8 0b3e c047 11bd b559 88bf 4d25 9fbe
00000090: cfef 323e d964 a6bd 2ce6 753e 0aa8 073e
000000a0: 193e d2bb 406e e93c 017f 39be 45e2 5a3d
000000b0: 6f27 77bd 9141 f8bb c6cd 0d3d 8872 64bd
000000c0: aae9 44bf a327 8d3c 4b6a 3e3d 4f90 983e
000000d0: 7a95 2fbe 900f b73d f43f 09bf dabd 1d3e
000000e0: 4608 353e 48c3 4d3d acbc 19bf 1ac3 0d3e
000000f0: 5c8a 443e c21f 3abe 517e 85be d382 03bf
00000100: e057 aebe 5560 2b3e a843 bb3e a652 22bf
00000110: 373a 9e3d 9d84 1b3e b28b c83d 23cd 80be
00000120: 4a5f 7dbd e017 343e e781 983d df0b 29be
00000130: b9c3 dbbd 68ad 04bd ea7d e03d 1f78 42be
00000140: 6543 48bc bc4b 89bd ea8f b03e 2672 8bbd
00000150: 0efa 8dbf 5bc0 073e 249e 923d 4beb 56be
00000160: 1871 bfbe bef4 9b3d 5dd3 23bf 1ac1 2e3e
00000170: b4dc c93d b149 91bc 61d8 ccbe d676 183e
00000180: f18f c93e cc7f 5cbe 23d1 16be a926 9bbe
00000190: f385 623e 5934 f13d 58f6 453e 12b2 48bf
000001a0: d594 f73d 109b 833d a73e ffbd 8b2d acbd
000001b0: c3f2 ce3d b8d1 f73d a7c4 933e 8a03 a2bd
000001c0: 370f 16bd cbcc 88bd 8a43 5dbe 3f42 a8be
000001d0: 73a6 2fbe 2a5a e9be 0575 853e 3f54 f43c
000001e0: 8ab3 a2bc 0a33 86be 0fa3 243e 1c87 bd3e
000001f0: 1c40 c7be 13db 1a3c 1b3c 033e bb43 cdbb
00000200: 84b8 473e b179 1f3d 55d5 02be a203 c7bd
00000210: 2c9b a1be 708a 8a3e 220a 763e 7d8f dbbe
00000220: a383 c33e 1c0e a9bc b97c a8be b80a 50be
00000230: 0528 413e f2af ac3e b9b8 d5be f82f 013d
00000240: 44d8 eb3d a8df 0bbe ca17 c9be 329f 8cbc
00000250: b68e abbe afa8 04bf 1866 bb3d 2b00 b9bd
00000260: 9692 533e f525 a43d 91a3 7fbe 2188 363d
00000270: d1e8 373e c0b1 d93d c6c5 1e3e d991 37bd
00000280: a6b8 c7be 788a 9e3c 4f0f 5fbb c66d 0a3e
00000290: c547 ab3d d29e 1c3d 04ad a9be c4d0 80be
000002a0: 902f 14bd 39db 0a3e bee3 ab3d e289 fc3d
000002b0: 005f b63e e07d cd3e 311b 923c 2084 6cbe
000002c0: a61e 97bf 09d8 3ebe 3ff3 b3be 8217 6b3e
000002d0: f6d1 bfbd 32da dd3d a0a2 dd3d 522c 93bd
000002e0: c626 2cbe 15e0 07bf 18d6 683e d868 fe3d
000002f0: e461 b23e 0f1f 003e 9fb7 4d3e 959a 8ebe
00000300: 3c3c 86bd 8959 eebe 5a71 a3bd ffbb 0f3c
00000310: 6a27 143e 9b4d 9b3c 152d 12be fcf5 89be
00000320: e415 dc3e 1f74 813e c231 703e b7c8 fabe
00000330: 9b40 ecbd 2473 a7be fd98 03bc 7875 423d
00000340: f0f8 313d 765b f5be beed b4bc 9ab7 74be
00000350: 12ac 963e e27f 753e de28 113e 973f 35be
00000360: 0043 5b3d 4864 613e 0d5e 953c 6ce1 a9bd
00000370: d7d3 b8be 5f36 873e b48b 3a3c 490f 303e
00000380: 7c1a 9abe c68b e4bd 5ed3 2b3e 9c5c 41bd
00000390: 603d 533e 5e6e 893e 6151 19bf f928 59be
000003a0: 2713 e0bd 5157 5f3d 9bcf 20bd 2223 683e
000003b0: c4af 653d ecad 203e 839b 7abe df94 adbe
000003c0: 3d48 cabd 8ab2 0e3c 76a9 823e f8b7 1d3e
000003d0: 5702 86bd 23f4 543e 5d32 d1bd d9b0 4f3d
000003e0: c732 cebd ca4b 853d 9b81 59bd bfc0 1c3e
000003f0: 9a15 313e 742f 3e3d 452c ad3e 8da7 023e
-0.878555 -0.12273476 0.0038839006 0.080763265 0.20060812 0.13768017 -0.1072233 0.17332102
0.31532547 -0.2661503 0.3105628 -0.11423759 -0.35570168 0.113752335 0.08307333 -0.38006833
-0.50424045 0.11130199 -1.1225978 0.057504803 0.20827673 -0.0014414976 -1.288601 0.11184292
0.18858841 -0.13162236 -0.13136998 -0.67691255 0.43187615 0.14343591 -0.25860038 -0.5320077
0.13668908 -0.035468817 -1.0652376 -0.31083146 0.17474292 -0.08124704 0.24013585 0.13247696
-0.006416094 0.028494954 -0.18114854 0.053438444 -0.06034034 -0.0075761755 0.03462007 -0.055773288
-0.76919043 0.017230814 0.046488088 0.297976 -0.17146865 0.08938515 -0.5361321 0.15404454
0.17678937 0.050235063 -0.60053515 0.13843957 0.19193405 -0.18176177 -0.26072934 -0.51371497
-0.34051418 0.16735967 0.36575055 -0.6340736 0.07725947 0.15187307 0.0979227 -0.25156507
-0.061858453 0.17587233 0.07446652 -0.16508435 -0.107306905 -0.032391936 0.10961516 -0.18991135
-0.012223099 -0.06703898 0.34484798 -0.068088815 -1.1091936 0.13256972 0.07159069 -0.20988195
-0.3739097 0.0761504 -0.6399439 0.1706585 0.09856549 -0.017735334 -0.40008834 0.14889082
0.3936763 -0.21533126 -0.14728217 -0.30302933 0.2212141 0.11777563 0.19332254 -0.78396714
0.12088934 0.0642606 -0.12463122 -0.08407124 0.10104897 0.121005476 0.2886097 -0.07910831
-0.036635604 -0.06679686 -0.21607795 -0.32863042 -0.17153339 -0.45576602 0.2606584 0.029825328
-0.019861002 -0.26210815 0.16077827 0.37017143 -0.389161 0.009451645 0.12815897 -0.0062641776
0.19503981 0.038934413 -0.12776692 -0.0971749 -0.315637 0.27058744 0.24027303 -0.4288291
0.38186368 -0.02063661 -0.32907656 -0.20316589 0.18862922 0.33727986 -0.41742495 0.031539887
0.11515859 -0.13659537 -0.39275962 -0.017165754 -0.33507317 -0.5181989 0.09150332 -0.09033235
0.20661387 0.08015052 -0.2496474 0.044563416 0.17959906 0.10629606 0.15505132 -0.044816826
-0.39008063 0.019353136 -0.0034036224 0.13518438 0.08363298 0.0382374 -0.33139813 -0.25159276
-0.03617817 0.1356019 0.08393048 0.123309866 0.35619354 0.40135098 0.017835231 -0.23097277
-1.1806228 -0.18637098 -0.3514652 0.22958186 -0.09366219 0.10832633 0.10822034 -0.07186188
-0.16811666 -0.530763 0.2273792 0.12422341 0.3484031 0.12511848 0.20089577 -0.27852312
-0.065544575 -0.46552685 -0.079806045 0.008772849 0.1446816 0.018957904 -0.1427501 -0.26945484
0.4298545 0.25283906 0.23456481 -0.48981258 -0.1153576 -0.32705033 -0.008032081 0.04747531
0.043450296 -0.47921342 -0.02208602 -0.23898163 0.29428154 0.23974565 0.14175746 -0.17700039
0.053530693 0.2201091 0.018233323 -0.08294949 -0.3609912 0.2640867 0.011385847 0.17193331
-0.3009833 -0.11159472 0.16779849 -0.04720746 0.20628881 0.26842016 -0.598898 -0.21207036
-0.10941153 0.05452663 -0.039260488 0.22669652 0.056075826 0.15691346 -0.24473386 -0.33902642
-0.098770596 0.008709559 0.25519913 0.1540221 -0.06543415 0.20796256 -0.10214684 0.050705764
-0.10068279 0.06508596 -0.053102117 0.15307902 0.17293397 0.046431974 0.33822837 0.12759228

conv2.bias f4 [32]
00000000: 6686 b43d d118 86bd 6582 573d 82c1 743c
00000010: 21a2 94bc 1180 f73a 13c2 003e 5890 0abe
00000020: eb96 0fbf 4b12 62bd c4d1 01be cfd8 2e3c
00000030: 8c88 52be 363d 28be 512d 163d f21a 55be
00000040: b6ae f0bd 514a 223c 0a1c 42bd cc3d 17be
00000050: 0fc0 24be 3781 5a3d a0df 9cbd a158 24be
00000060: d6e3 bfbe e5c4 813b 99ea 0f3e 5ef3 49be
00000070: 1d6c 1cbe 9478 e9bc eb86 98bd 155a 96bd
0.08814697 -0.06547702 0.05261459 0.014938714 -0.018143715 0.0018882771 0.12574033 -0.13531625
-0.5608966 -0.055193227 -0.12677675 0.010671808 -0.20559901 -0.164296 0.03666431 -0.2081106
-0.117520735 0.009905414 -0.04739002 -0.14769667 -0.1608889 0.053345885 -0.076598406 -0.16049434
-0.37478513 0.0039602392 0.14054336 -0.19721743 -0.15275617 -0.028499879 -0.074476086 -0.073414005

conv3.weight f4 [64, 32, 3, 3]
00000000: 650d 823c b551 66bd 8d22 a4be e85c a43e
00000010: 7260 3c3d cbdf a93d bf6e 27be 2456 9cbd
00000020: 7a70 a03c 0f1f 35be cb91 023e 8e85 bb3d
00000030: ada9 743e 31af b83d 1c82 ad3c 013a 243e
00000040: 2343 c7bd 3820 743e ca91 ba3e c8f8 123d
00000050: 707f 16be 76d1 e23e d17a bbbd 47ec 11bf
00000060: 4452 4c3e 21ba a1be d4e7 4abf ad93 2e3e
00000070: ce48 4a3e a778 b93c 7e11 543e ecaa 88be
00000080: 9e1c a53d 92d9 f0bc 3380 0dbf 7d95 aabf
00000090: dc4b 75bd 07a2 81be d963 96bd a077 e23d
000000a0: 9710 463d 6a7f ef3d 16c3 1bbf 2a7c 8b3d
000000b0: 3252 043e 9f8a 803c 8034 38be 6d75 a3be
000000c0: 6a06 2e3e 3561 4b3e 81da 2abe 3a77 afbd
000000d0: bf46 d83b b4ff 16bd ad73 2e3e 666e c6ba
000000e0: c7a7 b6be 5827 633e 3cfc 163d 7247 53bc
000000f0: 3347 fb3d b015 4fbe c8a0 be3d abcf 7abe
00000100: 2b35 d33d a5d6 14be 59b5 3f3e ccb2 a03d
00000110: 20e3 093e 6214 033e 7e9b 8bbe 703d c0bd
00000120: a0c7 3a38 7fce a93b ea67 8fbc 9853 ef3d
00000130: 9987 9ebe 1633 e83b 0100 99be a2db c6be
00000140: 3e37 9bbe 3197 543e ccd4 943e 4f24 ad3e
00000150: 2e17 1e3e 7008 2c3e 71a4 85be 3f98 78bc
00000160: 0bf6 83bf f0a5 01bf 71e1 763d 884e 56bd
00000170: 84af 87be 4eab 68bd 6c0c 09be 015c 963c
00000180: d80a 73be acf7 babf bb99 2dbe 33ee 08be
00000190: d62d 8abe a9ae dbbc 251f 4c3e abd9 ec3d
000001a0: 5b91 a23c 33e0 66be aaed 6bbe 3d79 3ebd
000001b0: dc7a 26bc b89d 793e fb06 b53d b098 993e
000001c0: 0e71 f5bd 1b58 89bd fee9 913e ae13 21bf
000001d0: 89cd 05bf 2ea2 e33d 1f10 863e 8827 b43d
000001e0: d10b 5fbe f130 99bc 3188 7fbd 1890 2cbf
000001f0: be79 babe 5506 99be 3cc6 b53d f242 7dbd
00000200: 111e bfbe 62f9 523e 14e4 a1bd 8c54 f4bd
00000210: 253d 6cbe d307 80be 5dc3 5e3e f913 2b3e
00000220: 9de2 ea3d 6402 62bc 71fa 54be 2553 33bd
00000230: 09a6 4d3e 889f ea3d 2fb3 d83d 9eba 92be
00000240: 3c10 3dbe 30ba 10bf c566 383d 8d46 983e
00000250: 28c7 9dbc bfff 783d ab9e 36bd 2229 9ebd
00000260: 644b 613d 0220 88be 0e26 dcbc 9bb1 3f3e
00000270: d2d0 1b3e 07b7 0e3d 5a7f 41be c459 653e
00000280: a05b 5ebe af02 c3be 83ff 673e 3087 243d
00000290: 6657 03be 92f5 c73d c710 38be c328 bebe
000002a0: b889 3bbd 57c9 9dbe 2242 fabe c4b1 f93d
000002b0: 46b4 693e 2e75 9fbc 6833 f8bd 82e4 2ebe
000002c0: 3988 4cbe 9900 54bf 3fbb 9bbf 009d 82bf
000002d0: 84f4 81bd 6c55 14be dbd9 11bd 9e9b b9be
000002e0: 4dd7 d53d 6672 2d3e 2253 8fbe 2121 e1be
000002f0: 293e bdbe 96dc 693e f0b4 db3e e232 663d
00000300: db9d be3e fb2c a9ba e5d8 33be e41d 3cbe
00000310: fe89 14bf 91e0 2bbe d319 8dbd 3dbd 84be
00000320: e5b9 cabd 1c09 9f3e 7c78 963d f279 8e3e
00000330: 26eb 673e a937 45bd b42a b93d 7931 a93c
00000340: 8eca 103e 72cb a63d 5a0f c5be cc83 f7be
00000350: c7b7 a0be ac58 7abe d9f0 7dbf 7e71 13bf
00000360: 1165 8cbe d9c5 15be 16bb e13d 4e1a 3c3e
00000370: a45e 043d 6cd4 53be 1e07 f7bd aee5 a6be
00000380: 9b48 03bf 69e4 1f3d fa5b 8b3d 82d8 b9bd
00000390: c9a5 ffbc 9173 f33d d1d8 9a3e 9886 68bd
000003a0: c24e f4be 1d9b a6bf 8c2a 673d ffa7 8cbe
000003b0: 400d 5cbe 5fd4 113e 0e09 223e a343 f7bd
000003c0: a588 23be 631f fabd 925e 803d 44ca 7dbe
000003d0: e488 c8bd e18f f23d f911 b7bc b7d8 103e
000003e0: 0fb0 f63d 7888 3fbf ad30 bdbe bf80 f6be
000003f0: 4598 4ebd 8db7 1c3c 04b5 3f3d da41 0c3e
0.015875528 -0.056230266 -0.3205761 0.32102132 0.045990415 0.08294638 -0.1635084 -0.076336175
0.019584883 -0.17687629 0.12750928 0.09156333 0.23892851 0.0901779 0.021180205 0.16037752
-0.09729602 0.23840415 0.36439353 0.035881788 -0.14697051 0.4430043 -0.09154285 -0.57001156
0.19953257 -0.31587318 -0.7925999 0.17048521 0.19754335 0.02264054 0.20709798 -0.26692903
0.08062099 -0.02940062 -0.5527374 -1.332687 -0.0598868 -0.2531893 -0.07343263 0.11057973
0.048355665 0.11694224 -0.6084455 0.06810792 0.1292198 0.0156911 -0.17988777 -0.31925526
0.16994634 0.198613 -0.16684915 -0.085676625 0.0066002305 -0.03686495 0.17036314 -0.0015139102
-0.3567488 0.22182977 0.036861643 -0.012895452 0.122694395 -0.20223117 0.0930801 -0.24493282
0.10312875 -0.14535005 0.18721522 0.07846603 0.13465548 0.12800744 -0.2726707 -0.09386718
4.453177e-05 0.005182087 -0.017505605 0.11685866 -0.30962828 0.007086168 -0.29882815 -0.38839442
-0.30315584 0.207608 0.290686 0.33816764 0.1543853 0.16800094 -0.2610202 -0.015173017
-1.0309461 -0.50643826 0.06027359 -0.052320987 -0.26501095 -0.056803994 -0.13383645 0.018354418
-0.23734605 -1.4606833 -0.16953175 -0.13372116 -0.26988095 -0.026816683 0.19933756 0.11564954
0.019844702 -0.22546463 -0.2303988 -0.04650234 -0.010161128 0.24376571 0.08839222 0.29999304
-0.11984454 -0.06706258 0.28498834 -0.62920654 -0.52266747 0.11114918 0.26184174 0.087966025
-0.21781851 -0.018700095 -0.06238574 -0.6740737 -0.36421007 -0.29887643 0.08875701 -0.061831422
-0.37327626 0.20602944 -0.079048306 -0.119301885 -0.230702 -0.2500597 0.21754213 0.16706838
0.11469004 -0.013794515 -0.20798661 -0.043780465 0.20082869 0.114562094 0.105810516 -0.28658003
-0.18463224 -0.565341 0.045019884 0.29741326 -0.019260004 0.060790773 -0.04458491 -0.07722689
0.05500354 -0.2658692 -0.026873615 0.18720095 0.15216377 0.034842517 -0.18896237 0.22397524
-0.2171464 -0.38087985 0.22656064 0.040167987 -0.12826309 0.09763636 -0.1797515 -0.37140474
-0.045785636 -0.30817673 -0.4887858 0.12192109 0.22822675 -0.019465055 -0.1211918 -0.17079356
-0.1997384 -0.8281341 -1.2166518 -1.0204163 -0.06345466 -0.14485711 -0.035608154 -0.3625154
0.10441456 0.16938171 -0.27993113 -0.43970588 -0.36961487 0.22838053 0.42911482 0.05620087
0.3722981 -0.0012907082 -0.17563207 -0.18370777 -0.5802306 -0.16784884 -0.06889691 -0.25925627
-0.09898738 0.31061637 0.07347199 0.27827412 0.22648296 -0.048148785 0.09041348 0.020653473
0.14139768 0.08144273 -0.38488275 -0.4834274 -0.3139021 -0.24447888 -0.9919563 -0.5759505
-0.27420858 -0.14626254 0.11022012 0.1836941 0.03231682 -0.20686501 -0.12061904 -0.32597107
-0.5128266 0.03903619 0.068046525 -0.09074499 -0.031206982 0.11887277 0.30243543 -0.056768984
-0.47716337 -1.3016087 0.05643706 -0.2747192 -0.2148943 0.1424117 0.15823767 -0.120734476
-0.15970095 -0.12213018 0.06268038 -0.2478419 -0.09791735 0.11843849 -0.022347437 0.1414517
0.12045299 -0.7481761 -0.369512 -0.481451 -0.050438184 0.009565246 0.04680349 0.13696995

conv3.bias f4 [64]
00000000: e8a9 7a3e e227 293e 0768 3d3e b968 0abf
00000010: f70e b43e fc14 9abb ad05 0bbe 599a 2ebf
00000020: 07d5 503e c6b8 bebc a561 033e 3ebb dcbc
00000030: 7a29 c2be c655 0e3d 2478 ac3e 1376 703e
00000040: 5de2 34bf 1b0e 74be 89f6 84bc 8e31 a6be
00000050: 1c6f aabd 5f4d c03e 7218 05bd 1998 44be
00000060: dc1c a83d 4ccd f93e 32cb b7be f59a 16be
00000070: 76eb 6d3e a55b 92be aef2 e83d 42bc 08be
00000080: a358 16be 2803 853e 929b 1f3e ef1b 7abd
00000090: ba59 bebe 09e8 173e 4bf7 d8be 7cc7 673d
000000a0: 60f1 423d da68 c83d e047 a63d bd48 ad3d
000000b0: e781 99be 6af8 f3bc 048b 7dbd 4246 553c
000000c0: ed2d 03be cb61 a13d 03a8 c2be e099 01bc
000000d0: e078 f6be 84d3 543d b699 ec3e a6f5 eebd
000000e0: 9189 8bba 21b3 46be 24e4 58be 7fbc 0fbc
000000f0: e56f c63a ab67 dd3d 3c37 a3bd b466 a1bd
0.24478877 0.1651912 0.18496715 -0.54066044 0.35167667 -0.0047022086 -0.13576384 -0.68204266
0.20393763 -0.023281466 0.12830217 -0.026944753 -0.3792227 0.03474977 0.3368541 0.23482542
-0.706579 -0.23833506 -0.016230838 -0.32459682 -0.08321974 0.3755903 -0.032494016 -0.19198646
0.082086295 0.48789442 -0.35897213 -0.14707549 0.23234352 -0.28585544 0.113744125 -0.13353065
-0.1468225 0.2597897 0.15586689 -0.061061796 -0.3717783 0.14834608 -0.4237617 0.056586727
0.047593474 0.09785624 0.08119178 0.08461139 -0.2998192 -0.029781539 -0.061900154 0.013017239
-0.12810488 0.07879981 -0.38018808 -0.007910222 -0.48139095 0.05195953 0.46211022 -0.116679475
-0.0010645856 -0.1940427 -0.21180779 -0.008772968 0.0015139548 0.10810789 -0.079695195 -0.07880917

conv4.weight f4 [128, 64, 3, 3]
00000000: 7c4b 2f3e b82f a83d 80bb cc3d db2a 27be
00000010: a30a a43c 46dc 97bd 6cff b1bc 801f fd3c
00000020: f6e0 76be 4962 c4bd 4ecf f2bd 52cf e8bd
00000030: f8c1 a83d 3bef 93be 3d5f fa3d b862 963d
00000040: 185e c23d 502d 123e b0e8 963e e80d 2d3e
00000050: 2efc 32be 2a70 513e 2fda 54bd f354 b5bd
00000060: c2bd 6d3d 096b 1c3c 4c7c 8e3e 9040 0fbe
00000070: 97bf c0be 49cb 95be f032 1b3e 4ae1 9cbd
00000080: ebea 3abe c15a c83d fd8a 33be 404d 243d
00000090: 395b 80bd 123d dabd 0863 1f3e 7936 6c3d
000000a0: 051e 7abd d38e 25bd d632 19be e37e 843c
000000b0: 9280 37be a22d 29be ab09 83be 2291 31bc
000000c0: f1d3 a1be 3b8d c9be 3a89 03be 1d20 21be
000000d0: 26fb 60bd b837 c5bd 41c5 94be e428 d3bd
000000e0: b50a 81be 5214 39be a524 863e 2b32 063e
000000f0: d479 e9bd 9535 ed3d 869f 033e d1e7 67be
00000100: d91b 963d 38a2 ca3e e9f7 e3bc 2581 293d
00000110: b880 7e3e 0de1 1fbe a0fe 4cbe bbda 073d
00000120: fc96 8f3e 861c 673e abce 9a3e 99d8 143e
00000130: 7658 e239 6c4c e5bd ddd5 c03e 5621 b6be
00000140: d7d2 fcbe 2284 acbe ec43 35be 6236 c73d
00000150: 0303 9a3d 221f f4be db80 dabc 9921 803e
00000160: 9753 95be c981 8c3c 535b 2a3e ed52 7bbe
00000170: 2da5 3b3e d844 223d aa82 18bf a314 2d3e
00000180: 09a4 53be 0231 aa3d 175c c83d f532 39bc
00000190: b0f3 dabe 3b4a 0d3e 759d b3be 5f47 17bd
000001a0: 7d04 dc3d 8ea1 df3b b99e 4f3d e3b5 0fbd
000001b0: a801 9cbe de32 50be ab02 b6bd f9a2 213e
000001c0: 6dd2 67bc 4fa2 20be 4a8d 143d 32fe b0bd
000001d0: 1687 6dbe 7671 c8be a734 52be 5384 9cbe
000001e0: 06b1 dbbe 42f3 8fbe ae77 15be d9b3 2b3e
000001f0: 1a7f 483e dc96 f63c a74a 0a3e b87f 94be
00000200: d3fc 5d3d 5c23 0fbc a6f1 73bd c691 6ebe
00000210: 82b8 113d 46c2 963d 1cdc e83c 2e4f 093e
00000220: fe8e e7bd 383a 6a3e dc64 26be 984c 15be
00000230: 8f07 acbe 178a c43b caab 993d 763d a6bc
00000240: 48ad 0fbe f9c6 4dbd a616 cb3c 5cd4 9abe
00000250: 6629 043d 2401 a13d 046f 2bbe 08ed 96bd
00000260: db0a d7bd 8e30 71be 5941 f4be 3e98 0ebe
00000270: 7596 7fbe 4e08 b83e ff08 a83c 0529 3f3d
00000280: 4d04 f13d 06cf 953c 2204 d6be dacc b1be
00000290: a374 3e3e d81d a03c a034 a7bd d556 8f3e
000002a0: 8277 043c e65e a03c d6f0 e3bd 0e6f 89bd
000002b0: 1c43 a9bd 2f57 25bd c681 c4bc 16c2 393d
000002c0: 9fb4 eabc 1880 b23d 046e 613e c609 763d
000002d0: f1cb 1abe 0164 fabe a3a3 08be 5c10 74be
000002e0: 0c57 93be c163 0c3d 49bc 12be d8be 9b3d
000002f0: 5f12 ff3d 5bdc 383e 980a 89bd dc47 703d
00000300: 546e 2dbe 3cf3 14be d520 323e 1bd5 013e
00000310: 2743 8cbe a2e8 f93c 014e 16be ef58 0bbf
00000320: 16e2 98be d053 c3be ac25 1bbe 09d4 703e
00000330: dab1 bbbe 9274 b43d 6262 263d f3ac 043e
00000340: 8238 d83c 4dfa 443e 1643 56be e602 f2bd
00000350: 8638 72bd 7c31 ac3c abb9 0fbd 7a22 1a3e
00000360: a350 d0be fce1 dabe d6bd 84be a7ec 2bbd
00000370: dbb8 f8be 41fd e6bd 423b a0ba dd95 c5bc
00000380: 499a 933c b54c 9f3d c1af 46be abbf 883e
00000390: 1115 073d 00f9 c83c 85c1 6ebe eaed 643d
000003a0: f1fb 8fbe 4264 9ebe c012 263c 163b 45be
000003b0: b08f 85bc d0a6 22be 8ba6 3cbe c0ae 473e
000003c0: 66ce 63bd 8649 87bd 57e8 9bbd c36b e33d
000003d0: e626 56be e651 b4bb 6a7f b8be d740 a6be
000003e0: a19c 20be 5b46 a73e 258f 76bb 37dd d2bc
000003f0: dba8 e83c 53ea 743e 3e2d 9c3e 95be 0cbe
0.17118639 0.08212227 0.099967 -0.16324942 0.020024603 -0.07415061 -0.02172824 0.03089881
-0.24109253 -0.09589059 -0.118559465 -0.11367668 0.082401216 -0.28893456 0.122251965 0.07343048
0.09490603 0.14275098 0.294744 0.16899836 -0.17479011 0.20452943 -0.05196589 -0.088540934
0.058042295 0.009547004 0.27829206 -0.13989472 -0.3764617 -0.29256657 0.1515615 -0.07660158
-0.18253677 0.09782935 -0.17533489 0.040112734 -0.06267399 -0.106561795 0.15565121 0.057669137
-0.061063785 -0.04041941 -0.14960799 0.016173786 -0.1792014 -0.16521314 -0.25593314 -0.010837825
-0.3160701 -0.39365563 -0.12845317 -0.15734906 -0.054927014 -0.09629768 -0.29056743 -0.10310534
-0.2520348 -0.18074158 0.26199833 0.13105075 -0.1140019 0.115824856 0.12853822 -0.22647025
0.0732953 0.39576888 -0.027828174 0.041382927 0.2485379 -0.15613194 -0.20019007 0.033167582
0.2804488 0.22569475 0.302358 0.1453575 0.00043171988 -0.11196217 0.37663165 -0.35572308
-0.49379608 -0.3369456 -0.17701691 0.097271696 0.07520106 -0.47680002 -0.026672771 0.25025633
-0.29165336 0.01715173 0.166364 -0.24543352 0.18324728 0.039616436 -0.5957438 0.16902404
-0.20668043 0.08310129 0.0978319 -0.011303653 -0.42764044 0.13797848 -0.35081068 -0.0369333
0.107430436 0.0068246787 0.05068848 -0.03508557 -0.30470014 -0.20331904 -0.088872276 0.15784825
-0.0141492905 -0.15686916 0.036267556 -0.08642234 -0.23196062 -0.39149064 -0.20527898 -0.30569705
-0.42908496 -0.28115278 -0.14596435 0.16767825 0.19579735 0.030101232 0.1350504 -0.29003692
0.05419619 -0.008736458 -0.059556626 -0.23297796 0.03557635 0.073612735 0.028425269 0.13409111
-0.113065705 0.22873771 -0.16249412 -0.1458 -0.33599517 0.005997907 0.07503469 -0.020292979
-0.14030945 -0.050238583 0.024791073 -0.30240142 0.032266043 0.07861546 -0.16741568 -0.07369429
-0.105001174 -0.23553678 -0.47706106 -0.13925263 -0.24959739 0.35943836 0.020512102 0.04666998
0.117683984 0.018287193 -0.41800028 -0.34726602 0.18599181 0.01954548 -0.08164334 0.27995935
0.0080851335 0.019576501 -0.1112992 -0.06710635 -0.08264753 -0.040366348 -0.023987662 0.04535111
-0.02865058 0.08715838 0.22014624 0.060067914 -0.1511686 -0.48904422 -0.13343672 -0.23834366
-0.2877735 0.03427482 -0.14329638 0.0760476 0.12454676 0.18052809 -0.06691474 0.05866228
-0.16936618 -0.14545912 0.17395337 0.1267895 -0.27394983 0.030506436 -0.14678194 -0.54432577
-0.2985999 -0.3814988 -0.1515109 0.23518385 -0.36659127 0.088112965 0.04062117 0.129566
0.026394133 0.19236107 -0.20924029 -0.11816959 -0.059135936 0.02101969 -0.035089176 0.15052214
-0.4068652 -0.42750537 -0.25926083 -0.041973736 -0.48578534 -0.11278773 -0.0012224691 -0.024119312
0.018017905 0.077783026 -0.19402982 0.2670873 0.032979075 0.024532795 -0.2331601 0.055890955
-0.28121904 -0.30935866 0.010136306 -0.19260821 -0.016303867 -0.15883946 -0.18422906 0.19500256
-0.05561676 -0.0660582 -0.07612675 0.11104538 -0.20913276 -0.005502927 -0.3603471 -0.32471344
-0.15684749 0.32670864 -0.0037621942 -0.02574025 0.028400829 0.23917513 0.30503267 -0.13744576

conv4.bias f4 [128]
00000000: 1426 ad3d 2a3f 51bd c97e fc3d 451f 423e
00000010: 6c86 403f 37de 09be 76de 423e c9ab 0d3e
00000020: 58d3 ce3c fa48 10bd e37d 1e3f 7963 ed3e
00000030: 7fed 873e 7e85 48be 4448 933d 3587 083f
00000040: fcb2 09bd 9e09 2ebd 6a1d 2a3e caaf 2f3e
00000050: f5ab ca3e 2fd0 a33e 7869 aa3e 8716 233f
00000060: 0e60 37bd 1eea 823e 6fe9 993e f48a 523e
00000070: 1033 f2bc de82 4cbe 1598 2fbd 8d04 493e
00000080: bcaa 523e d0b7 a33e f9ca 9c3e 859b 21be
00000090: 797c 003f ceee 653f 7de2 30bc 2484 0a3f
000000a0: ddca e13e ce62 13be edb0 a33e 66c2 d23e
000000b0: e6f5 3f3f 7cbd 89bd c434 02be 7714 85bd
000000c0: 6e62 f23e f729 9bbb 6941 1a3f 9e65 1c3e
000000d0: e65a 1b3f beec fd3d 4da8 d0bc e6b4 1abe
000000e0: f6cf bbbd 5937 b5bd e0fa 0a3e 3dd1 983e
000000f0: 4626 d43d 179d aa3d 6851 d13e 5937 da3e
00000100: ac18 a73e 1256 4c3e 8902 7dbd a8c9 5dbd
00000110: 1d2a 423f 1bb7 7abe 5a7f 433f 310d 653e
00000120: 4142 10be 1dcd 8d3e cfd0 44be fdc6 4e3e
00000130: 055c 2b3f b3a0 063f 5bd9 313e a0ca 3cbd
00000140: 15f3 b13e ebfb c43c e622 3a3f e447 233f
00000150: 7fa0 083f 3965 1e3f 8ed5 7b3b b014 adbc
00000160: 0571 e33e 5963 be3e fd1e 523d 4e28 e53e
00000170: 997c 213e c380 03be 09e7 993e e177 d43e
00000180: ba24 48bd b96a 5b3f d344 0f3f 4d16 ff3e
00000190: 53c1 793e 9064 353f ddc3 9cbd d85c 1d3f
000001a0: 0907 e1bd 13f3 3e3e 0a13 e83d 353a 0cbe
000001b0: c9d4 c9bc da79 f63c f98e a9bd 7a8a 4ebc
000001c0: 1955 893e 76ec 463d 9199 48be ea93 873a
000001d0: c880 31bd 9d21 9d3d 30d2 433d 312d e3bb
000001e0: 6ad6 86bc 4fa3 383f 804c b8bd 1b05 a73d
000001f0: c2fe 923e 5990 703f 3ab3 83be f994 bf3d
0.084545285 -0.05108563 0.1232887 0.18957241 0.7520511 -0.13463674 0.19030175 0.13835062
0.02524726 -0.035225846 0.6191084 0.46364954 0.26548383 -0.19582173 0.07191518 0.5333131
-0.03361796 -0.04248964 0.16612783 0.17156902 0.39584318 0.3199477 0.3328359 0.6370625
-0.04476934 0.25569242 0.30060908 0.20560819 -0.029565364 -0.19971797 -0.042869646 0.19630642
0.20572942 0.31976175 0.30623606 -0.15781982 0.5018993 0.8981751 -0.0107961865 0.5410788
0.44100085 -0.1439316 0.3197092 0.4116394 0.74984586 -0.067255944 -0.12715441 -0.06498044
0.4734072 -0.004735227 0.6025606 0.15273139 0.60685575 0.123986706 -0.025470877 -0.1510807
-0.09170525 -0.08848447 0.13572264 0.29847136 0.103588626 0.08330744 0.4088242 0.42620352
0.3263601 0.19954708 -0.061769996 -0.054147393 0.7584551 -0.24483912 0.763662 0.22368313
-0.14087774 0.27695552 -0.19220279 0.20193096 0.66937286 0.5258896 0.17368071 -0.046091676
0.3475577 0.024045905 0.727095 0.6378157 0.533699 0.61873204 0.003842685 -0.021128029
0.44422165 0.3718517 0.051299084 0.44757313 0.15770186 -0.12842087 0.30059078 0.4149771
-0.04886315 0.8570972 0.5596439 0.49821702 0.24390154 0.7085657 -0.076545455 0.61469793
-0.1098767 0.18647413 0.113317564 -0.13694079 -0.024637597 0.0300874 -0.08279223 -0.012606258
0.26822737 0.04856535 -0.19589831 0.0010343764 -0.043335706 0.07672427 0.047807872 -0.0069328775
-0.016459662 0.7212419 -0.08998966 0.08155271 0.2870999 0.9397026 -0.25722677 0.09354586

FC.weight f4 [26, 128]
00000000: 705a 22bc d0d5 abbc cdc6 abba 4e69 32be
00000010: 0ba0 2a3e 5d21 9cbe 47e1 e4be a0c3 fc3d
00000020: 5c11 253e ae88 8e3e a509 6e3e 3a79 043e
00000030: e96a 743e d46f 41be 5c10 91be 8bd9 b03c
00000040: 55da f8ba f99e 3c3d f88f 20be 393c ad3d
00000050: dcd6 a1bd f1c1 00be 9294 7ebe bad2 2f3e
00000060: 48fa 4b3d 64dc 87be 0348 85be aa8a 2f3d
00000070: 65f0 8d3c 8800 b8be 7260 4ebc eab5 81be
00000080: 48eb db3d 180a bdbe 799d 41be 4108 1dbe
00000090: 06ca d6be bda4 b2bd d2a4 19bd 4bc4 333e
000000a0: b490 793d 8aa5 b33d a2b1 d1be c1fd 103e
000000b0: 05fd d43d 295c 5a3c 09ad 86be fc42 263c
000000c0: 1ec9 623e 342a e2bd 8a54 e1bd e6b0 f1be
000000d0: bf69 503a 750c 3bbc f111 9fbe d8af 4cbe
000000e0: 2d11 4ebe 1fef 903c 5db7 d63d 4436 7bbe
000000f0: ed0d 81be d958 f5be fcb8 193c af5a b5be
00000100: 0544 8abe fcf4 21be facd 02bd 3e42 b43c
00000110: 23e5 353e 80b6 cbbe d0a9 f0bc 2ba3 08be
00000120: 0d02 9fbe e089 42be 6132 00be 7115 98be
00000130: 0582 d43d 1b86 30be f510 c2be a340 80bd
00000140: 7538 443c 00aa a63d 41c5 ec3d a61c 4b3e
00000150: 2642 1b3e 01cd b9be c356 40bd 45f1 3ebe
00000160: cc8c f6bd 59b4 363e 6f69 cebc 968e a7be
00000170: 2014 efbe 7883 153e 3660 eb3c 8d96 59be
00000180: a705 3a3d 2a81 0abf 5371 96be 5f71 6b3e
00000190: 87df b1bd 7d97 283e 5677 e1bd d05b 483e
000001a0: 4b11 dcbd b191 a7be 26d5 2dbe ca56 8a3e
000001b0: 3d17 ba3c 3524 ae3d 3058 19bc 1ee1 48be
000001c0: fff9 d8be 6b3c 0a3e a6fc debe 0871 8ebc
000001d0: 5721 833d 322b 76be 32f9 4abe dd2f 69bd
000001e0: 247a a038 76b3 2e3e cef6 50bd 1398 023e
000001f0: 06de 2cbe bbb2 98be a21b c83d 2534 a6bd
00000200: c3f0 063d 1575 f7bc efcb e9be bc6f a2bd
00000210: a295 7dbd 6aa1 b7bc 99c1 123e 0d5f 2a3e
00000220: c1d7 debd 04dd c9bd 1d96 e83c c6fe b83b
00000230: f555 1c3d 697a 32be ea75 613c 0f7f 7abe
00000240: 34f3 8b3d d004 0dbd 3bfe a8be bc78 593e
00000250: d40a 26be 7120 ad3d a229 00bf d104 6abe
00000260: 30f4 23ba d136 37be 85b1 07be 38a9 e33c
00000270: 9791 51bd fb73 7fbe fac9 533d 1096 a8be
00000280: 88e8 bfbd 0a12 69be 74f4 3e3e 33db 5ebe
00000290: 14f6 ffbe 5dce fc3d 26c2 1a3d 5e77 4f3e
000002a0: e91c 90be 0ea4 c43d 22c1 34be 8234 243d
000002b0: 8685 4e3e 745a d8bc 055e 13be b34d ef3c
000002c0: e693 c23d 9582 9bbe 6a65 93be 83aa bfbe
000002d0: 424b 4f3e e4a2 4bbe 035d f13d c9c5 6abe
000002e0: 781b a2be f958 ecbd 08bc 803c d087 c3bd
000002f0: 03c6 30be ef15 9f3b 806c d5bc 9b35 043e
00000300: 7daf 15be d3d5 a4be 69e4 21bb bdf9 3a3e
00000310: 5b64 803d 3d31 223e 7221 393e e80b 003e
00000320: db5e 56be c413 3f3e 99c4 88bd 26bf 05bf
00000330: 6eec bf3d db87 8cbd a37f 0f3e 0d1f d6bd
00000340: 737c b0be d68d 483d 63ab 073e c2f6 113d
00000350: ebf2 033e c3e5 a7be 2484 13bd f2fb 8ebe
00000360: 6d8b 88be f754 f2be 952b acbe a2b1 01bf
00000370: d729 293e 4a52 6fbe a35e c3bd 033c a3be
00000380: 788f b9bd 95d7 c7be a393 a4bd 76c4 54be
00000390: 3937 5cbc d041 1c3e 673a 3ebd 99d4 52be
000003a0: 9d31 cd3d f9f6 0abe 5635 c1bc d06c 873d
000003b0: 40b5 8c3c 315a c5be a53f 763d c8b0 89be
000003c0: f95a e83d 9678 d53d 6469 9abe 2f6d 99bd
000003d0: e42f d93c f32d dfbe 5ac9 f93d 9bc7 22ba
000003e0: 8c0c 7c3c fafe 913e 990a 8e3c 9db0 b8be
000003f0: 7df6 c0be 5963 353e 5920 f2bd 06e4 90bd
-0.009909257 -0.020975977 -0.0013105512 -0.17422983 0.16662614 -0.30494204 -0.44703123 0.12342
0.16119903 0.27838653 0.23245867 0.1293687 0.23868908 -0.18890315 -0.28332794 0.021588108
-0.0018985966 0.046050046 -0.1567992 0.08458752 -0.07902309 -0.12573983 -0.24861363 0.1717023
0.049799234 -0.26535332 -0.26031503 0.04285685 0.017326543 -0.35937905 -0.012596237 -0.25334102
0.10738236 -0.36921763 -0.18907727 -0.1533518 -0.41951007 -0.087228276 -0.0375107 0.17555349
0.060929015 0.087718084 -0.40955836 0.141593 0.10399822 0.013327637 -0.2630389 0.010147806
0.22147033 -0.11043206 -0.11002453 -0.47205275 0.00079503277 -0.011416544 -0.31068376 -0.19988954
-0.2012374 0.017692147 0.104841925 -0.2453242 -0.25205937 -0.47919348 0.009382483 -0.3542075
-0.2700502 -0.1581611 -0.031934716 0.022004243 0.1776319 -0.39787674 -0.029377848 -0.13343494
-0.31056252 -0.18997908 -0.12519218 -0.29703858 0.10376362 -0.17238657 -0.37903562 -0.062623285
0.011976351 0.08137894 0.11561061 0.19835147 0.15161952 -0.36289218 -0.046957742 -0.18646725
-0.120385736 0.17842235 -0.025196759 -0.32725972 -0.46695042 0.14600933 0.0287324 -0.21248837
0.045415547 -0.5410334 -0.29383335 0.22992466 -0.086852126 0.16464038 -0.1100909 0.19566274
-0.10745486 -0.3272834 -0.16975841 0.2701934 0.022716159 0.08503 -0.009359404 -0.19617125
-0.42378232 0.1349961 -0.4355213 -0.017387882 0.064028434 -0.24039915 -0.19821623 -0.05693041
7.652145e-05 0.17060646 -0.05101662 0.12753324 -0.1688157 -0.2982386 0.097708955 -0.081154145
0.032944452 -0.030207196 -0.456634 -0.07931468 -0.06191028 -0.022415835 0.14331664 0.16637821
-0.108809955 -0.098566085 0.028391892 0.0056456057 0.038167913 -0.17429508 0.013761023 -0.24462532
0.06833497 -0.034428418 -0.33006462 0.21237463 -0.16215068 0.08453453 -0.50063527 -0.228534
-0.00062543433 -0.17892005 -0.13251312 0.02779065 -0.051164236 -0.24946587 0.05170629 -0.3292699
-0.09370524 -0.22760788 0.18647939 -0.21763305 -0.4999243 0.12344048 0.03778281 0.20260379
-0.28147057 0.096016034 -0.176518 0.040089138 0.20168123 -0.026410319 -0.14391334 0.029211855
0.09500866 -0.30373064 -0.2878831 -0.37434778 0.20243552 -0.19886357 0.11785319 -0.22927012
-0.31661582 -0.11540408 0.01571466 -0.095473886 -0.17263035 0.0048549096 -0.026052713 0.12911074
-0.14617725 -0.32194385 -0.0024702793 0.1825933 0.06269141 0.15839095 0.18079165 0.12504542
-0.20934622 0.18659884 -0.06678123 -0.52244794 0.09371267 -0.0686185 0.14013533 -0.10455141
-0.34469947 0.04896339 0.13248973 0.035635717 0.12885635 -0.32792482 -0.03601469 -0.27926594
-0.26668873 -0.47330448 -0.33627 -0.5066167 0.16519867 -0.23371235 -0.09539535 -0.31881723
-0.090605676 -0.39031664 -0.08035972 -0.20778069 -0.0134409005 0.1525948 -0.046442416 -0.20588912
0.100192286 -0.13570775 -0.023585003 0.06612551 0.01717627 -0.38545373 0.06011929 -0.26892686
0.11345477 0.104233906 -0.30158532 -0.07491528 0.026512094 -0.43589744 0.12196608 -0.0006209553
0.015383851 0.28514844 0.017339038 -0.36072245 -0.37688056 0.1771368 -0.11822576 -0.07074742

FC.bias f4 [26]
00000000: 0bcd 183f 6506 84be 292d 733e a581 a9bd
00000010: 0de0 8e3e cdab 96bf f731 b2bf 5470 213e
00000020: 6f05 ba3e 405d 7cbe faa6 5bbf b77a d03e
00000030: 7cbb 163f 79a0 b23e 6000 8f3e 3e51 c83d
00000040: 37eb 3dbf e57c 07bf c0fd 853e 8565 803e
00000050: ceaa ee3e 8668 c4be 4e44 bebd 211d 0cbf
00000060: 2edf 5f3d c491 1f3f
0.5968787 -0.2578613 0.23747696 -0.08276681 0.27905312 -1.177118 -1.3921498 0.15765506
0.3633227 -0.24644947 -0.8580166 0.40718624 0.5887983 0.34888056 0.27929974 0.09781121
-0.74187034 -0.5292495 0.26170158 0.25077453 0.4661469 -0.38360995 -0.09290372 -0.5473195
0.0546562 0.62331796
