main/Pytorch/v2/englishv2.pt (torch, 414475 bytes, 26 tensors)

layer1.0.weight f4 [16, 1, 3, 3]
000000 53 ea ee 3f 0c 51 13 40 94 4a 81 3f 51 7c 76 40
       1.866526 2.3018217 1.0100884 3.8513377
000010 8d 42 42 40 cd ad b5 3f 7f bb 08 40 ce 32 cd 3c
       3.035312 1.4193665 2.1364439 0.02504864
000020 b6 31 1a 3f f4 7e f8 be d1 83 f8 3f 8b de a0 3f
       0.602321 -0.48534358 1.9415227 1.2567915
000030 ba 9c ea bf 9c 1f e6 be 74 db 83 40 5c a0 ff bd
       -1.8329079 -0.4494599 4.1205387 -0.12481758
000040 cf 7b 49 c0 f2 b7 ba 3e 87 79 3b 3f 15 f0 ef bf
       -3.1481817 0.36468464 0.7323231 -1.8745142
000050 a6 f9 58 c0 75 31 d8 3f 98 5d b9 bf 06 09 9f c0
       -3.3902373 1.6890093 -1.4481688 -4.9698515
000060 25 79 81 3f b4 dd 97 bf aa 1e 45 c0 a9 65 74 bf
       1.0115095 -1.1864533 -3.0799966 -0.9546762
000070 62 d2 30 c0 98 b0 c6 bd 9c 20 20 3f 6e 1c 63 40
       -2.7628407 -0.09701651 0.6254976 3.5486102
000080 ff 30 08 3b c1 48 fc be 92 3a 2e c0 73 03 d8 bf
       0.0020781157 -0.49274257 -2.7223248 -1.6876053
000090 5e 2e 9d 40 34 1b 9d c0 25 4e 4a 3f 0f a2 a1 3e
       4.91191 -4.9095707 0.7902549 0.31568953
0000a0 ad ff 8e bd 79 e0 4a bd 74 f9 34 3e b5 d2 0a 3e
       -0.0698236 -0.04953048 0.17673284 0.13556941
0000b0 78 ac 33 3d b0 6a 82 3f 06 84 ca 3f 79 2d c8 bf
       0.04386565 1.0188808 1.582154 -1.5638877
0000c0 99 40 69 3f 18 ac 06 40 e0 61 89 c0 ab 4c 9a 3f
       0.91114193 2.1042538 -4.2931976 1.2054647
0000d0 dd d9 09 40 60 15 d2 bf 0e 8d 8c 3f a3 8d 87 bf
       2.1539223 -1.6412773 1.0980546 -1.0590099
0000e0 2a bd 8c c0 ef fd d0 bf ed 54 16 c1 69 27 9d bf
       -4.3980913 -1.6327494 -9.395734 -1.2277652
0000f0 a3 a8 00 c0 07 e7 cb be 16 2b 8a 3f 95 3c 3a be
       -2.0102928 -0.39824697 1.0794399 -0.18187173
000100 50 49 a0 3f 68 4f ef 3f b7 c4 88 c0 35 cb 2a c0
       1.2522373 1.8696108 -4.274013 -2.6686528
000110 5a 49 a7 bf c7 d3 3c bf 39 29 8e c0 09 94 96 bf
       -1.306926 -0.73760647 -4.442532 -1.1763927
000120 8e 71 92 3d 1b 27 f0 3f 2c 67 51 40 20 14 09 3e
       0.07150565 1.8761934 3.271922 0.13386583
000130 9d 1e ca be c8 fb a7 c0 bb 18 ba bd a8 5d ef bd
       -0.3947648 -5.249485 -0.09086748 -0.116877854
000140 96 24 8b 3e a5 a6 8e be 5e 18 17 be 00 5b 68 3e
       0.2717635 -0.27861515 -0.14755389 0.22690964
000150 d7 96 a8 c0 ee f5 1a 40 96 99 2f 3e a4 b6 54 c0
       -5.268413 2.4212604 0.17148432 -3.3236475
000160 ba 27 fd 3f 9f 3d 6e 3f 05 e1 05 c0 15 e7 32 40
       1.9777749 0.93062776 -2.091859 2.7953541
000170 46 79 14 c0 3e 70 98 3c f5 b1 7e 3f d9 ba 80 c0
       -2.319902 0.018608209 0.9949029 -4.0228086
000180 ad 98 a3 bc cf 42 9c bf c1 11 f8 bf ba 00 e8 bf
       -0.019970262 -1.2207888 -1.9380418 -1.8125222
000190 58 73 7c c0 04 64 e1 3e d8 62 05 3f 01 5c 29 c0
       -3.94454 0.44021618 0.5210395 -2.6462405
0001a0 59 d0 c3 c0 30 8c 90 3f 20 68 af 3f 2b ad 39 be
       -6.119183 1.1292782 1.3703651 -0.18132465
0001b0 f3 ee 05 bf df 40 47 c0 cd 24 b8 bf bf c0 e4 bf
       -0.5231773 -3.1133344 -1.4386231 -1.7871321
0001c0 b9 41 a3 bf 61 59 02 40 c5 1c a5 3f 7b a0 22 40
       -1.2754432 2.0367053 1.2899405 2.541045
0001d0 cc a6 01 40 fb 5e 9f 3e 89 fe 67 c0 28 bb a9 3f
       2.0258055 0.31127152 -3.6249106 1.326024
0001e0 f7 56 84 be a4 1c 60 c0 df e0 23 40 55 ed 8a bf
       -0.258476 -3.501748 2.5606 -1.0853678
0001f0 4b 49 b9 bf 9c f2 1a 3f 6f 0a a5 3f 45 ad ca 3f
       -1.4475492 0.6052644 1.2893809 1.5834128
000200 53 98 8e bf 9b 69 5d bf 48 45 30 40 66 6f f4 3e
       -1.1140236 -0.86489266 2.7542286 0.4774124
000210 25 19 83 c0 85 a9 0d c0 5e 5b c7 be f9 26 13 40
       -4.0968194 -2.2134717 -0.38936895 2.2992537
000220 69 ee 85 3f 91 c5 74 be d9 80 c1 3f f3 97 33 c0
       1.0463382 -0.2390349 1.5117446 -2.8061492
000230 9c 46 d2 bf cf 5d ed bf 33 f2 80 c0 65 b3 64 3e
       -1.6427798 -1.8544253 -4.0295653 0.22334059

layer1.0.bias f4 [16]
000000 f7 0c 0e 40 58 25 79 bf 64 6c 71 c0 59 32 5d bf
       2.2195413 -0.9732261 -3.7722406 -0.8640495
000010 fa 71 03 bf 08 59 21 c0 39 9e 52 bf 17 1b 33 c0
       -0.5134579 -2.521059 -0.8227268 -2.7985284
000020 3c 8b 87 c0 c6 06 2b bf 9d 5e d4 bd 53 00 8e 40
       -4.2357464 -0.6680721 -0.103696086 4.4375396
000030 20 05 ca bf f3 db 19 40 92 50 5c 3f 31 00 5b 3f
       -1.5782814 2.4040496 0.8606044 0.8554717

layer1.1.weight f4 [16]
000000 fd d8 18 40 f1 5b 9c 3f b7 9e c6 40 16 65 0e 40
       2.388244 1.2215558 6.2068744 2.2249198
000010 39 93 67 3f fc 09 b7 3f f3 53 10 41 75 03 89 40
       0.9045902 1.4299922 9.020495 4.281672
000020 25 a2 81 3f 02 32 dc 3f c3 69 57 40 0f 6d b7 40
       1.0127608 1.7202761 3.3658302 5.732063
000030 a3 ba df 3f 79 7b 01 40 8e 9b c0 3f 47 b1 2f 40
       1.7478832 2.0231612 1.5047472 2.7451952

layer1.1.bias f4 [16]
000000 ce 62 10 c0 58 7a 9a 3e 05 18 17 bf 7b 3e 1c bf
       -2.2560306 0.30171466 -0.59021026 -0.6103284
000010 f3 cf dc bd 96 5a 9d bf 00 f1 f7 3c 79 88 67 3f
       -0.10781851 -1.229327 0.030266285 0.90442616
000020 50 83 f3 3d 65 18 ac 3d f7 e4 65 bf 90 d8 3b be
       0.1189028 0.084030904 -0.898025 -0.18344331
000030 42 96 9e 3b 9f 19 80 3f 8e be 7e be df b7 1d be
       0.0048396895 1.0007819 -0.24877378 -0.15402173

layer1.1.running_mean f4 [16]
000000 fd dc 40 40 6e 07 65 bf 2b 36 8c c0 78 1b 8a bf
       3.013488 -0.8946446 -4.3816123 -1.0789633
000010 ad 7a e8 be ec 75 1c c0 90 ac da bf 85 e5 57 c0
       -0.45406094 -2.4446974 -1.7083912 -3.3733838
000020 4a 09 88 c0 4f 06 53 bf 34 9f f4 be 9e 94 78 40
       -4.251134 -0.824315 -0.47777712 3.8840709
000030 a9 f4 cb bf 25 75 09 40 40 03 3e 3f ef 2d 15 3f
       -1.5934039 2.147775 0.7422371 0.58273214

layer1.1.running_var f4 [16]
000000 53 b6 d8 40 e1 41 5f 3f cb 4a a9 40 10 09 25 3f
       6.7722564 0.872099 5.29038 0.64466953
000010 ee 9b 05 3f 5f 65 8a 3f bb c6 1f 41 05 2b 8e 40
       0.52191055 1.0812186 9.986018 4.4427514
000020 e8 7a 13 3f 35 c3 a2 3f 46 fd ea 3f 9a 85 86 40
       0.57609415 1.2715822 1.8358543 4.203809
000030 61 3b 90 3f 2b 7a ae 3f db c2 59 3f 66 f4 ee 3f
       1.1268121 1.3631033 0.8506295 1.8668334

layer2.0.weight f4 [32, 16, 3, 3]
000000 c1 e3 7a 40 92 74 07 3f 4c 05 6c c0 ba 0d 89 3f
       3.920151 0.5291225 -3.6878233 1.0707314
000010 8f 35 48 c0 50 d0 54 c0 29 e1 f7 3e bb 5b 9e bf
       -3.128269 -3.3252144 0.4841397 -1.2371744
000020 bd e3 0a c0 3a d6 bb 3d 58 ca 09 40 12 20 99 be
       -2.17015 0.0917172 2.152975 -0.2990728
000030 c0 f1 55 40 1e 80 6d 40 82 e8 49 3f 55 3b c9 3e
       3.3428802 3.7109447 0.78870404 0.3930308
000040 7f 07 4c 3f 5a 26 0c bf 44 67 36 c0 c3 c5 5a c0
       0.7969894 -0.5474602 -2.8500528 -3.4183204
000050 33 17 7c bf 2f 81 24 bf 28 93 2c c0 0d fc eb bf
       -0.984729 -0.6425962 -2.6964817 -1.8436295
000060 3a 3d 26 bf 7e 73 ea 3f 16 a3 6f 3f 04 ff 54 bf
       -0.64937174 1.8316495 0.93608224 -0.8320162
000070 d7 bd f0 3f 34 55 bc 3e cf 53 8d be 07 ec 0e 40
       1.8807935 0.36783755 -0.27603003 2.233156
000080 0a 5c 36 bf a0 2a f6 3d 12 69 b8 3e b3 cd 6e bf
       -0.7123419 0.12019849 0.36017662 -0.9328262
000090 0e dd 5a 3f 4e e2 8b 3f 4e 96 54 be 19 45 7b 3f
       0.8549355 1.0928438 -0.20760462 0.9815231
0000a0 e3 ce 59 3f 75 3b 8e be dc 55 c9 3f cb cc f7 3f
       0.8508131 -0.27779737 1.5729327 1.9359373
0000b0 9f b8 95 3f dc e4 83 bf 32 e3 28 c0 26 33 2b bc
       1.1696967 -1.0304217 -2.638867 -0.010449206
0000c0 8b fc 9f be 06 52 65 c0 b8 d4 db bf 25 93 07 bf
       -0.31247362 -3.5831313 -1.7174292 -0.529589
0000d0 db ec b2 3f 07 78 e7 3e 4a 13 b2 be 8c bc f9 bf
       1.3978533 0.4520876 -0.3478034 -1.9510665
0000e0 e1 8c 06 c0 d0 23 8a c0 45 66 7e c0 3b 90 27 c0
       -2.1023486 -4.3168716 -3.974992 -2.6181781
0000f0 e3 a7 9b c0 b9 cf a4 bf 04 f9 50 c0 33 5d 81 bf
       -4.864244 -1.2875892 -3.2651987 -1.0106567
000100 5b 55 44 3f 3b 91 ae 3f 87 00 e3 bf f8 d8 2c 40
       0.7669274 1.3638071 -1.7734536 2.7007427
000110 5b 79 4a 40 dd bf df bc 2d 33 1e 40 18 cd 21 40
       3.163657 -0.027313167 2.4718735 2.528143
000120 0e ba 85 3d cf 4c 25 3f 45 5c b6 3e 32 49 be 3f
       0.06529628 0.64570326 0.3561727 1.4866087
000130 d4 24 66 40 ea e1 8e bd dc 23 15 bf 16 e0 c9 bf
       3.5959978 -0.069766834 -0.5825784 -1.5771511
000140 e6 08 c8 3d 0e a0 d1 3e 9d 34 d4 bf 91 5b 53 c0
       0.09767322 0.40942425 -1.6578556 -3.3024638
000150 fc 89 24 bf 93 36 d6 bf 4b 82 a4 be 85 e9 c7 be
       -0.6427305 -1.6735405 -0.32130656 -0.3904535
000160 4e 31 86 3f f9 4e 2a c0 95 f2 ee 3f c9 c0 1d 40
       1.0483797 -2.66107 1.866778 2.4648917
000170 8c 85 27 40 fd 50 d4 3f ba cf 07 bf 21 a6 9f 3f
       2.617526 1.6587216 -0.5305134 1.2472574
000180 55 73 d1 be c8 e9 33 40 70 e4 87 40 af 9a fa bf
       -0.40908304 2.8111439 4.2466354 -1.9578456
000190 f2 ab 13 bf c8 03 88 bf ed b4 3e bf 61 b8 35 40
       -0.5768424 -1.0626154 -0.7449482 2.8393786
0001a0 91 f9 3b 40 49 2b 21 3f a5 3b 5f 40 a2 aa b2 3f
       2.9371073 0.6295667 3.4880154 1.3958323
0001b0 7a 67 59 3e 6f 8e f9 be ee 33 a0 bd 0f 45 50 bf
       0.2123088 -0.4874148 -0.07822405 -0.81355375
0001c0 b3 62 4f c0 29 e8 91 be 7a e1 32 3f ba 17 1a c0
       -3.2403991 -0.28497437 0.698753 -2.4076982
0001d0 2f be 87 c0 d4 53 62 3f c5 09 9e c0 5f bd b5 be
       -4.241966 0.8840916 -4.9386926 -0.3549604
0001e0 80 45 63 be e7 66 0f c0 6e c8 d6 bf 0a ef 15 c0
       -0.22194481 -2.2406557 -1.6779916 -2.3427148
0001f0 2c 84 0c c0 95 e6 ce bf c8 4a 81 3f ac 02 44 40
       -2.1955671 -1.6164118 1.0100946 3.062663
000200 49 8d 10 40 18 d6 f7 3f 90 d1 6e 40 62 c8 c2 3f
       2.2586234 1.9362211 3.7315407 1.5217402
000210 9f 46 4d be 30 8f 81 3f 1c da 37 3f 56 2a 93 3f
       -0.20046471 1.0121822 0.71817183 1.1497295
000220 7a b4 dd 3e 02 4f 13 bf e5 44 c9 3d f0 a4 49 c0
       0.43301755 -0.5754243 0.09827594 -3.150692
000230 0c f9 33 c0 91 9c 45 3d ac 73 a2 bf 2f 43 f3 bf
       -2.8120756 0.048245016 -1.269155 -1.9004878
000240 26 52 38 3d 72 55 fb bf e1 98 9c be 69 03 9e bf
       0.045000218 -1.9635451 -0.30585387 -1.2344791
000250 65 50 e1 bf 2a af 09 be d0 07 b2 3f 26 dd 71 bf
       -1.760266 -0.13445726 1.3908634 -0.9447807
000260 1e 0b 1d bf 84 e8 ae bf 02 70 bd bf 47 94 76 bf
       -0.6134509 -1.3664708 -1.4799807 -0.96320003
000270 14 b9 e2 bf c1 56 fe bf 4b 37 28 3f a5 80 3f 3e
       -1.7712731 -1.9870225 0.6570937 0.18701418
000280 a6 d0 79 c0 31 62 bc 3f af 3e 26 bd a3 e7 f0 3f
       -3.90336 1.4717466 -0.040587123 1.882069
000290 a7 82 3c 3f b0 3c 86 bf 93 c0 fc 3f 64 50 45 40
       0.7363686 -1.048727 1.9746269 3.0830317
0002a0 8b dd 91 40 10 d9 58 40 ac 90 d4 3f 4f f4 67 c0
       4.558294 3.3882484 1.660665 -3.6242864
0002b0 dd 02 35 c0 1e f9 e6 bf 92 ab 16 c0 da ba 6e c0
       -2.8282998 -1.8044775 -2.3542218 -3.7301545
0002c0 0d b4 3a bf aa 32 21 bf bd 62 0b bf c1 b3 a8 be
       -0.72930986 -0.6296793 -0.5444754 -0.3294964
0002d0 3b f7 ba bf db 84 a3 c0 54 c0 c6 bf f2 1c b5 c0
       -1.4606699 -5.1099677 -1.5527444 -5.6597834
0002e0 75 44 af c0 42 f7 01 c0 20 89 1f bf 27 d6 42 3e
       -5.4771066 -2.0307164 -0.6231861 0.19027005
0002f0 13 84 9a 3f 46 49 89 3e 3a 71 1a 3f 55 98 46 bf
       1.2071556 0.26813716 0.6032902 -0.7757619
000300 04 08 c3 bf 1c b5 db be 5f fe a4 3f 86 ff 46 40
       -1.5236821 -0.42911613 1.2890128 3.109346
000310 84 cc 2a 40 ed 3a 1a 3f 17 9a 1d bf 12 92 bd bd
       2.6687326 0.60246164 -0.6156325 -0.09256376
000320 ee 06 5a bf dd a6 70 40 bf 56 0f c0 8a ac a4 3f
       -0.85166824 3.7601845 -2.2396696 1.2865155
000330 ef d7 3f 40 72 f0 9e be ab 72 c6 be 5b 9e dd bf
       2.9975545 -0.3104282 -0.3875936 -1.7313951
000340 a0 ee e6 bf 7c 03 85 be 1f 51 47 c0 ae 7a 09 40
       -1.8041573 -0.2597922 -3.1143262 2.1481128
000350 32 4a f0 3e 11 0a 78 c0 f0 c9 ab bf a0 29 a4 3f
       0.46931607 -3.8756144 -1.3421001 1.2825203
000360 53 01 47 c0 e1 d0 65 c0 74 32 ea be 9e 88 a1 c0
       -3.1094558 -3.590874 -0.45741618 -5.047927
000370 42 63 b2 c0 ea 0a 36 c0 39 6a 13 c0 ab aa 30 c0
       -5.5746164 -2.8444161 -2.3033583 -2.7604167
000380 da 3c 07 c0 ce 22 5f 40 ee c8 c0 bf bc 37 05 3e
       -2.113089 3.4864993 -1.5061319 0.13009542
000390 12 3e 1e 40 f2 b1 a8 bf 97 f5 a4 3f 2f 84 81 3f
       2.4725385 -1.3179305 1.2887448 1.0118464
0003a0 c3 66 fa 3f 62 16 c7 3f d6 13 02 c1 ae 2b 10 c1
       1.956261 1.5553706 -8.129843 -9.010664
0003b0 05 cc 71 bf 7c 77 1e 40 64 d0 15 c0 30 44 a1 3f
       -0.94451934 2.4760427 -2.3408442 1.2598934
0003c0 9a a8 31 40 c4 ea 64 bf 37 6a ba bd 80 c7 a1 3e
       2.7759156 -0.89420724 -0.0910229 0.3159752
0003d0 63 1e 27 40 b0 5d e7 3f 71 35 c4 bf 75 fc 20 40
       2.6112297 1.8075466 -1.5328809 2.5154088
0003e0 64 77 88 3f 83 65 00 c0 b3 60 fc 3f 97 28 89 3f
       1.0661435 -2.0061958 1.971701 1.0715512
0003f0 1e da 61 40 d0 88 9a 3f 24 eb 8b 3f 24 7e d8 3e
       3.5289378 1.2073002 1.0931134 0.42283738

layer2.0.bias f4 [32]
000000 b9 39 1f 40 2d 48 37 c0 1c 68 88 3d 6b a8 7c 3f
       2.487898 -2.8637803 0.06660482 0.98694485
000010 a3 f7 ec 3f 27 2b 0c be 5b 36 b7 3f 51 0b a7 bf
       1.8513073 -0.13688336 1.4313463 -1.3050328
000020 5d a9 52 c0 fb 2f 47 3f 9a 03 b9 be 1e 72 79 bf
       -3.291587 0.7780759 -0.3613556 -0.97439754
000030 4f 0f 85 bf 80 ca 3d c0 02 36 73 c0 f2 a7 e2 bf
       -1.0395297 -2.9654846 -3.8001714 -1.7707503
000040 72 fa 82 40 5a 3f 2f 3e 4f 3d 76 3f 40 4b 10 40
       4.093072 0.1711401 0.961873 2.254593
000050 c7 7c 19 bc 2d 5c f4 3f d2 fa ad 3f e1 26 bc bf
       -0.009368128 1.909063 1.3592169 -1.4699365
000060 08 75 02 c0 19 cc 65 3e 9d a5 20 c0 40 a7 45 c0
       -2.038393 0.22441138 -2.5101082 -3.0883331
000070 c2 2a 84 3e 48 ce a1 40 28 56 b4 3f 39 15 66 40
       0.25813872 5.056431 1.4088793 3.5950453

layer2.1.weight f4 [32]
000000 8e c8 f1 3f 99 ea 59 40 e7 1e d0 3f 2b 2f c2 3f
       1.888933 3.4049437 1.6259431 1.5170645
000010 15 58 11 40 6a 3d bf 3f 18 0d 83 40 fc 70 d9 3f
       2.271001 1.4940617 4.0953484 1.6987605
000020 22 53 3d 40 03 98 43 40 08 b5 35 40 63 d1 c2 3f
       2.958199 3.056153 2.8391743 1.522015
000030 4a ef d6 3f 6e 54 cc 3f f6 93 db 3f 9d 55 ca 3f
       1.6791775 1.5963266 1.7154529 1.5807377
000040 06 50 4f 40 7c c1 64 40 15 25 e4 40 ee 34 85 40
       3.2392592 3.5743093 7.1295266 4.162711
000050 5c b7 09 3f 35 74 e0 3f d9 92 35 40 d9 5d ef 3f
       0.5379541 1.7535464 2.8370879 1.8700515
000060 7f 43 48 40 9b 08 29 40 03 25 6f 40 93 f2 29 40
       3.1291196 2.6411502 3.736634 2.6554306
000070 ae f2 b6 3f 6d 81 66 40 a5 8a e0 3f f1 f8 d4 3f
       1.429281 3.6016495 1.7542311 1.6638471

layer2.1.bias f4 [32]
000000 04 93 00 c0 71 2a a4 be 19 05 67 c0 01 a1 73 bf
       -2.0089731 -0.3206363 -3.6096861 -0.9516755
000010 f6 d5 3d bf 68 cf 4e c0 1f 2b d8 bf ce 84 35 c0
       -0.74154603 -3.231409 -1.688816 -2.8362308
000020 da 63 52 bf a5 7a 12 bf 6b bc 95 bf b5 68 33 c0
       -0.8218361 -0.5721839 -1.1698126 -2.8032658
000030 1c 63 1e c0 0b b3 c2 3d d0 46 0c c0 c0 f3 1d c0
       -2.4747992 0.09506806 -2.191822 -2.4680023
000040 49 55 a2 bf 95 15 0e bf 4c dd b3 3f 37 0a 70 bf
       -1.2682277 -0.5550168 1.405191 -0.93765587
000050 77 78 ca be ac 3f e6 bf bd 5d c5 be 42 07 1a c0
       -0.39545032 -1.7988181 -0.3854808 -2.406693
000060 05 70 87 bf 53 cf b6 bf 38 de ce bf 4c c8 2c bf
       -1.0581061 -1.428202 -1.6161566 -0.6749313
000070 e3 a2 b1 3e 30 64 fa be 7c 48 28 c0 b2 66 82 c0
       0.34694585 -0.48904562 -2.629424 -4.075036

layer2.1.running_mean f4 [32]
000000 56 09 78 c2 8b 73 36 c1 45 87 a8 c2 f4 bf b9 c2
       -62.009117 -11.403209 -84.2642 -92.87491
000010 65 40 da c2 53 9e 00 c2 ea 78 58 41 a1 39 e8 c2
       -109.12577 -32.154613 13.52952 -116.11256
000020 94 78 9e 40 3d b9 eb c1 69 9c 36 c1 8c 8a 8b c2
       4.952219 -29.465448 -11.413186 -69.7706
000030 d4 27 7a c2 05 ac f8 c1 5b d6 87 c2 ec 60 1b c2
       -62.538895 -31.083994 -67.91866 -38.84465
000040 57 b8 e4 c1 d6 cc 06 c2 4b 36 f2 c2 37 dd 19 c2
       -28.59001 -33.700035 -121.10604 -38.46603
000050 55 d8 d4 bf a6 70 4b c2 df 5c 01 c2 83 94 6c c2
       -1.6628519 -50.86001 -32.340694 -59.14503
000060 81 7a b6 40 01 80 9c c2 f2 73 c3 c1 ec ef b9 c1
       5.702454 -78.25001 -24.431614 -23.24215
000070 ee f6 ca c1 2c d6 70 40 f8 00 9c c2 d5 da 57 c2
       -25.370571 3.763072 -78.00189 -53.963703

layer2.1.running_var f4 [32]
000000 9a 69 b8 44 52 30 a3 45 96 b1 05 44 e9 19 b2 44
       1475.3 5222.04 534.7748 1424.8097
000010 80 79 40 45 ac bf 55 44 e6 9e 29 45 f6 cd 4d 44
       3079.5938 854.9949 2713.9312 823.21814
000020 e6 30 56 45 3c 16 64 45 d1 ea 60 45 49 f8 87 44
       3427.0562 3649.3896 3598.676 1087.7589
000030 25 c9 a4 44 58 9d 85 44 2e 94 ad 44 aa 06 c8 44
       1318.2858 1068.917 1388.6306 1600.2083
000040 a0 d3 99 45 e6 73 ad 45 03 3d 2a 46 5c f6 c1 45
       4922.453 5550.4873 10895.253 6206.795
000050 d7 e9 ae 41 51 16 93 44 d2 97 3b 45 f5 d7 a1 44
       21.86418 1176.6974 3001.4888 1294.7487
000060 8c 3b 78 45 5f 6f 83 45 96 ef 88 45 27 cb 2a 45
       3971.7217 4205.9214 4381.948 2732.697
000070 a9 06 a0 44 10 b3 b8 45 e2 9a 91 44 e7 e9 3b 44
       1280.2081 5910.383 1164.8401 751.6547

layer3.0.weight f4 [64, 32, 3, 3]
000000 ea 1e 6c bf e1 c1 b4 3f e9 5c 18 40 02 f3 b7 3f
       -0.9223467 1.4121667 2.3806708 1.4371035
000010 c2 d7 90 3f 2b 4f 25 40 fc 2c e3 3f de b8 0a 40
       1.1315844 2.582957 1.7748103 2.1675334
000020 aa fe 1d c0 3e b4 a0 3f 0c d6 fd be 3f c7 95 c0
       -2.4686685 1.2555006 -0.49577367 -4.680572
000030 2d 09 6b 3f 63 1c 39 c0 f9 c6 dd c0 88 d8 e9 bf
       0.91810876 -2.8923576 -6.9305387 -1.8269205
000040 14 2c 98 be b2 e0 51 bf bf 0d ed be ea fc 51 40
       -0.2972113 -0.8198348 -0.4629955 3.2810616
000050 c8 f6 44 40 9a ff 2f 40 95 ed 80 3f 79 59 c9 3f
       3.0775623 2.7499757 1.0072504 1.573043
000060 91 11 96 40 8e aa 4a 3f 53 f8 6a be 53 f2 ba bf
       4.6896443 0.79166496 -0.2294629 -1.4605201
000070 16 13 b4 3f ef fd 02 c0 01 da 16 bf 40 cf cf bf
       1.4068325 -2.0467489 -0.589264 -1.6235123
000080 7f 13 3f 3d 07 7a 2d 40 a3 9a 0f c0 57 7f 70 c0
       0.046649452 2.710573 -2.2438133 -3.7577722
000090 11 75 bd 3f f1 48 9a 3f 5f 30 05 40 7d ff 93 3f
       1.4801351 1.205351 2.0810773 1.1562344
0000a0 6b 1c f5 3f 77 49 94 3f 3b ed 35 3d 3e 6c 3c 40
       1.9149297 1.158492 0.044415694 2.9441066
0000b0 b0 b6 20 40 b9 98 a8 3e c2 dc 1a 40 6f 8c 41 40
       2.5111504 0.32929018 2.419724 3.0241964
0000c0 b5 7b 32 3e 93 39 0d 40 78 4c 12 40 ce 9c 6e 40
       0.17430003 2.206639 2.2859173 3.7283206
0000d0 d1 5f 05 40 0d 48 40 40 09 e2 1c 40 33 f4 83 40
       2.0839732 3.0043976 2.451296 4.1235595
0000e0 8d 07 b3 3f 16 97 df 3f 48 4f 7e 3e 4d df db 3f
       1.3986679 1.7467983 0.24834931 1.7177521
0000f0 f6 15 24 40 01 cf 82 bd e5 96 06 3f f9 89 0a c0
       2.5638404 -0.06387139 0.52573997 -2.1646712
000100 e0 b3 ed 3e 9c 35 f8 be 37 ba fb 3d d4 f2 60 40
       0.46426296 -0.484784 0.12291377 3.514821
000110 99 0e 3a c0 b0 d7 b6 3f 4b e5 03 3e 6b b8 db be
       -2.907141 1.4284573 0.12880437 -0.42914137
000120 6b 0e 9c be 56 ac 32 3e 5f 50 82 3f ac 3c 23 bf
       -0.3047975 0.17448553 1.0180777 -0.6376445
000130 45 14 e0 3c 44 13 ba 3e 55 3c bf 3d 8b 6b 3e bf
       0.027353415 0.36342824 0.09337679 -0.7438285
000140 41 47 88 c0 e0 23 4f be 6d b2 79 bf 73 43 d8 3e
       -4.258698 -0.20228529 -0.9753788 0.4223896
000150 26 fd a0 3f 5b b8 06 bf cc 8a 8d c0 7f f8 12 bf
       1.2577255 -0.52625054 -4.423193 -0.57410425
000160 a2 94 bf bf 4f a7 8c c0 f2 4f d1 3f 9d 44 1c be
       -1.4967234 -4.3954234 1.6352522 -0.15260549
000170 ad b7 56 3e 71 30 c5 3f 3a aa 0e 3e 3b 66 82 3e
       0.20968504 1.5405408 0.13932124 0.2546862
000180 33 a0 1c c0 e4 32 3d 3f a0 26 85 bf 07 0f 8a be
       -2.4472778 0.7390578 -1.0402412 -0.2696459
000190 25 7a 00 40 c3 10 44 40 c6 07 16 40 09 0c 96 40
       2.007455 3.063523 2.3442245 4.688969
0001a0 cc 9d 8c 40 ee 4b 76 40 0e a3 34 40 39 23 c0 bf
       4.3942623 3.8483844 2.822452 -1.5010749
0001b0 10 90 a5 be c2 82 ca bf bc 28 a3 bf 55 f1 29 c0
       -0.32336473 -1.5821154 -1.2746806 -2.6553547
0001c0 6a f1 69 c0 e3 db 89 c0 15 a8 af bf ec 07 97 be
       -3.6553597 -4.3080916 -1.372317 -0.2949823
0001d0 01 35 8e c0 f3 df c3 bd fd ad b7 bf 3b 77 d5 be
       -4.44397 -0.09564199 -1.4349972 -0.41692528
0001e0 b3 96 06 c0 9e 72 2d 3f 81 69 94 3f 4b 87 46 bf
       -2.102948 0.67753017 1.1594697 -0.7755019
0001f0 3c 58 1d 3f b7 4a ee be 11 b8 00 be 1a cd e9 bf
       0.6146276 -0.46541378 -0.12570216 -1.8265717
000200 e8 bc f9 bf 56 d7 1a c0 8f 6b b8 bf 5d 09 01 c0
       -1.9510775 -2.419393 -1.4407824 -2.0161965
000210 0a 53 a1 bf 60 66 df bd cc e5 8b c0 31 5e 7c bf
       -1.2603467 -0.10908198 -4.3718014 -0.98581225
000220 e5 6f d9 be 78 80 94 bd 88 ff a8 be d1 5c c9 3f
       -0.4246818 -0.07251066 -0.33007455 1.573145
000230 8f f6 1e c0 55 a8 21 40 7c 48 04 3d 9c b5 4f c0
       -2.4837987 2.5258992 0.03229569 -3.2454596
000240 35 0e 70 be 00 70 7b be ad 05 15 3e cd db b9 bf
       -0.2344292 -0.24554443 0.14552946 -1.4520203
000250 0d db e9 bf 7c d5 f6 be ac cf 13 c0 eb fb bc c0
       -1.8269974 -0.4820975 -2.3095503 -5.9057517
000260 18 29 80 c0 83 06 0a 3f c4 a1 28 3f 78 ce d8 bf
       -4.0050163 0.53916186 0.65871835 -1.6938009
000270 f9 72 63 3f 49 76 97 bf 35 31 ad bf dc d4 9f 3f
       0.8884731 -1.1832973 -1.3530642 1.2486835
000280 5b 8e 4d be 52 0d 5f c0 7d be 16 be 50 8f bb bf
       -0.20073836 -3.485188 -0.14721103 -1.465311
000290 c8 2d 41 c0 7a ab 93 bf 1b b9 1c c0 8f 20 0c c0
       -3.0184193 -1.1536705 -2.448798 -2.1894872
0002a0 12 67 65 c0 43 60 f7 bf 7a 68 fc 3f 4e c4 02 3f
       -3.584416 -1.9326252 1.9719384 0.5108079
0002b0 33 0c 0f 3e ec 27 10 be b2 d9 d2 be 0e c0 d1 bf
       0.13969497 -0.14077729 -0.41181713 -1.6386735
0002c0 5d 91 67 40 b5 ab 26 c0 92 bc 02 40 34 a0 48 3f
       3.6182473 -2.6042302 2.0427594 0.7836945
0002d0 a4 37 79 3d 39 d0 d0 3d 3c 49 de 3c fb ae 0d 3d
       0.06084408 0.10195965 0.02713453 0.034590703
0002e0 81 b4 26 3d 96 66 91 bc 37 91 81 3c 24 0d 9c 3c
       0.040699486 -0.017749112 0.015816314 0.019049235
0002f0 e7 2c 03 3e f6 69 74 3f 05 0d af bf e3 34 e5 be
       0.12810098 0.95474184 -1.3675848 -0.44766912
000300 f9 7a 47 bf 1e 8d c2 bd 44 cd 19 bf bd 7a 8b be
       -0.77922016 -0.09499572 -0.60078835 -0.2724208
000310 8f 71 6d 3f 84 0d c9 3d a7 0b 8d c0 ef 15 06 c0
       0.927514 0.09817031 -4.4076724 -2.0950887
000320 4c 8e 6e 3f 58 19 59 c0 ad 4a b2 3d 0b 40 ca 3f
       0.9318588 -3.3921719 0.087056495 1.5800794
000330 bb 29 e6 3f 94 c2 4f 40 74 30 3a be 15 f2 ca be
       1.7981485 3.246251 -0.18182546 -0.3963782
000340 70 c1 2d 3e 2a c1 44 40 b6 4e 94 3f b7 17 29 40
       0.16968322 3.0742898 1.1586521 2.6420724
000350 ac 29 a9 3c af bd 8d bd 9f 26 86 3f 56 87 b6 c0
       0.020649754 -0.06920945 1.0480536 -5.7040205
000360 90 b9 8d 3e cc 83 11 c0 0e 7f 7d be 63 bf b8 bf
       0.27680635 -2.2736692 -0.24755499 -1.4433407
000370 e8 af 5f be 53 7e 11 bf 82 97 2a bf 43 19 b1 c0
       -0.21844447 -0.5683338 -0.6663743 -5.5343337
000380 9b 7e 15 c0 6d 27 4f c0 34 9f 0d 40 2a 39 f9 be
       -2.3358524 -3.2367814 2.212842 -0.48676425
000390 9a 7d f3 3d 66 2b f7 3f 09 9b 5d 40 56 e4 6e 3e
       0.11889191 1.9310119 3.4625876 0.23329291
0003a0 90 8c 2e c0 0f d6 a0 3f 47 16 ba c0 50 92 b6 c0
       -2.7273293 1.2565325 -5.8152194 -5.7053604
0003b0 38 fb a7 be d5 a6 36 c0 9b 84 62 c0 09 34 33 bf
       -0.32808852 -2.8539326 -3.5393436 -0.70001274
0003c0 9a ba 17 c0 f4 9b 4d 40 a7 97 08 40 3a 80 4f 3f
       -2.3707643 3.2126436 2.1342561 0.81055033
0003d0 31 2d a8 3f 04 f1 59 bf f5 99 af 3f 80 9c 2b be
       1.3138791 -0.85133386 1.3718859 -0.16758919
0003e0 ea 30 01 c0 aa e3 8f bd b7 e3 86 c0 4f 72 40 c0
       -2.0186105 -0.07025845 -4.215297 -3.0069768
0003f0 5a 6e 91 3f 93 b5 e3 3f 76 3f c8 3d 48 dc 42 bf
       1.1361802 1.7789787 0.09777729 -0.7611737

layer3.0.bias f4 [64]
000000 9e 5e 01 3e ef be f1 be e4 d3 93 bd 70 b8 14 3f
       0.1263375 -0.47215983 -0.07218149 0.5809393
000010 e3 ab 39 bf 66 9b c2 3d f8 06 04 3f 2b 65 43 be
       -0.72527903 0.09502296 0.51573133 -0.19081561
000020 49 d8 ec be 38 07 ae ba a1 08 d3 3c 8c 6b 54 3f
       -0.46258762 -0.0013277298 0.02576095 0.82976604
000030 9d fc b2 3d 96 af 0a 3f 76 62 ae 3e 30 07 aa be
       0.087395884 0.5417417 0.34059495 -0.3320861
000040 bf 01 14 3e cd 40 d3 bd e6 49 1f 3f e9 75 af bd
       0.14453791 -0.10315094 0.62222135 -0.085674115
000050 35 84 f1 3d 6f 5a 74 bd 54 87 93 bd 25 af 0d 3f
       0.117927946 -0.059656557 -0.07203546 0.55345374
000060 fa 18 14 3e 0a 03 39 3f bc 29 45 3f 9a 09 31 bf
       0.14462653 0.7227026 0.77016807 -0.69155276
000070 fa 2c 78 bd c2 c4 ca be ee 91 18 3f c2 ff 20 bf
       -0.060589768 -0.3960324 0.5959767 -0.62890255
000080 6d 16 23 3d 92 e9 2f 3e e7 54 13 bf 1e 68 44 3d
       0.03981631 0.17178944 -0.57551426 0.047950856
000090 b3 21 03 bf f2 2c 8e bd fc 45 ff 3d 66 01 1f 3c
       -0.51223296 -0.069421664 0.1246452 0.009704923
0000a0 f5 33 6f bf e7 fb f3 3e 70 60 21 3e 63 e1 12 bf
       -0.93438655 0.47653124 0.15759444 -0.5737516
0000b0 06 59 2e bf 2b 87 0a bf fc d0 ce bd e4 b3 6c 3e
       -0.6810459 -0.541125 -0.10098454 0.23115498
0000c0 6d fa 54 bf b4 d8 9a 3e cb 51 80 bd 20 63 33 be
       -0.8319462 0.30243456 -0.06265601 -0.17518282
0000d0 a7 08 14 bf 24 0a 2e bf 24 57 be 3f 72 66 02 3f
       -0.578257 -0.67984223 1.4870343 0.5093757
0000e0 c1 30 c0 be 84 2c 90 3d 7c 43 2a bf 04 74 cd 3d
       -0.37537196 0.07039741 -0.66509223 0.10031894
0000f0 cc db c3 3d 67 be 5b 3f a1 26 80 bf 8b 69 ff 3e
       0.09563407 0.85837406 -1.0011789 0.4988521

layer3.1.weight f4 [64]
000000 8b bd 0c 40 f5 d0 09 40 64 78 05 40 38 c8 0a 40
       2.1990688 2.1533787 2.085473 2.1684704
000010 e8 ac 12 40 a8 08 2a 40 89 81 03 40 5f d6 03 40
       2.2918034 2.6567783 2.0547812 2.0599592
000020 b7 e5 25 40 70 93 1e 40 b7 5d 25 40 27 9e dd 3f
       2.5921457 2.4777489 2.583845 1.7313889
000030 7d 51 1f 40 b5 1e 08 40 d0 3e 07 40 13 2e 1b 40
       2.4893486 2.1268742 2.1132088 2.4246871
000040 f5 f3 38 40 cc 7b 04 40 48 24 3a 40 50 c5 ee 3f
       2.88989 2.070056 2.9084644 1.8653965
000050 94 bd 03 40 44 60 08 40 b6 ed 03 3f c7 ab ed 3f
       2.058446 2.1308756 0.51534593 1.8568047
000060 01 b8 0e 40 1d 01 e9 3f 70 ed 0b 40 ef 62 24 40
       2.2299807 1.8203465 2.186367 2.5685384
000070 31 03 08 40 07 e8 29 40 a3 81 eb 3f a2 b1 20 40
       2.1251948 2.6547868 1.8398937 2.5108418
000080 96 fe 1a 40 e2 07 07 40 66 cd 29 40 3f 92 12 40
       2.4217887 2.1098561 2.6531615 2.2901762
000090 85 c8 1c 40 78 ec 01 40 36 35 00 40 95 2d fd 3f
       2.4497387 2.030058 2.0032477 1.9779536
0000a0 54 9c 42 40 9c a9 10 40 f2 2a 26 40 58 55 09 40
       3.0407915 2.2603521 2.5963712 2.145834
0000b0 c4 cd 06 40 db c3 10 40 26 b2 ca 3f 28 6b 10 40
       2.106309 2.261954 1.5835617 2.2565403
0000c0 51 a7 60 40 06 fe d9 3f e8 4d 27 40 cc 6b 25 40
       3.5102122 1.7030647 2.61413 2.5847044
0000d0 9c 89 03 40 12 1f 0a 40 e9 01 0c 40 84 fe f6 3f
       2.055274 2.1581464 2.1876166 1.9296422
0000e0 8e 0a f5 3f 03 f4 18 40 7c df e3 3f bc cb 20 40
       1.9143846 2.3898933 1.7802577 2.512435
0000f0 20 76 03 40 c4 20 20 40 5b 44 d4 3f fb a2 0d 40
       2.0540848 2.5019999 1.658336 2.2130725

layer3.1.bias f4 [64]
000000 8a 7d f9 bf 67 c6 48 bf ce aa eb bf 50 b9 e6 bf
       -1.9491436 -0.7842774 -1.84115 -1.8025303
000010 3a f2 97 bf 90 11 33 c0 2c 3d 03 c0 76 a1 51 c0
       -1.1870797 -2.797947 -2.0506086 -3.2754798
000020 6c 08 a4 bf a2 de 7a bf 3a fd 43 c0 4d 57 08 c0
       -1.281507 -0.9799596 -3.0623307 -2.1303284
000030 4e d9 11 c0 cd a5 9f bf c3 93 ef bf d3 01 9f be
       -2.2788882 -1.2472473 -1.8716968 -0.3105608
000040 e3 ee b7 bf bf e6 94 bf 7e e3 e8 bf ce d6 a8 bf
       -1.4369777 -1.1632918 -1.8194425 -1.3190553
000050 ec 1c da bf 04 b2 8a bf eb cb 86 bf 84 c1 1a c0
       -1.7040076 -1.0835576 -1.0530981 -2.4180613
000060 8e 8e d1 bf 37 02 ff bf 85 70 62 c0 ea d0 8f bf
       -1.6371629 -1.9922551 -3.5381176 -1.123563
000070 65 53 cb bf d9 44 fd bf 37 d9 1e c0 4e 0b a1 bf
       -1.5884825 -1.9786636 -2.4820077 -1.2581575
000080 f4 04 dc bf e1 a3 2b c0 2f 55 f5 bf c3 bc 72 bf
       -1.7189012 -2.6818774 -1.9166621 -0.9481928
000090 36 25 d0 bf 11 28 11 c0 ec 30 02 3f 47 bd 10 bf
       -1.6261356 -2.2680705 0.508559 -0.56538814
0000a0 4a 38 ef bf 45 48 fa bf b4 9d 4c c0 50 1b 09 c0
       -1.8689053 -1.9553305 -3.1971254 -2.142292
0000b0 0e 1b 92 bf b9 db 4a c0 46 5f c7 bf dd 67 68 bf
       -1.1414506 -3.1696608 -1.557595 -0.9078348
0000c0 fa 3c e9 bf ad fc 69 c0 0a 69 7c bf 45 0c a0 bf
       -1.8221734 -3.656047 -0.98597777 -1.2503744
0000d0 c3 da 19 c0 72 b0 a6 bf 50 ec 4f c0 1d 07 ae bf
       -2.4039772 -1.3022597 -3.2487984 -1.3595921
0000e0 36 10 88 bf 2c e8 cb bf 29 f1 18 bf b6 13 d6 bf
       -1.0629947 -1.5930228 -0.5974298 -1.6724765
0000f0 b6 ee 38 c0 9c 7a ad bf f2 74 d2 bf f4 93 10 c0
       -2.8895698 -1.3553042 -1.6441939 -2.2590303

layer3.1.running_mean f4 [64]
000000 f8 c8 ad c2 27 56 6d c2 7f 8f 49 c2 a9 2d a8 c2
       -86.89252 -59.334133 -50.390133 -84.08918
000010 fa 03 6b c2 77 cb d2 c2 fd 69 8e c2 3a d5 56 3f
       -58.753883 -105.39739 -71.20701 0.8391911
000020 8a 74 82 c2 24 77 79 c2 fe 48 d8 c2 9a 5d 9e c2
       -65.227615 -62.36635 -108.14256 -79.182816
000030 64 5c d2 c1 73 e6 1d c1 04 d1 82 c1 5d 2b 1b 42
       -26.295113 -9.868762 -16.352058 38.792347
000040 11 4f bc c2 bf 59 f3 c0 be 11 ee c1 a9 98 83 c2
       -94.15443 -7.6047053 -29.758663 -65.798164
000050 cf fc 0b 41 61 d7 04 40 76 04 12 40 4c 0b 16 c2
       8.749221 2.0756457 2.2815223 -37.511032
000060 f6 ae 33 c2 f8 1e e5 c2 ee 47 5b c2 0c 39 aa c1
       -44.92086 -114.560486 -54.820244 -21.277855
000070 5b 7d da c1 42 59 ab c1 e8 24 99 c2 08 f3 0f c2
       -27.311209 -21.418583 -76.57208 -35.987335
000080 1a f9 82 c2 c6 13 44 41 99 d9 b4 c1 25 7c 27 40
       -65.48653 12.2548275 -22.606249 2.6169522
000090 5e 3e 84 c2 81 44 04 c2 0b 70 1d c0 90 0f 0b 42
       -66.12181 -33.0669 -2.4599636 34.765198
0000a0 57 b1 7f c2 c8 8d a9 c2 7b c9 a5 c2 18 c0 1a c3
       -63.923183 -84.77692 -82.89352 -154.75037
0000b0 f0 45 f9 c1 7e d0 9d 40 8b 23 f7 c1 17 f5 bb c2
       -31.15915 4.9317007 -30.892355 -93.97869
0000c0 7e 1f 94 c2 f8 04 83 c2 8f 98 b7 c2 f0 89 91 c2
       -74.06151 -65.509705 -91.797966 -72.76941
0000d0 56 f0 ae c2 26 d2 7f c2 9c 9a af c2 c8 a7 f3 bf
       -87.469406 -63.955223 -87.80197 -1.9035578
0000e0 1e 8b 3f c2 e8 b5 96 c2 f0 a2 55 c1 6a a6 c1 c1
       -47.885857 -75.355286 -13.35228 -24.206257
0000f0 8f e4 02 c3 62 db c8 c1 04 ca 87 c2 c3 e9 c5 c2
       -130.8928 -25.10712 -67.89456 -98.956566

layer3.1.running_var f4 [64]
000000 ec 91 0c 45 b4 fe 45 45 c3 8e 1a 45 f9 04 e8 44
       2249.12 3167.919 2472.9226 1856.1554
000010 d6 d4 17 45 6e 13 2e 45 1b 7c 04 45 0f fd 10 45
       2429.3022 2785.2144 2119.7566 2319.8162
000020 32 5f 9b 45 ba a8 84 45 d7 f3 17 45 50 54 c3 44
       4971.8994 4245.091 2431.24 1562.6348
000030 d7 d2 28 45 30 54 0a 45 74 de 3e 45 90 53 b8 45
       2701.1775 2213.2617 3053.9033 5898.4453
000040 7c e4 83 45 b6 2a 44 45 31 df 64 45 ef ab da 44
       4220.5605 3138.6694 3661.9495 1749.3729
000050 39 7c 51 45 c4 d3 70 45 23 f6 13 42 e3 c5 be 44
       3351.764 3853.2354 36.990368 1526.184
000060 6a db 47 45 c9 e8 f3 44 e4 d9 e2 44 40 f8 5e 45
       3197.7134 1951.2745 1814.8091 3567.5156
000070 ae 8d 73 45 32 5a ab 45 83 f0 9a 44 ee 00 44 45
       3896.855 5483.2744 1239.516 3136.058
000080 ec 28 6d 45 fc ee 69 45 19 47 1c 45 d3 6f 9a 45
       3794.5576 3742.9365 2500.4436 4941.978
000090 6b a7 04 45 4d b8 c1 44 48 19 b3 45 29 d8 8c 45
       2122.4636 1549.7594 5731.16 4507.02
0000a0 9b e9 83 45 23 b3 17 45 a9 78 45 45 c5 45 f8 44
       4221.2007 2427.196 3159.5413 1986.1803
0000b0 a8 02 9b 45 8a d8 2e 45 ab 90 be 44 0c ef 31 45
       4960.332 2797.5337 1524.5209 2846.9404
0000c0 ef 48 96 45 69 fe e8 44 83 90 03 45 12 21 4f 45
       4809.1167 1863.9503 2105.032 3314.067
0000d0 09 f5 d1 44 c2 fc fa 44 b2 b2 b6 44 08 a6 40 45
       1679.6573 2007.8987 1461.5842 3082.377
0000e0 64 64 87 45 0f 07 80 45 a5 36 54 45 99 f3 56 45
       4332.549 4096.8823 3395.4153 3439.2249
0000f0 d4 cf ce 44 3e 70 86 45 a8 97 c6 44 b6 77 3e 45
       1654.4946 4302.0303 1588.7393 3047.482

layer4.0.weight f4 [128, 64, 3, 3]
000000 29 86 2f bb e6 3c 00 be fa c8 9d be 6a 62 7f be
       -0.0026782847 -0.12523231 -0.30817395 -0.24939886
000010 79 2a a7 be 32 a0 72 be 3f 92 2b be b7 54 83 be
       -0.32649592 -0.23693922 -0.16755007 -0.2565057
000020 de 2e 1d be 73 b5 75 3e 30 8c 8f 3d 09 9f 00 3f
       -0.1534991 0.23994999 0.070091605 0.5024267
000030 35 17 bf 3e aa ab a8 be 06 7d c6 bd 77 77 d6 3e
       0.37322393 -0.3294347 -0.09691815 0.4188802
000040 dd ec 21 be 65 0d 54 be 9b 31 88 3d 91 17 36 3e
       -0.15813012 -0.20708235 0.066500865 0.17782427
000050 a4 ec 4b 3c 97 2d 9c bd b1 4c a2 3d e7 8d c5 bd
       0.012446556 -0.07625883 0.07924784 -0.09646206
000060 58 42 6d be 84 bd a7 bd cb 66 37 be eb de a3 be
       -0.2316984 -0.08190444 -0.17910306 -0.3200601
000070 5e b2 e3 be f1 bb c7 be c4 52 55 3c 54 9f 19 be
       -0.4447202 -0.39010575 0.013020221 -0.15002185
000080 49 95 8e be d9 8f 67 bc 62 1e 92 be 75 70 eb bd
       -0.2784827 -0.014133417 -0.28538805 -0.11496059
000090 b4 0d f0 3c 66 85 c4 be b0 08 e7 3e bb ee 06 3d
       0.02930341 -0.38383025 0.45123816 0.032942515
0000a0 e5 87 04 be ee 6b 51 3d 4b b2 83 bd 45 1e 00 bf
       -0.12942465 0.05112832 -0.06430491 -0.5004619
0000b0 29 70 a8 be 20 7c f4 bd 64 f5 89 bd 43 4b b6 be
       -0.3289807 -0.119377375 -0.06736258 -0.35604295
0000c0 0f 5a 9d 3d 6b 12 09 3e 45 99 2c be 8b 79 83 be
       0.07683193 0.13385932 -0.16855343 -0.25678667
0000d0 4e 93 0b bd d8 e1 65 be 2e 9d f3 bd 11 9e 82 be
       -0.034076028 -0.22449434 -0.11895214 -0.2551122
0000e0 8a c8 32 be bf 36 bb be 11 9f cc bd 6a 69 7e bd
       -0.17459312 -0.36565205 -0.09991277 -0.06211225
0000f0 6f 6e b5 be 53 75 31 be 8d fd e6 bd d2 14 90 bd
       -0.35435817 -0.17329912 -0.1127883 -0.07035221
000100 dc 74 ff 3d 59 2f 10 be 01 40 7d bb 30 63 09 3e
       0.12473461 -0.14080562 -0.0038642886 0.13416743
000110 d2 1c db bd c8 27 a7 be d4 31 cd 3c 9a e7 18 be
       -0.106988564 -0.32647538 0.025048174 -0.14932099
000120 78 10 8c bd 90 c6 89 be ed 81 b7 be e2 dc 4e bf
       -0.06839079 -0.26909304 -0.35841313 -0.8080579
000130 81 d4 a7 be e6 82 52 be 2a 71 2c be 64 e3 82 3e
       -0.32779315 -0.20557746 -0.16840044 0.2556411
000140 a4 17 36 be b7 a0 85 3c e9 ff 75 be 35 df 29 be
       -0.17782456 0.016311986 -0.24023403 -0.16589053
000150 51 1a 35 be 76 48 23 be a6 1f b8 bd 66 63 4f 3e
       -0.1768582 -0.1594561 -0.089904115 0.20252761
000160 89 94 a0 be 30 f3 2c be 52 1b c9 3c f2 cb cb be
       -0.31363323 -0.16889644 0.02454916 -0.39804035
000170 bd 55 c4 be 5b 8f d9 bd e9 90 11 be 92 ea 5e 3d
       -0.38346663 -0.10623046 -0.14215435 0.054422922
000180 4e 7b 68 bd f9 07 67 3e b1 d5 90 bd b3 f4 83 be
       -0.056758218 0.22561635 -0.070720084 -0.25772628
000190 6e 51 0e be 32 1e 4a 3c d1 77 32 bc 21 4a bd 3e
       -0.1389825 0.012336301 -0.010892824 0.36970618
0001a0 3e 6b 8c 3d 3d 6c 9f be a1 1e 9f be c9 b6 77 be
       0.06856392 -0.31137267 -0.31078056 -0.24190821
0001b0 73 ab ae 3e 9d d6 cb 3b da 7f 3f be 68 00 7b be
       0.3411518 0.0062206523 -0.18701115 -0.24511874
0001c0 b9 54 e6 3d ab f6 4c be b1 51 a8 3d e8 8c 30 3c
       0.11246628 -0.20015971 0.082187064 0.010775782
0001d0 a4 4d 3a be 25 20 84 3e ed 88 f4 3e a8 9a 8b be
       -0.1819368 0.25805774 0.47760716 -0.2726643
0001e0 ca d6 18 3f cb 64 ce bd 17 76 6c bd d2 ec 88 bd
       0.5970274 -0.100778185 -0.057729807 -0.06685795
0001f0 64 a1 e3 be f0 f3 26 be d0 c5 5b 3e 45 0f 6a 3b
       -0.4445907 -0.16303992 0.21462178 0.0035714668
000200 b1 99 81 3d 16 4d 6c 3d 04 ff 82 3e 0b 7f 3a be
       0.063281424 0.057690702 0.25585186 -0.18212526
000210 a8 7e e2 bd c5 d5 12 bd 06 fb f8 bd 99 fc 48 3e
       -0.11059314 -0.035848398 -0.12157254 0.19627608
000220 79 f3 8d 3e 96 ae 33 be 77 70 8a 3e 96 46 2a 3e
       0.27724817 -0.17547068 0.2703893 0.16628489
000230 89 a2 5c be eb de 40 3b f6 ae 9f be bf be ae be
       -0.21546377 0.0029429744 -0.31188172 -0.34129903
000240 0e 02 b1 3d df 5d 89 bd 3e 85 d5 bd 8e 9e 92 3d
       0.0864297 -0.067073576 -0.104258046 0.07159148
000250 91 42 2c bc fc 64 f3 bd 85 2b 75 bb f1 69 93 bd
       -0.010513918 -0.118844956 -0.0037409973 -0.07197941
000260 d9 15 4f be a2 03 e0 3e a3 98 ea 3e 92 e0 0c be
       -0.20223178 0.43752772 0.45819578 -0.13757542
000270 01 e3 cc 3e 00 da ac 3d 52 96 49 be 36 51 36 be
       0.4001694 0.08440018 -0.19686249 -0.17804417
000280 28 60 05 3d c8 79 bb bd 6c eb 3e be 55 a4 5e be
       0.032562405 -0.09154087 -0.18644494 -0.21742375
000290 b8 7c a9 be e9 6b fd 3d da 2b 33 3c 1b d7 51 be
       -0.33102965 0.12374098 0.010935748 -0.20492212
0002a0 21 06 01 bd d1 1d 24 3e f6 5c 3a be 34 8c 01 bc
       -0.031499986 0.16026999 -0.18199524 -0.007906962
0002b0 1c 92 6a bd 07 71 3b be 02 ee 65 bd e8 35 69 be
       -0.057268247 -0.18304835 -0.056135185 -0.2277447
0002c0 4d d6 e2 bd ca fb e2 3d 03 a8 b8 bd 68 83 83 bd
       -0.11076031 0.11083181 -0.09016421 -0.06421548
0002d0 08 7d 9e 3e d6 74 d2 3d c8 83 af bd 88 bf 57 3e
       0.30954766 0.10276191 -0.08570057 0.21069157
0002e0 30 34 a2 3e 88 5f 88 bd f4 71 a8 be e3 d0 32 be
       0.3168044 -0.06658846 -0.3289944 -0.17462496
0002f0 0e 8a 44 be c1 2c 2b bc 37 8c be bd 8e 0d d1 be
       -0.19193289 -0.010447682 -0.093040876 -0.40830654
000300 a4 b5 7a 3e 44 d4 bb 3e e0 78 b5 bd 62 20 0b 3e
       0.24483353 0.36685383 -0.08860946 0.13586572
000310 8d 1a 88 bc 9a 2b 4b be 4e 3c d7 3c 29 57 d6 3d
       -0.016614223 -0.19840851 0.026273873 0.10465843
000320 14 2e 5e bd 82 56 e1 3d f0 ae 87 bd 52 fc bb bd
       -0.054243162 0.11002828 -0.066251636 -0.09178986
000330 3f 42 69 bd 7b f2 20 3d f9 a7 bd bd 59 6c b7 bd
       -0.056947943 0.039293747 -0.09260554 -0.089562126
000340 f5 f6 c5 be 31 0a 2e bf a6 03 b8 be 14 bf d2 be
       -0.38664976 -0.679843 -0.35940284 -0.41161406
000350 49 46 95 be dc f7 e5 bd 88 87 c2 be 85 9c 4f be
       -0.29155186 -0.11228916 -0.37994027 -0.20274551
000360 5e e4 6b bd 07 16 8d be d1 f0 2e be 0a 42 0c be
       -0.057590835 -0.27555868 -0.17084052 -0.13697067
000370 ea ac d7 bd 0c fb 21 3d 46 a6 40 be 03 e6 d7 3d
       -0.105310276 0.039546058 -0.18813428 0.10541918
000380 a4 a8 0f be ed 05 1c bd 22 5f 34 be 59 1a e5 be
       -0.14029175 -0.03809159 -0.17614415 -0.44746664
000390 89 d2 9c bd fb c4 15 bd c6 99 bc bd 26 09 a4 be
       -0.07657344 -0.03656481 -0.092090175 -0.3203823
0003a0 16 83 67 3d fd 0e a9 be 7c 50 a0 bd 92 93 21 be
       0.056521498 -0.33019248 -0.07827851 -0.1577895
0003b0 5e 3f 26 be ee 3e 12 3e 2f 81 38 3c e8 ba ec bd
       -0.1623511 0.14281818 0.0112612685 -0.11559087
0003c0 c1 f5 44 be 25 59 ab be dd 4e 9a bd 25 25 fa 3d
       -0.19234373 -0.3346645 -0.07534573 0.12214116
0003d0 cb a8 94 3e 66 5a fd bd bd a0 1d 3f 29 00 38 3e
       0.2903503 -0.12370758 0.6157339 0.17968811
0003e0 dc 15 70 be 93 8c cc be 97 c3 bd be ab 6b 84 be
       -0.23445839 -0.39951 -0.37063286 -0.25863394
0003f0 b8 5b ea 3d b5 f8 95 3d 0f bd 36 bb c9 91 19 3c
       0.11443275 0.07322828 -0.0027883684 0.009373137

layer4.0.bias f4 [128]
000000 b0 58 19 bd 6b 0a 6a bb 2e a7 62 3d 27 93 e0 3c
       -0.037438095 -0.0035711776 0.055335216 0.027413918
000010 5b f8 ab bd ef d5 91 3d 81 1f b7 3c 74 fe 1e 3b
       -0.083969794 0.07120883 0.02235389 0.0024260553
000020 b5 7f ce bd 67 c2 42 3d 69 98 c3 bd 91 95 24 be
       -0.10082952 0.047548678 -0.09550554 -0.1607268
000030 03 ad 35 3e 65 92 bb bc 5b 70 fc 3c 6b d9 2b bb
       0.1774178 -0.022896955 0.030815294 -0.002622212
000040 3f b0 64 bd e4 42 3d 3d ab b5 79 3b 52 7d a9 bc
       -0.055832144 0.04620637 0.0038102667 -0.02068964
000050 ec 00 b5 3d d1 54 e5 bb 4e e2 c9 bc 85 38 2c bd
       0.088380665 -0.0069986363 -0.024644043 -0.04204609
000060 fb 41 96 3c 1c c9 44 bd 1e c9 31 3d de 2e 4a 3d
       0.018342009 -0.048043355 0.04340469 0.049361102
000070 f0 1d 8f 3d 9d f3 36 3c f0 82 8e 3d 34 f2 17 3d
       0.06988132 0.01116648 0.06958568 0.037096217
000080 65 b9 1f 3b d2 11 da bc 14 e5 1e bd 53 47 27 bd
       0.0024371978 -0.026619826 -0.038792685 -0.040839504
000090 48 6d 79 3d f1 2b a2 3d f0 54 7d 3c 69 a5 19 bc
       0.060895234 0.079185374 0.015462145 -0.009377816
0000a0 72 07 24 3c 65 37 14 bd c9 be 0f be b6 f0 9b bd
       0.010011541 -0.03618564 -0.14037623 -0.07614271
0000b0 9f fa 0a be 0c 3f f8 3c c6 f0 ae 3d dc eb 8f bc
       -0.13572167 0.0303035 0.08542018 -0.017568521
0000c0 c6 81 cc 3b c2 dd d1 bc c0 d3 93 bb 33 25 4a bb
       0.006241056 -0.025618438 -0.0045113266 -0.0030844926
0000d0 da ba ec 3a 2e ff 27 bd 40 45 c1 3c 24 9c 84 bd
       0.0018061057 -0.041014843 0.023592591 -0.06475094
0000e0 bc e4 e0 3c 8f a0 a5 bd 0d 46 a1 3d 6d 90 c4 bd
       0.027452819 -0.08087265 0.07874689 -0.095978595
0000f0 cc e7 b5 3d 81 98 00 3e 53 fd b4 3b 89 d8 3a 3d
       0.08882102 0.12558176 0.0055233627 0.04561666
000100 6b d1 ee 3d 73 bd 20 bc 64 e8 f3 3d 35 b6 4d 3c
       0.11661037 -0.009810793 0.11909559 0.012555649
000110 e2 de aa 3d a3 64 ae bc 7d fe 1d bd 59 9e 67 3d
       0.08343293 -0.021288222 -0.038572777 0.056547496
000120 1a fa e1 3d c2 7e f5 3c d8 54 72 bc c4 a0 b8 3c
       0.11034031 0.02996767 -0.014790736 0.022537597
000130 33 58 79 bd e7 7b 13 be 4c 54 1c be c6 37 ac bc
       -0.06087513 -0.14402734 -0.15266532 -0.021022689
000140 a8 fe 90 bb 24 e9 65 bd 12 ce 00 bd bd b3 1b bd
       -0.0044248886 -0.056130543 -0.031446524 -0.03801321
000150 17 a8 62 be 94 91 13 bc df 76 ab 3b fb c2 2f 3d
       -0.22134434 -0.0090068765 0.0052326764 0.042910557
000160 95 c3 e7 3b af c8 f3 3d c6 a6 86 bc 06 a9 01 be
       0.0070728757 0.11903512 -0.016436946 -0.12662134
000170 17 ea c8 3b b0 c8 50 3d 55 95 cd 3d 0e 2b 4e 3c
       0.0061314213 0.05097264 0.100382484 0.012583507
000180 c9 bd f0 bc f6 d5 a2 3d 38 41 1d bd d8 e7 62 3d
       -0.029387372 0.07950966 -0.038392276 0.055396885
000190 8e 62 70 bc 5c 1b b7 bc c7 fb 25 be 3f 97 ff 3a
       -0.014671935 -0.022351913 -0.16209327 0.0019500031
0001a0 8e ca d3 bb 0b 5f 7b 3d cd b0 a6 3c 5f bc 74 3c
       -0.0064633554 0.061369937 0.020347977 0.014937489
0001b0 d7 e5 47 3d f8 d2 d0 3d b1 f5 19 3d 5e 06 86 3c
       0.048803177 0.10196489 0.037587825 0.016360458
0001c0 b7 14 2f 3d cc ae 21 3b 66 f5 a6 be c6 08 56 bd
       0.042744365 0.0024670837 -0.326091 -0.05225446
0001d0 14 d8 e4 bc d9 d7 9b bc 07 86 a0 bd e6 90 c7 3d
       -0.027935065 -0.019023823 -0.07838064 0.09744434
0001e0 da 77 12 bd 63 b0 b6 3c 3d 60 0a 3b 16 41 be 3c
       -0.03575883 0.022300905 0.0021114491 0.023224395
0001f0 09 21 b1 bc df a9 aa bc 74 35 55 3b 60 4c 03 3d
       -0.021622198 -0.020832954 0.0032533081 0.03205526

layer4.1.weight f4 [128]
000000 cc 13 92 3e 49 49 3c 3f f2 49 39 3f 32 e9 73 3f
       0.2853073 0.73549324 0.72378457 0.952777
000010 5f b4 0c 3f 7e 2a 3b 3f ac 22 20 3f ac ec 35 3f
       0.54962724 0.7311171 0.62552905 0.7106426
000020 11 cc 29 3f 19 fd 58 3f 4f b4 49 3f f4 50 57 3f
       0.66327006 0.84761196 0.78790754 0.841079
000030 c0 b4 53 3f be 4e 9c 3e 3c 7c 6e 3f 94 20 07 3f
       0.8269768 0.30528826 0.93158317 0.52784085
000040 f9 c2 24 3f c1 21 30 3f 8a 48 30 3f ff a3 23 3f
       0.64360005 0.68801504 0.68860686 0.63922113
000050 6f f5 2f 3f 11 c9 67 3f be 85 14 3f fb 3b 51 3f
       0.68733877 0.9054118 0.58016574 0.8173215
000060 46 b2 89 3f 25 36 93 3f 75 58 8a 3e 81 82 aa 3e
       1.075753 1.1500899 0.27020612 0.33302692
000070 71 dd 3b 3f 10 43 76 3f a4 67 37 3f e1 03 4a 3f
       0.7338477 0.9619608 0.7164252 0.7891217
000080 e1 c7 82 3f f1 87 8e 3e a0 16 68 3f eb cd 3c 3e
       1.0217248 0.2783809 0.90659523 0.18437926
000090 e7 aa 40 3f d9 6a c2 3e 69 3c 54 3f 6b cd 33 3f
       0.75260776 0.37972143 0.8290468 0.7023532
0000a0 b0 d8 72 3f b9 67 29 3f 95 1f 71 3f 48 65 cc 3e
       0.9486189 0.66173893 0.94188815 0.3992102
0000b0 a1 a3 6e 3f 7d 27 80 3f 93 f2 45 3f c1 6e 02 3f
       0.9321843 1.0012051 0.77323264 0.5095025
0000c0 38 a1 63 3e ac 7e 4c 3f a4 cb 47 3e 0f d4 59 3f
       0.22229469 0.79880786 0.19511276 0.850892
0000d0 f5 4d ca 3d 52 c8 2e 3f 57 7c 2d 3f cf ac 2f 3f
       0.098781504 0.68274415 0.6776785 0.6862306
0000e0 6b ac 12 3f aa a2 28 3f ab 7e 49 3f 81 6f 76 3f
       0.5729434 0.65873206 0.78708905 0.9626389
0000f0 bd 78 0f 3f bc 35 3c 3f c8 f1 5d 3f ec f8 16 3f
       0.56043607 0.7351949 0.86697054 0.58973575
000100 1f 4f 97 3f f5 af 03 3f 61 0c 1e 3f 5c c8 06 3f
       1.1821021 0.51440364 0.6173764 0.52649474
000110 a1 b2 f3 3e ec db 6b 3f 88 fa 59 3f c3 3f 76 3f
       0.4759722 0.9213245 0.85147905 0.9619104
000120 63 a5 18 3f 86 8a 05 3f c4 42 52 3f 91 48 50 3f
       0.5962736 0.52164495 0.82133126 0.8136073
000130 6c 14 70 3f 5f fa 35 3f e7 2f 26 3f a4 63 40 3f
       0.9378116 0.7108516 0.64916843 0.7515204
000140 89 91 86 3e 6a 91 52 3f 9c 59 17 3f 16 b1 fc 3e
       0.2628291 0.82253134 0.5912111 0.49353856
000150 cf e6 14 3f 00 5e 07 3f 9e 98 74 3e 6b f7 57 3f
       0.58164686 0.5287781 0.23886344 0.84361905
000160 28 61 db 3e 2e fb 77 3f 17 dd 61 3f 4c f1 48 3f
       0.42847562 0.96867645 0.8822798 0.7849319
000170 b1 cc 18 3e 1a e1 49 3f a2 3f 15 3f 35 57 5d 3f
       0.14921834 0.788591 0.5830022 0.8646119
000180 06 24 54 3f 51 50 50 3f a4 4d dc 3e 2b 29 4c 3f
       0.8286747 0.81372553 0.43027985 0.7975032
000190 64 06 72 3f 5a af a8 3e 64 f0 48 3f 1a dc 63 3f
       0.94541 0.32946283 0.78491807 0.89007723
0001a0 a2 cb 2e 3f dd 4a 05 3f b8 ca 93 3d 43 74 87 3f
       0.6827947 0.5206736 0.072164 1.0582355
0001b0 f1 2c 3b 3f 33 a1 20 3f 23 3b 26 3f 45 df 17 3f
       0.7311545 0.6274597 0.64933985 0.5932506
0001c0 14 bd 07 3f d6 d7 3b 3f 49 fa 5f 3f 08 ca f7 3e
       0.53022885 0.73376215 0.8749128 0.48396325
0001d0 d4 2b 59 3f 41 ac 86 3f 5d 08 5e 3f 10 ca 20 3f
       0.848325 1.0521318 0.8673151 0.6280832
0001e0 a3 b1 2e 3f 11 74 46 3f 6a 35 33 3f 7f 4e 74 3e
       0.682398 0.77520853 0.7000338 0.23858069
0001f0 85 4a 24 3f c0 d7 d6 3e d8 c4 46 3f aa 44 49 3f
       0.6417621 0.4196148 0.7764411 0.786204

layer4.1.bias f4 [128]
000000 4a be 4a bf eb e4 a2 be 4a 7f bd be c2 be 10 bf
       -0.7919661 -0.31815276 -0.37011176 -0.56541073
000010 da ca fa bd 63 a7 d6 be 9f 73 c5 be 6f df 01 bf
       -0.12245722 -0.4192458 -0.38564774 -0.5073156
000020 06 2b f4 be bd 18 9f be 0a 32 38 bf f0 e0 ab be
       -0.47689074 -0.3107356 -0.71951354 -0.3357005
000030 82 7d ad be 7f 92 29 3c ef 3a 05 bf fb ff 09 bf
       -0.33884817 0.010349869 -0.5204305 -0.5390622
000040 5e 66 6e be 2d cd a6 be 3a 6b fe be 67 3d 44 be
       -0.23281237 -0.32578412 -0.49691182 -0.19164048
000050 27 65 96 be 08 27 27 bf 8b c4 3d be 82 43 80 bf
       -0.29374048 -0.6529393 -0.18532006 -1.0020602
000060 55 24 40 bf 40 b0 45 bf 65 8c 0f bf 15 0e ce 3d
       -0.7505544 -0.7722206 -0.560736 0.1006128
000070 45 16 5e bf 6e 7a 2f bf cf 0e ec be 22 72 c0 be
       -0.8675273 -0.6854619 -0.46105048 -0.37587076
000080 5a 9c 2c bf 05 be 44 bf bf 39 34 bf 57 65 14 bf
       -0.67426074 -0.76852447 -0.70400614 -0.5796713
000090 f0 5f 7b be ae 0f 88 bf 20 8b f0 be 9b c3 86 be
       -0.24548316 -1.0629785 -0.46981144 -0.2632111
0000a0 a1 5c 11 bf 03 a0 9c be 22 7f 34 bf de da d8 bd
       -0.56781965 -0.3059083 -0.7050649 -0.105886206
0000b0 62 d1 05 bf b4 47 58 bf 69 b7 1a bf 60 60 18 bf
       -0.5227262 -0.8448441 -0.6043611 -0.59522057
0000c0 c0 0b 3e bf 30 a6 da be 07 04 95 bf 57 49 19 bf
       -0.7423668 -0.42704916 -1.1641854 -0.5987753
0000d0 d9 bd 32 bf 0c f5 aa be 65 f7 e5 be d1 a1 98 be
       -0.69820935 -0.3339008 -0.4491531 -0.29810956
0000e0 82 64 8b be a2 94 8c be 62 a4 86 be 76 df 2a bf
       -0.2722512 -0.27457148 -0.2629729 -0.66747224
0000f0 d7 49 1e be 3a cc 9f be e4 17 09 bf b7 b6 35 be
       -0.15457855 -0.312105 -0.5355208 -0.17745481
000100 67 46 0b bf 12 f6 48 be 4a 99 94 be 51 4a 6d be
       -0.544043 -0.19625118 -0.290232 -0.2317288
000110 56 d2 89 bc dc e4 19 bf fa df 1c bf dd f2 c6 be
       -0.016823929 -0.60114837 -0.6127926 -0.38857165
000120 26 ea 31 be 66 63 31 be e8 fa d5 be 1f d5 07 bf
       -0.17374477 -0.17323074 -0.4179299 -0.5305957
000130 bc d7 09 bf fe 0f 87 be e2 3f 3d be 6b 40 97 be
       -0.5384481 -0.2637939 -0.184814 -0.29541335
000140 f5 4a 3b bf ef 47 a9 be 02 82 8f be 21 f1 6a bd
       -0.7316125 -0.33062693 -0.28028876 -0.057358865
000150 da 2f 20 be f1 22 91 be 6d c3 23 bf 74 67 1a bf
       -0.15643254 -0.2834697 -0.6397007 -0.60314107
000160 ca dd 10 bd 9a 70 3e bf 3d 2d 69 bf 16 7f fc be
       -0.035367765 -0.74390566 -0.91084653 -0.4931571
000170 12 1b 19 bf 62 82 be be d5 d2 3d be 26 1c 49 bf
       -0.5980693 -0.3720885 -0.18537457 -0.78558576
000180 05 de 4c bf 37 39 ab be 78 fa 0c bf 0e a4 c7 be
       -0.80026275 -0.3344209 -0.55069685 -0.3899235
000190 7c 95 f4 be 5a 1c 0f bf 84 44 ea be 53 93 f5 be
       -0.47770298 -0.55902636 -0.45755398 -0.47963962
0001a0 94 1c 0b bf 92 ee 06 be 71 78 59 bf 46 67 2d bf
       -0.5434048 -0.13176945 -0.84949404 -0.6773571
0001b0 96 d3 1f bf 3d 52 73 be 80 5e 4e be ec 94 1e be
       -0.6243223 -0.2376184 -0.20153236 -0.15486497
0001c0 48 ff cf be 05 ce ff be 90 d7 ce be 50 50 59 be
       -0.40624452 -0.49961868 -0.40398836 -0.21222043
0001d0 aa 1b 07 bf e5 7e 20 bf c7 69 d0 be 8b c7 5a be
       -0.52776587 -0.62693626 -0.40705702 -0.21365182
0001e0 bc 5e a8 be 03 92 c9 be 1c 62 19 bf 1b dc 65 bf
       -0.32884777 -0.3936921 -0.5991533 -0.8978898
0001f0 c2 c2 49 be 94 5c 5e bc d4 55 b4 be 4c 50 f5 be
       -0.197032 -0.013571877 -0.35221732 -0.47912824
