main/Pytorch/v5/englishv5.pt (torch, 414475 bytes, 26 tensors)

layer1.0.weight f4 [16, 1, 3, 3]
0	0x3d0a24fb	0.033726674
1	0xc01c898b	-2.445895
2	0xc02f82d3	-2.7423599
3	0x40650d82	3.5789495
4	0x3f77d140	0.96803665
5	0xc0800682	-4.0007944
6	0x3f1c15c2	0.609707
7	0x4071ab63	3.7760856
8	0x3ea749b2	0.32673413
9	0xc03f805e	-2.99221
10	0x3e7d6d01	0.24748613
11	0x402b698d	2.6783173
12	0xc0e42d4d	-7.13053
13	0xbf8d79b9	-1.1052772
14	0x3fb6dc78	1.4286032
15	0xc00ebd3b	-2.2302997
16	0xc035716e	-2.8350482
17	0x3ef7299a	0.48273927
18	0xbffac98f	-1.9592761
19	0xc0b3cf55	-5.619059
20	0xbec13290	-0.3773389
21	0xbfa345ab	-1.2755636
22	0xc0fe9585	-7.955752
23	0xbf935f22	-1.1513407
24	0xbef9fc5c	-0.48825347
25	0xc0b02739	-5.504788
26	0xbfb2e3da	-1.3975785
27	0x3d8a5c9c	0.06755945
28	0xbf19ce0c	-0.6008003
29	0xbfe37560	-1.7770195
30	0x407a3581	3.9095156
31	0x40a66b80	5.2006226
32	0x3f8197e9	1.0124484
33	0x40859571	4.1744924
34	0x402c2856	2.689962
35	0xbf7f2114	-0.9965985
36	0xc007e5d7	-2.1234033
37	0xbfbe3ba3	-1.486195
38	0x3ff0d362	1.8814509
39	0xc097cfc0	-4.74411
40	0x3e39615d	0.18103547
41	0x404ccc6a	3.1999764
42	0xbfd874bd	-1.6910626
43	0x40634fb7	3.5517404
44	0x3f8a8b53	1.0823768
45	0xbe096f36	-0.1342133
46	0x40882184	4.2540913
47	0xbf8edc8e	-1.1161058
48	0xc079a49c	-3.900672
49	0x3faf0a63	1.3675045
50	0x4035a698	2.838293
51	0xc03d8b75	-2.9616368
52	0xc00b6870	-2.1782494
53	0x3fa8bc95	1.3182551
54	0xc00396e6	-2.056085
55	0xc0a08c46	-5.017123
56	0xc0322a82	-2.7838445
57	0xbfd1c149	-1.6387111
58	0x3ef19641	0.47184947
59	0x3fbf7306	1.4956977
60	0x402bafc5	2.6826031
61	0x404466b3	3.0687683
62	0x3fca8d55	1.5824381
63	0x3fc082c6	1.5039909
64	0x3f8c2add	1.0950581
65	0xbfbfd8be	-1.498802
66	0xbfdb6852	-1.7141211
67	0xc111a411	-9.102555
68	0xc0f43e80	-7.6326294
69	0xc054e32d	-3.3263657
70	0xbf79cf7a	-0.9758221
71	0x3f8e4111	1.1113607
72	0xbf4fb631	-0.8113738
73	0xc087510b	-4.228643
74	0xbe8deeaf	-0.27721164
75	0x3f542165	0.82863456
76	0x409b7f22	4.859269
77	0x3ecafbc5	0.3964521
78	0xbf2cde5d	-0.675268
79	0xc064488c	-3.566928
80	0xbf25da06	-0.647858
81	0x3fe8ebd4	1.8196969
82	0x405881d8	3.382925
83	0x4075cfdc	3.8408117
84	0x40163462	2.3469472
85	0x4044e1a5	3.0762722
86	0x401f3782	2.487763
87	0x3f071b61	0.5277615
88	0x3fe7bdf8	1.8104849
89	0x401b3ca0	2.4255753
90	0x3ff760a6	1.932637
91	0x4029d383	2.6535347
92	0x3fd1cd54	1.6390786
93	0xbf21a61c	-0.6314409
94	0x3e8c0217	0.27345344
95	0x3f46280a	0.77404845
96	0xc027707a	-2.61624
97	0xc0b02261	-5.5041966
98	0xc078e01f	-3.8886793
99	0xbf20ee4f	-0.6286363
100	0xbdeba6f3	-0.115064524
101	0x3f36867a	0.71298945
102	0xc01e3fe6	-2.47265
103	0x40a4d472	5.1509333
104	0xc04a1890	-3.1577492
105	0x3da1b821	0.07896448
106	0x4015936f	2.3371236
107	0xc043e2ba	-3.0607133
108	0x3e38c94c	0.18045539
109	0x40771d21	3.861153
110	0xbd323388	-0.043506175
111	0x4069af8c	3.6513395
112	0x3f2b3d19	0.668901
113	0xc0707c22	-3.7575765
114	0x3d6d3462	0.057911284
115	0xc05a46a4	-3.4105616
116	0xbfd79068	-1.6840944
117	0xc0023818	-2.0346737
118	0xc096870f	-4.7039866
119	0xbea425ec	-0.32060182
120	0xc08f7bb6	-4.4838514
121	0xbfa62c55	-1.2982279
122	0x3fac2f31	1.3451902
123	0xc05986ea	-3.3988595
124	0xbfd2d375	-1.6470782
125	0x4043f3d6	3.0617576
126	0x401153e3	2.270745
127	0xbf8e7dbf	-1.1132125
128	0xc052c0da	-3.2930207
129	0x4014bf35	2.3241704
130	0xbe8abfc1	-0.27099422
131	0xc0b27816	-5.577159
132	0x3fd7e2c0	1.6866074
133	0xbf2761e9	-0.65383774
134	0xc08009e9	-4.0012097
135	0xbf4435b9	-0.76644474
136	0xbf740c89	-0.9533163
137	0x3faab991	1.333788
138	0xc01dbfc2	-2.464829
139	0xc0c034d9	-6.006451
140	0xc0dbd0d6	-6.8692427
141	0x4015e4c7	2.3420885
142	0x3f4e05a4	0.80477357
143	0x3c5576e2	0.013028832

layer1.0.bias f4 [16]
0	0x3f11c62d	0.5694302
1	0xc0398bdd	-2.8991616
2	0xc02f15e7	-2.7357118
3	0xbfcd9767	-1.6061829
4	0xc0880a68	-4.2512703
5	0x3f60028e	0.875039
6	0xbec3b3bd	-0.38223067
7	0x3ff03511	1.8766195
8	0xbefd9c6a	-0.49533397
9	0x3fba1a0d	1.45392
10	0x40559432	3.3371701
11	0x4029bdb7	2.6522043
12	0x3ece0c76	0.40243882
13	0xc0908f33	-4.5174804
14	0x40105b75	2.255582
15	0x401ae6c3	2.4203346

layer1.1.weight f4 [16]
0	0x40028665	2.0394528
1	0x4097cc0a	4.743657
2	0x4112332e	9.137495
3	0x4012634c	2.2873106
4	0x4000bf4b	2.0116756
5	0x3fd405c2	1.6564257
6	0x401e1a21	2.4703448
7	0x4117a023	9.476596
8	0x3fd5897b	1.6682581
9	0x401a5ad7	2.4117944
10	0x404dcbfb	3.215575
11	0x3faa8beb	1.332395
12	0x40095217	2.1456354
13	0x40bc5618	5.8855095
14	0x4092a6d8	4.5828667
15	0x40a6ac90	5.2085648

layer1.1.bias f4 [16]
0	0x3ef38bc4	0.4756757
1	0xbf1f3a6e	-0.6219853
2	0x3fc45005	1.533692
3	0xc0624542	-3.5354772
4	0x3c3a8ccb	0.011386107
5	0x3e5d00fe	0.2158241
6	0x3e773638	0.24141777
7	0xbf1610bf	-0.586193
8	0x3f53b874	0.8270333
9	0xbfd0b522	-1.6305277
10	0x3eb1a3c6	0.34695262
11	0x3e2229d0	0.15836263
12	0x3e1b0b57	0.15141045
13	0xbfca0c03	-1.5784916
14	0xbf6a5383	-0.9153368
15	0xbf80a7ee	-1.0051248

layer1.1.running_mean f4 [16]
0	0x3f1369de	0.57583416
1	0xc0650d39	-3.578932
2	0xc0886449	-4.262242
3	0xbf4b582c	-0.79431415
4	0xc08852c6	-4.260104
5	0x3f583c6f	0.84467214
6	0xbf0324ed	-0.5122822
7	0x3f28622e	0.6577481
8	0xbf3d5722	-0.7396108
9	0x402f7f02	2.742127
10	0x4041333f	3.0187528
11	0x40256011	2.5839884
12	0x3ebfa332	0.37429196
13	0xc0aa26a8	-5.317219
14	0x3fdf39a2	1.7439463
15	0x3fd654ab	1.6744589

layer1.1.running_var f4 [16]
0	0x400a2804	2.1586924
1	0x40d23942	6.5694895
2	0x41a25f3f	20.296507
3	0x40eea424	7.4575367
4	0x4025efc2	2.5927587
5	0x3fe88bf7	1.8167714
6	0x403f1dbe	2.9861903
7	0x417355eb	15.208476
8	0x3f6c815d	0.9238489
9	0x414ee6a1	12.931306
10	0x4070c9a7	3.762308
11	0x3f56c1a8	0.83889246
12	0x40099c79	2.1501753
13	0x40ecb3f3	7.3969665
14	0x40a8e16e	5.2775183
15	0x40d23c76	6.5698805

layer2.0.weight f4 [32, 16, 3, 3]
0	0x3fc868aa	1.5656941
1	0x3e6ad827	0.22934018
2	0x4022f298	2.5460567
3	0xbf8c6c8c	-1.0970626
4	0xc02c1612	-2.688847
5	0xbe5a0d29	-0.21294083
6	0xbfb24032	-1.3925841
7	0xbeb673a6	-0.35635108
8	0x3ece63c8	0.40310502
9	0x4044afe7	3.0732362
10	0xbe615d23	-0.22008185
11	0x3e663695	0.22481759
12	0x3ee21398	0.44155574
13	0xc0247878	-2.5698528
14	0xc03776f8	-2.8666363
15	0x40275fff	2.6152341
16	0xbfb4cf97	-1.4125851
17	0xbfaf2dce	-1.3685853
18	0x40517ff0	3.2734337
19	0x400040a9	2.0039465
20	0x40128851	2.28957
21	0x409a7916	4.827281
22	0x408d9bc9	4.4252667
23	0x4071ef89	3.780245
24	0x4004b16e	2.0733294
25	0x40160926	2.3443084
26	0x4012b928	2.292551
27	0xc0036fd2	-2.0537
28	0xbf50044c	-0.81256557
29	0x402c554e	2.6927066
30	0xc03d1666	-2.954492
31	0xbf96db52	-1.1785681
32	0xbe358c93	-0.17729406
33	0x3f92d0b4	1.1469941
34	0x3ef67d3c	0.4814242
35	0xbefbb895	-0.49164262
36	0x3f2af7af	0.66784185
37	0xbfba5df6	-1.4559925
38	0xbf8e5dfd	-1.1122433
39	0xbfa536cc	-1.2907348
40	0xbe06930e	-0.13142034
41	0xbec93c04	-0.393036
42	0xbfdf82e9	-1.7461826
43	0xbf89ab0a	-1.0755322
44	0xc02d594c	-2.7085752
45	0xbf00347f	-0.500801
46	0xbfe09200	-1.7544556
47	0x3e8ba30a	0.27272826
48	0xbfd16982	-1.6360323
49	0xc0415b6a	-3.0212045
50	0xbf6ad873	-0.91736525
51	0xc064b0b7	-3.5732858
52	0xc01cf398	-2.4523678
53	0xc05993c9	-3.399645
54	0x3f627831	0.8846465
55	0xc0463e8c	-3.0975676
56	0xbfa0d461	-1.2564813
57	0xc025158b	-2.5794399
58	0xc029f847	-2.6557786
59	0xc09ed193	-4.963083
60	0xbf91be92	-1.1386282
61	0xbf7d7835	-0.99011546
62	0xc01373cd	-2.303943
63	0xc017f20b	-2.3741481
64	0xc0223a01	-2.5347903
65	0xc002a2c6	-2.041185
66	0x3fccfd0c	1.6014724
67	0xc0127982	-2.2886662
68	0xbea904eb	-0.33011565
69	0x3ed1c4aa	0.40970355
70	0x404c2c80	3.190216
71	0x3fd4ad13	1.6615318
72	0xc0d4e540	-6.6529846
73	0xc097bcb7	-4.7417865
74	0xbffbac6b	-1.9661993
75	0xc0ad03e2	-5.406724
76	0xc0b4c00a	-5.6484423
77	0xbfec96fa	-1.8483574
78	0xc05b90e8	-3.4307194
79	0xc10e44fd	-8.891843
80	0xc0e6afe3	-7.2089705
81	0x3fd41831	1.6569883
82	0x3fd5e9da	1.6711991
83	0x403780b2	2.86723
84	0xbff74adf	-1.9319724
85	0xbf456ff6	-0.77123964
86	0x4022eb93	2.5456283
87	0x3fdcae9f	1.724079
88	0xc02b8644	-2.68007
89	0xbe804c19	-0.25058058
90	0xc04c3ee8	-3.1913395
91	0xbf880d22	-1.0629008
92	0x3f7496af	0.95542425
93	0xc078264f	-3.8773382
94	0xc0215e06	-2.5213637
95	0xbeafb1f0	-0.34315443
96	0xbfd0d926	-1.6316268
97	0x3ff6b5fa	1.9274285
98	0x403a1c49	2.9079764
99	0xc0d56d4d	-6.6695924
100	0xc03c7bab	-2.945048
101	0xc02909d5	-2.641225
102	0xc09aeaa7	-4.841144
103	0xc0a22426	-5.0669127
104	0xc02f0d9f	-2.7352064
105	0xc00aa73e	-2.1664577
106	0xbfd7eed0	-1.6869755
107	0xc08c143c	-4.37747
108	0xc0825524	-4.072893
109	0xc07070db	-3.7568882
110	0xc000abdb	-2.0104892
111	0xc00780d4	-2.117238
112	0xc02ec43e	-2.7307277
113	0xbf916a42	-1.1360552
114	0xbf1cdce5	-0.6127456
115	0xc02c177a	-2.688933
116	0xbfb6ec54	-1.4290872
117	0xbeb5b454	-0.35489142
118	0xc0c31a52	-6.096963
119	0xbfa9d386	-1.3267677
120	0xbfd639d4	-1.6736398
121	0xc10909d6	-8.564901
122	0xc09f1959	-4.971844
123	0x3eaad2f2	0.33364064
124	0xc03b5bbf	-2.9274747
125	0xc0ae1cbc	-5.4410076
126	0xc095ca7d	-4.680968
127	0xc02a8104	-2.6641245
128	0xbf02a149	-0.5102735
129	0xbeca9b95	-0.39571825
130	0xc0bbc8ea	-5.8682756
131	0xc0260d78	-2.594572
132	0x3d7e0921	0.062020425
133	0xbedf466f	-0.43608424
134	0x3e877c90	0.2646222
135	0x4088a797	4.2704577
136	0x40536afa	3.3034043
137	0x40497a1b	3.1480777
138	0xbf892012	-1.0712912
139	0xc09a23df	-4.816879
140	0xbf716aa3	-0.9430334
141	0xbb7e7fcc	-0.0038833497
142	0xbfc3add8	-1.5287428
143	0xbe9a4482	-0.30130392
144	0x40098f8f	2.1493871
145	0x3da1b903	0.07896616
146	0x4013c7bd	2.309066
147	0xc000cf0f	-2.0126379
148	0xbff6708b	-1.9253095
149	0x4007436a	2.1134896
150	0xbfeebb3c	-1.8650889
151	0x3f4e0ed5	0.8049138
152	0x3f7804bf	0.9688224
153	0xbf11110e	-0.5666665
154	0xc07a0987	-3.9068315
155	0xc088e2ba	-4.2776766
156	0xc026c5b8	-2.6058178
157	0xc044b66c	-3.0736341
158	0x409466fe	4.6375723
159	0x3ff4ab3d	1.9114758
160	0x403dfa38	2.9683971
161	0xbe9a0ae7	-0.30086443
162	0xc040619b	-3.0059574
163	0xc09d3a01	-4.9133306
164	0xc029926e	-2.6495624
165	0xc0859ef7	-4.175655
166	0xc05c3443	-3.4406898
167	0xc0899951	-4.2999654
168	0xbf56d4ea	-0.8391863
169	0xbfe57bd2	-1.7928412
170	0xc00d09b4	-2.2037172
171	0xbfe9b6f6	-1.825896
172	0x408ac16c	4.336111
173	0x3dcdd08f	0.10049545
174	0xbf6b3ea7	-0.91892475
175	0xc10bab2d	-8.729291
176	0xc0c590cd	-6.173926
177	0x3c914082	0.017730955
178	0xbfd9d904	-1.7019353
179	0xbf2bb322	-0.6707021
180	0x3e80502b	0.25061163
181	0x3f18f4c6	0.59748495
182	0x3fa3213b	1.2744516
183	0x3fd4206e	1.6572397
184	0x3f7ac551	0.9795733
185	0xbf87367e	-1.0563505
186	0x3fe6fbf7	1.8045644
187	0x400c6986	2.1939406
188	0xc0056dea	-2.0848336
189	0x3f86cdb5	1.0531527
190	0x3f91a32e	1.1377923
191	0x3f400b36	0.75017107
192	0x3f3986d8	0.7247138
193	0xbe49ee8d	-0.19719906
194	0x40b45a06	5.635989
195	0xbe5e79cd	-0.21726151
196	0x3fadbffe	1.3574216
197	0x40a51e7c	5.159971
198	0xbfb0f4c3	-1.3824695
199	0x3e9aecc6	0.3025877
200	0x3e29e977	0.16592966
201	0x3f748ff9	0.95532185
202	0xc0c2d4f7	-6.0884967
203	0xbfb790f5	-1.4341112
204	0x3f9e8712	1.238497
205	0xc05a9606	-3.4154067
206	0xbf1b7d18	-0.6073775
207	0xbfa3e6eb	-1.2804846
208	0xbee67848	-0.45013642
209	0xc066d66c	-3.6068373
210	0x3fd42506	1.6573799
211	0xc0c760e4	-6.2305775
212	0xc08df889	-4.436589
213	0x3dcadaae	0.09904991
214	0xc01b1858	-2.4233608
215	0x3e28d1a3	0.1648622
216	0x3fb90697	1.4455136
217	0x3f3b6344	0.7319834
218	0x3e94b5ba	0.29044896
219	0x400fd610	2.2474403
220	0xc034d029	-2.825205
221	0x402fca29	2.7467139
222	0x3f0d5bc3	0.5521814
223	0xbdcee14b	-0.10101565
224	0xbd82b067	-0.06381302
225	0xbc46a921	-0.012125284
226	0x41077225	8.465367
227	0x4065c847	3.590349
228	0xbfc75052	-1.5571387
229	0xc01c1bb2	-2.4391904
230	0xbfa27872	-1.2693007
231	0xc026cf98	-2.6064205
232	0xc0913de6	-4.538806
233	0xc08704c6	-4.2193327
234	0xbfef747e	-1.8707426
235	0x4009d9cd	2.1539185
236	0xbfeed319	-1.8658172
237	0xbfce1c3e	-1.6102369
238	0xc05d193f	-3.454666
239	0xbdb9a559	-0.09064741
240	0x3fb43a49	1.4080287
241	0xc02abf85	-2.6679394
242	0x3f967c91	1.1756765
243	0x3fb666e5	1.4250151
244	0x3f0db728	0.553576
245	0x3d4a8017	0.049438562
246	0x4083a571	4.1139455
247	0x40f77641	7.7331853
248	0x40078fda	2.118155
249	0x400fb63f	2.2454984
250	0x405dbd4e	3.4646792
251	0x4047b8fb	3.1206653
252	0x3f9a3a8a	1.2049115
253	0x3e865d3c	0.26243007
254	0x3fbce979	1.475875
255	0x409d9cef	4.925407

layer2.0.bias f4 [32]
0	0xbe980c06	-0.29696673
1	0xbed26667	-0.41093752
2	0x3f6ddbc6	0.9291347
3	0xc031fe3a	-2.7811418
4	0xbf5d627f	-0.8647842
5	0x3f290507	0.66023296
6	0x3fc7d88d	1.5612961
7	0xc01a4c2b	-2.410899
8	0x3fc0677e	1.5031583
9	0x3c88b975	0.016689995
10	0x4004e8a9	2.0767004
11	0x4066596a	3.5992074
12	0x3fc89f1a	1.5673554
13	0xbf4050bc	-0.7512319
14	0xc09739c3	-4.725801
15	0x3f1c3f66	0.6103424
16	0x40197173	2.3975494
17	0x3f92edf5	1.1478869
18	0x3f7afa08	0.9803777
19	0xc0095972	-2.1460843
20	0xbe103fae	-0.14086792
21	0xbf0b8bd4	-0.54510236
22	0xbf87d107	-1.0610665
23	0xc00ce87e	-2.2016902
24	0xc0268d90	-2.6023903
25	0xbf8fb73c	-1.1227794
26	0x403fee79	2.9989302
27	0x3f9b4d21	1.2132913
28	0xbf63610e	-0.8881997
29	0x3f827796	1.0192745
30	0xbf1c721a	-0.61111605
31	0x3fd10215	1.632876

layer2.1.weight f4 [32]
0	0x40cc152c	6.3775845
1	0x4045f0b8	3.0928173
2	0x40871d39	4.222317
3	0x40add966	5.432788
4	0x4011b363	2.276574
5	0x40297afe	2.6481318
6	0x400d777c	2.2104177
7	0x405dcb69	3.4655402
8	0x40066f0c	2.1005278
9	0x3ffba960	1.9661064
10	0x40016c91	2.0222514
11	0x405b2d0f	3.4246252
12	0x40b87f97	5.765575
13	0x40883817	4.256847
14	0x3fe9a1dc	1.825252
15	0x403488e5	2.8208554
16	0x40306781	2.7563174
17	0x3fc63b4c	1.5486846
18	0x3ffb93eb	1.9654516
19	0x4003aba1	2.0573504
20	0x4074b70d	3.8236725
21	0x4049d8a3	3.1538475
22	0x407d4038	3.9570446
23	0x407b46aa	3.926188
24	0x402159e9	2.5211127
25	0x403f638f	2.9904516
26	0x401edc4d	2.482196
27	0x40649a8f	3.5719335
28	0x40187266	2.3819823
29	0x402e02b8	2.718916
30	0x40225055	2.536153
31	0x4086986e	4.206107

layer2.1.bias f4 [32]
0	0x3f9fbc89	1.2479411
1	0xc0a416a4	-5.1277637
2	0xbfd61246	-1.6724327
3	0xbff0edec	-1.8822608
4	0xc085647d	-4.1685166
5	0xc08d02ce	-4.4065924
6	0xc017448e	-2.3635592
7	0xbf8b6f78	-1.0893393
8	0xbf8ff291	-1.12459
9	0xc0029d57	-2.0408533
10	0xbe608a90	-0.21927857
11	0xbf7d2ec4	-0.98899484
12	0xc009e5e3	-2.1546562
13	0xbfa59f8e	-1.2939317
14	0x3f2f411a	0.6845871
15	0xc03542d7	-2.8322046
16	0xbf03f4a0	-0.51545143
17	0x3df34543	0.11878445
18	0xbefad4a0	-0.48990345
19	0x3e34402c	0.17602605
20	0xbfac247a	-1.3448632
21	0xbea74783	-0.32671747
22	0xbfbb7d46	-1.4647605
23	0xbf87b144	-1.0600972
24	0xc0898567	-4.2975345
25	0x3d3cb57c	0.046071514
26	0xbf935ffa	-1.1513665
27	0xbf9365ae	-1.1515405
28	0xbf2b5143	-0.6692087
29	0xc05da3ec	-3.46313
30	0xbf5b0baf	-0.855647
31	0xbfb18ce2	-1.3871119

layer2.1.running_mean f4 [32]
0	0xc28ef361	-71.47535
1	0xc30eed79	-142.92763
2	0xc315da10	-149.8518
3	0xc25c7c10	-55.121155
4	0xc2f5b7d6	-122.859055
5	0xc3044920	-132.28564
6	0xc31cbf22	-156.74661
7	0xc174fed3	-15.312213
8	0xc331f200	-177.94531
9	0xc22255a5	-40.583637
10	0xc28ed200	-71.41016
11	0xc1a41be6	-20.513622
12	0xc2a0c39a	-80.382034
13	0xc1bc50ad	-23.539392
14	0xc28f1743	-71.54543
15	0xc2758f04	-61.389664
16	0xc1a66b50	-20.802399
17	0xc2362e18	-45.545013
18	0xc248776a	-50.116615
19	0x421be694	38.975174
20	0xbf106db1	-0.56417376
21	0xc2d2def9	-105.43549
22	0xc23f714f	-47.860653
23	0x417a733c	15.653133
24	0xc2b29651	-89.29359
25	0xc1e17539	-28.182238
26	0xc01984d3	-2.398732
27	0xc26a52a8	-58.58072
28	0xc10a5246	-8.645086
29	0xc3194061	-153.25148
30	0xc315ed16	-149.92612
31	0xc2954350	-74.63147

layer2.1.running_var f4 [32]
0	0x46c7a6fa	25555.488
1	0x4583de6a	4219.802
2	0x4621cdef	10355.483
3	0x4671eaad	15482.669
4	0x44f31c3c	1944.8823
5	0x45254ff3	2644.9968
6	0x4528d982	2701.5942
7	0x45a6cb85	5337.44
8	0x453dc71d	3036.4446
9	0x458900b5	4384.0884
10	0x45841f33	4227.9
11	0x4643986f	12518.108
12	0x46785ba0	15894.906
13	0x46339a92	11494.643
14	0x456af843	3759.5164
15	0x4597d293	4858.322
16	0x45b80e72	5889.8057
17	0x45373d5a	2931.8345
18	0x4580cf48	4121.91
19	0x45fe952b	8146.646
20	0x45e763dd	7404.483
21	0x4648bb9d	12846.903
22	0x46842c1d	16918.057
23	0x45e3ddb6	7291.714
24	0x45803fc9	4103.973
25	0x45b52dee	5797.741
26	0x45e500f2	7328.118
27	0x45f7b7ea	7926.9893
28	0x45e53e06	7335.753
29	0x4555e573	3422.3406
30	0x45c4763e	6286.7803
31	0x4612c0c6	9392.193

layer3.0.weight f4 [64, 32, 3, 3]
0	0xbfafde53	-1.3739723
1	0x3f8126a6	1.008992
2	0xbf0072ab	-0.5017497
3	0xc02e218b	-2.7207973
4	0xc0485352	-3.1300855
5	0xc00624c5	-2.0959942
6	0xbfefe98f	-1.8743151
7	0xc0807795	-4.0145974
8	0xc0805728	-4.010639
9	0x3fdb1eda	1.711879
10	0x4035a04d	2.837909
11	0xbf804e67	-1.0023926
12	0x3ffa3b56	1.9549358
13	0x40a30cbc	5.0953045
14	0x40d7501a	6.728528
15	0x404b747f	3.1789854
16	0xc07e2fbe	-3.971664
17	0x413cf06a	11.808695
18	0xc012fe68	-2.2967777
19	0xc0c0d32d	-6.0257783
20	0xbec5e494	-0.38650954
21	0x40242f0c	2.5653715
22	0x4071881c	3.7739325
23	0x3fc2ee76	1.5229023
24	0x3f34fe39	0.70700413
25	0x40233939	2.5503676
26	0x40a602a3	5.187822
27	0xbfbc4529	-1.4708606
28	0x3e426e82	0.18987468
29	0xc051beee	-3.2772784
30	0x4023ac14	2.5573778
31	0xc0000e17	-2.00086
32	0xc04967f8	-3.1469707
33	0x4051f47d	3.2805474
34	0x3f60e33b	0.87846726
35	0xc0d88049	-6.76566
36	0x3f32ae1c	0.6979692
37	0x3f0647d8	0.52453375
38	0x3d0d56fb	0.03450678
39	0x3edbbc93	0.42917308
40	0x3fa6103c	1.2973704
41	0x3eba01e5	0.3632957
42	0xbff2252e	-1.8917596
43	0x3fc838b8	1.5642309
44	0x40574c02	3.3640141
45	0xc03a7bab	-2.913798
46	0x3f9881e2	1.1914637
47	0x3e5c0e0d	0.21489735
48	0xbf5ea771	-0.86974245
49	0xbf5c502e	-0.86059844
50	0x4005467e	2.0824275
51	0x3efb1f77	0.49047443
52	0x3d14479f	0.036201116
53	0xbf851b7f	-1.0399016
54	0x403a8e73	2.9149444
55	0x404cadc1	3.198105
56	0xbd99eb72	-0.07515611
57	0x3ef3f53d	0.4764804
58	0x3f842694	1.0324273
59	0x3fb819c7	1.4382867
60	0xbff6a03f	-1.9267653
61	0x3f206701	0.6265717
62	0x405100d3	3.2656753
63	0xc031f0d1	-2.7803233
64	0xbfbaf47e	-1.4605863
65	0x3f3e92db	0.74442834
66	0xc0604da7	-3.5047395
67	0x3efee61c	0.49784935
68	0x3f4d23be	0.80132663
69	0xc0511517	-3.2669122
70	0xc03d2baa	-2.95579
71	0xbdfbc731	-0.12293852
72	0x40ab53b4	5.3539677
73	0xbf439bdd	-0.76409703
74	0xc03c61da	-2.9434724
75	0x3fc088db	1.5041765
76	0x4067b52c	3.6204329
77	0xc004ac2f	-2.0730093
78	0xbfa9480c	-1.3225112
79	0xbf921974	-1.1414018
80	0x40858c00	4.17334
81	0x3fdd16ec	1.727262
82	0xbf59f985	-0.8514636
83	0x3fa23a2e	1.2674005
84	0x406b335d	3.67501
85	0x3f8ae66d	1.085157
86	0xbf6fb8e1	-0.9364148
87	0x3ee6e3cf	0.4509568
88	0x3fe2bf2b	1.771459
89	0x3ea096a7	0.3136494
90	0xbed738bb	-0.4203547
91	0xbf069829	-0.5257593
92	0x401b60c6	2.4277816
93	0xbdcb692f	-0.099321716
94	0xbf9408c9	-1.1565181
95	0xc009c93d	-2.1529076
96	0xbe9163a0	-0.2839632
97	0x3f55bbb6	0.8348955
98	0xc022a866	-2.5415282
99	0xc07c8b62	-3.9460073
100	0xbf38d3ae	-0.72198
101	0x40419c68	3.0251713
102	0xbffb272c	-1.9621329
103	0xc06c5b32	-3.6930661
104	0x3e99cebe	0.30040544
105	0xbf14422b	-0.57913464
106	0x3d84193a	0.06450124
107	0xbf7b3a34	-0.98135686
108	0xc0108107	-2.2578752
109	0xbf11955a	-0.5686852
110	0x3f9cc951	1.2248937
111	0x3e9b9724	0.3038875
112	0x3f8ae49a	1.0851014
113	0x40aa4283	5.320619
114	0xbfc8d2fc	-1.5689387
115	0xbee7ab78	-0.45248008
116	0xbf8a21c4	-1.0791554
117	0xbf6b45ac	-0.91903186
118	0xbfa7d9d4	-1.3113351
119	0x3f774b50	0.9659929
120	0xc001d400	-2.0285645
121	0xc014ee75	-2.3270543
122	0xbf38d3d4	-0.72198224
123	0xc07b0597	-3.9222162
124	0xc05eb825	-3.4799893
125	0xbff4bd5e	-1.912029
126	0xbf00fc73	-0.50385207
127	0x3dcce032	0.10003699
128	0x402bfa7e	2.6871638
129	0xbe100821	-0.14065601
130	0x3e9c7a56	0.30562085
131	0x40a5026d	5.156546
132	0x3fec9a33	1.8484558
133	0xc0b3a325	-5.613665
134	0x4000c718	2.0121517
135	0xbee70553	-0.4512125
136	0x3e3bc0a4	0.18335205
137	0x3fbce481	1.4757234
138	0xc01623ce	-2.3459353
139	0x3fbc2486	1.4698646
140	0x40199039	2.3994277
141	0xbf9608b3	-1.1721405
142	0xbfdd88a4	-1.7307324
143	0x3f260a4d	0.6485947
144	0x3f9fb0c6	1.2475822
145	0x400968e2	2.1470265
146	0xbf80587a	-1.0027001
147	0x40025fab	2.037089
148	0x4063000c	3.5468779
149	0xbf55b961	-0.8348599
150	0x3f1e9c05	0.61956817
151	0x40bdedec	5.935293
152	0x3f032889	0.51233727
153	0xc024cc4f	-2.57497
154	0xc0090140	-2.1407013
155	0xc00958ce	-2.1460452
156	0x3f911870	1.1335583
157	0x3ef2dc31	0.47433618
158	0xc084fd7d	-4.1559434
159	0x3e2d802e	0.16943428
160	0x4090eb0f	4.5286937
161	0x3f47d3ac	0.7805736
162	0xc02c6346	-2.6935592
163	0x4002dc9b	2.0447147
164	0xbfb6acf9	-1.4271537
165	0x3fe2f831	1.7731992
166	0x3f5a183b	0.8519322
167	0x4049edf7	3.1551492
168	0x3e10ef89	0.14153875
169	0x3f8a3f3e	1.080055
170	0x3f785095	0.9699796
171	0x3f3fce83	0.74924487
172	0x3f945795	1.1589228
173	0x3fa0e2aa	1.2569172
174	0x3fac720a	1.3472302
175	0x40183742	2.3783727
176	0xc0220ce9	-2.532038
177	0x3f5624e0	0.83650017
178	0x3ff0d00b	1.881349
179	0xbdc6e08f	-0.097108
180	0xbf2837d2	-0.65710175
181	0xbf1dce1f	-0.6164264
182	0xbe62edf4	-0.22161084
183	0x3b9572fb	0.004560826
184	0x3fc44fbe	1.5336835
185	0x403596a8	2.8373203
186	0x3f8fb325	1.1226546
187	0x3f010832	0.5040313
188	0x3f4d922d	0.8030117
189	0xbe3edb2b	-0.18638293
190	0x3f64daec	0.8939655
191	0x3fbc0e5f	1.4691886
192	0xbfbb8be1	-1.4652063
193	0xbde8a35d	-0.11359284
194	0xbcb5c598	-0.022188947
195	0xbf84689b	-1.0344423
196	0x3eeeca5e	0.4663877
197	0xbf153743	-0.5828745
198	0xc069ed11	-3.6550944
199	0xc08fdc67	-4.4956546
200	0xc0903dc1	-4.5075383
201	0xbfc1f01e	-1.5151403
202	0xc0b91ef8	-5.7850304
203	0xc09a48e0	-4.821396
204	0x3d6f5f70	0.058440626
205	0xc09a99fd	-4.8312974
206	0xbff94fd2	-1.9477484
207	0x3ee509f8	0.44734168
208	0xc009a265	-2.1505368
209	0xbfa5350d	-1.2906815
210	0x400a033e	2.156448
211	0xbfd16003	-1.6357425
212	0xbfa72f56	-1.3061321
213	0xbfb1386c	-1.3845344
214	0x4049d323	3.1535118
215	0xbf8df775	-1.1091143
216	0x3ff09de6	1.8798187
217	0x4040d3da	3.0129304
218	0x3fbfd4d4	1.4986825
219	0xc004b14e	-2.0733218
220	0x3fb90d25	1.4457136
221	0xc0139b72	-2.3063626
222	0xc035f10c	-2.8428373
223	0xbf778430	-0.9668608
224	0xbf7e2b95	-0.9928525
225	0xbfc5fcea	-1.5467808
226	0xc0242d93	-2.5652816
227	0xbf7b70c7	-0.9821896
228	0xbfeea124	-1.8642926
229	0xc0937e2a	-4.609151
230	0xbf9a41f2	-1.2051375
231	0xc02a51e3	-2.661248
232	0xbfac6fdd	-1.3471638
233	0xc04fa4a1	-3.2444232
234	0xbfb6b6f1	-1.4274579
235	0x3ec80ddd	0.39073077
236	0x4060b517	3.5110528
237	0x400242c5	2.0353253
238	0xbf9c4fe6	-1.2211883
239	0x40086bcf	2.13158
240	0xbfd227a9	-1.6418353
241	0xc059cb40	-3.4030304
242	0xc087cbb5	-4.2436166
243	0x40110cbb	2.266402
244	0xbf4175ad	-0.75570184
245	0x3e783ac0	0.24241161
246	0x3fcfd9c6	1.6238334
247	0x3f9cae23	1.2240642
248	0x3f7db155	0.9909871
249	0x3e4fad9e	0.20281073
250	0x3fea9c02	1.832886
251	0x404b1810	3.1733437
252	0x3f07ec31	0.53094774
253	0x40364a3f	2.8482816
254	0x4004f20c	2.0772734
255	0xbfaf4c67	-1.3695191

layer3.0.bias f4 [64]
0	0xbd831828	-0.06401092
1	0xbdec52eb	-0.11539253
2	0xbd06d9f7	-0.03292271
3	0xbdd256d7	-0.1027047
4	0xbd62b387	-0.055346992
5	0xbd852e8e	-0.0650302
6	0x3e1f69ed	0.15567751
7	0x3cb8a312	0.022538695
8	0xbcac461c	-0.021029525
9	0x3d750090	0.05981499
10	0x3dcc7f4e	0.09985219
11	0xbdab5e32	-0.08367576
12	0x3e22adc8	0.15886605
13	0xbbc4a0cb	-0.0060006133
14	0x3dd2c8c5	0.102922
15	0x3d972a2c	0.073810905
16	0xbe00484f	-0.12527584
17	0x3d451287	0.048113372
18	0xbe627f5a	-0.22118893
19	0xbca2a1c7	-0.019852532
20	0x3d08f67f	0.033438202
21	0xbc8bb1db	-0.017052582
22	0xbccc4428	-0.024934843
23	0xbe0483c4	-0.1294089
24	0x3e675b30	0.22593379
25	0x3e331d86	0.17491731
26	0x3d580dd3	0.05274756
27	0x3da117f1	0.078658946
28	0xbe113f40	-0.14184284
29	0x3cdd2373	0.026994443
30	0xbe3e8871	-0.18606736
31	0xbdd342d7	-0.10315483
32	0xbd45274f	-0.04813319
33	0xbe44eb99	-0.19230498
34	0x3e3c7ac2	0.18406203
35	0x3df51f7e	0.11968897
36	0x3c868bad	0.016424024
37	0x3d4fac5b	0.05070148
38	0xbe26a081	-0.16272165
39	0xbd2117e4	-0.039329425
40	0xbd4016db	-0.046896797
41	0x3d829395	0.06375805
42	0x3d494d54	0.04914601
43	0x3c70a207	0.014687068
44	0xbdad551e	-0.084635004
45	0xbe00cfad	-0.12579222
46	0xbc089c3d	-0.008338031
47	0xbd30552e	-0.043049984
48	0xbda04f28	-0.07827598
49	0x3e16c8df	0.14725064
50	0xbde4c286	-0.11169915
51	0xbd5635cc	-0.0522974
52	0xbde3835c	-0.11109039
53	0xbec7de3e	-0.39036745
54	0x3d5839e7	0.052789595
55	0x3db79b2a	0.08965142
56	0xbd8f1276	-0.06985943
57	0x3ddbb83b	0.107284985
58	0xbc2b75f1	-0.010465131
59	0x3d07dd48	0.033170015
60	0x3d88bf1d	0.06677077
61	0xbe044af1	-0.12919213
62	0x3d901a56	0.07036273
63	0xbcb080f4	-0.021545865

layer3.1.weight f4 [64]
0	0x400e8846	2.2270675
1	0x402066bf	2.5062711
2	0x400e7b94	2.2262926
3	0x406e14a8	3.7200108
4	0x40566146	3.349687
5	0x40147ae4	2.3200006
6	0x40438cbf	3.0554655
7	0x4067c5df	3.621452
8	0x40263792	2.5971417
9	0x403e5363	2.9738395
10	0x406c7fcd	3.6953003
11	0x40103e63	2.2538078
12	0x3ffa516c	1.9556098
13	0x400cd57e	2.2005305
14	0x40863f8f	4.1952586
15	0x401fcdd7	2.4969385
16	0x401e176c	2.4701796
17	0x4033bc64	2.8083735
18	0x4013660a	2.303103
19	0x40518e43	3.274308
20	0x400c3682	2.190827
21	0x400d6e1e	2.209846
22	0x406af150	3.6709785
23	0x404a15d9	3.1575835
24	0x4010aa5f	2.2603986
25	0x400708d8	2.1099148
26	0x404d18a9	3.2046301
27	0x4022029f	2.53141
28	0x40259a19	2.5875304
29	0x40749d1b	3.822089
30	0x401b6efe	2.4286494
31	0x4045157f	3.079437
32	0x4010f0cb	2.2646968
33	0x404e7fd4	3.226552
34	0x406cde75	3.7010777
35	0x402aa9aa	2.6666055
36	0x401f8be8	2.4929142
37	0x4050b334	3.2609377
38	0x4050e7da	3.264151
39	0x4024dfb8	2.5761547
40	0x3ff85a73	1.9402603
41	0x405ea978	3.4790936
42	0x4070ab31	3.7604487
43	0x4014569b	2.317786
44	0x40281c13	2.6267135
45	0x4058a213	3.3848922
46	0x4023e8e3	2.5610893
47	0x4034267c	2.814849
48	0x3ff5c368	1.9200258
49	0x401797ea	2.368647
50	0x403ef62d	2.9837754
51	0x400db0a2	2.2139058
52	0x405992f4	3.3995943
53	0x4017774b	2.366656
54	0x401c0c9a	2.4382691
55	0x4065afa0	3.5888443
56	0x4091f626	4.5612974
57	0x404ea104	3.2285776
58	0x3ff19bf2	1.8875716
59	0x40956f5e	4.6698446
60	0x408247fa	4.071286
61	0x400c9232	2.196423
62	0x401ff231	2.4991572
63	0x403c7571	2.944668

layer3.1.bias f4 [64]
0	0xbfa2cae0	-1.2718163
1	0xc047340a	-3.1125512
2	0xc05fdf70	-3.4980125
3	0xc0256740	-2.5844269
4	0xbfe664a8	-1.7999468
5	0xc048cd39	-3.1375258
6	0xc02e6588	-2.724947
7	0xc03899a9	-2.8843787
8	0xc0321412	-2.782475
9	0xbf33c53d	-0.70222837
10	0xc0413c87	-3.0193193
11	0xbfce4cc2	-1.6117175
12	0xc0043f0c	-2.066348
13	0xbff35342	-1.9009783
14	0xbff06661	-1.8781244
15	0x3ed43827	0.4144909
16	0xc05ad0ab	-3.418986
17	0xbfd2c11d	-1.6465183
18	0xc0030de8	-2.0477238
19	0xc010b288	-2.2608967
20	0xbf490123	-0.7851736
21	0xc0046208	-2.0684834
22	0xc02ed446	-2.7317061
23	0xc01f34a5	-2.4875882
24	0xc06631f4	-3.596799
25	0xc0080534	-2.1253176
26	0xc0159d32	-2.3377194
27	0xbf95c149	-1.1699611
28	0xbfc81172	-1.5630324
29	0xc018401a	-2.3789124
30	0xbfa39ce8	-1.2782259
31	0xc0112f0c	-2.2684965
32	0xbfba7fdb	-1.4570268
33	0xc02d3680	-2.7064514
34	0xc00b2f22	-2.1747518
35	0xc0391d8a	-2.892428
36	0xc002be95	-2.0428822
37	0xc0470586	-3.1097121
38	0xc086ca15	-4.212168
39	0xbfbd3c02	-1.4783938
40	0xc04d3d3c	-3.2068624
41	0xbfb46084	-1.4091954
42	0xc0284a40	-2.6295319
43	0xbfb23618	-1.3922758
44	0xbec20471	-0.37894014
45	0xc0289051	-2.6338084
46	0xc0903b60	-4.507248
47	0xc08ec6e3	-4.461778
48	0xbf853622	-1.0407145
49	0xc011e21b	-2.2794254
50	0xbfb4e77e	-1.4133146
51	0xc001e145	-2.0293744
52	0xc059fb86	-3.4059768
53	0xbfd8676f	-1.6906565
54	0xc00aee93	-2.1708114
55	0xbfd618be	-1.6726301
56	0xc02647d3	-2.5981338
57	0xbf630201	-0.8867493
58	0xbe8427d2	-0.2581163
59	0xc02058e5	-2.5054257
60	0xc011fd7d	-2.2810967
61	0xbf761869	-0.96130997
62	0xc06522e8	-3.5802555
63	0xc0831491	-4.0962605

layer3.1.running_mean f4 [64]
0	0xc2c04940	-96.14307
1	0xc2fbd4a7	-125.91534
2	0x3fad2c88	1.3529215
3	0xc2eb66a5	-117.70048
4	0xc33053eb	-176.3278
5	0x40340e4b	2.8133724
6	0xc30d2c8c	-141.17401
7	0xc2fc3431	-126.10194
8	0xc289b36a	-68.85042
9	0xc05fbecd	-3.4960206
10	0xc283952e	-65.79137
11	0xc294727a	-74.22359
12	0xc24bfe4a	-50.99833
13	0xc2d6edb2	-107.46425
14	0xc24c7476	-51.11373
15	0xc2a5a637	-82.82464
16	0xc27bdf17	-62.96786
17	0xc2b542f5	-90.630775
18	0xc2b50728	-90.51398
19	0xc293dc92	-73.9308
20	0xc28a09b0	-69.01892
21	0xc235fb81	-45.49561
22	0xc3197f2a	-153.49673
23	0xc314955a	-148.5834
24	0xc2ee1e44	-119.05911
25	0xc23b103a	-46.765846
26	0xc28c4c7a	-70.14937
27	0xc30222a8	-130.13538
28	0xc325da15	-165.85188
29	0xc2fb2d78	-125.588806
30	0xc2e3b771	-113.858284
31	0xc2a1695f	-80.7058
32	0xc278fbd4	-62.245926
33	0xc3065cd8	-134.36267
34	0xc201e363	-32.472057
35	0xc29adca9	-77.43098
36	0xc2a479ba	-82.23775
37	0xc281d17d	-64.90916
38	0xc2c3ee41	-97.96534
39	0xc2abd1a1	-85.90943
40	0xc29b5afa	-77.67769
41	0xc2571f47	-53.780544
42	0xc23e4ae7	-47.573147
43	0xc28c60ee	-70.189316
44	0xc2546d0b	-53.106487
45	0xc23bd8f0	-46.961853
46	0xc27348c1	-60.82105
47	0xc22b5f50	-42.84308
48	0x42b7e99e	91.95628
49	0xc204c287	-33.18997
50	0xc2b2f190	-89.4718
51	0xc24baff8	-50.921844
52	0xc2909744	-72.29544
53	0xc22c24e4	-43.036026
54	0xc27cd5a4	-63.208633
55	0xc2b609b6	-91.01897
56	0xc2e5e6ff	-114.951164
57	0xc18db9d5	-17.715738
58	0xc0d96978	-6.7941246
59	0xc2cace63	-101.4031
60	0xc2cfd20a	-103.91023
61	0xc242c2e1	-48.69031
62	0xc1ab6a24	-21.426826
63	0xc2648767	-57.13223

layer3.1.running_var f4 [64]
0	0x4602151e	8325.279
1	0x460315cf	8389.452
2	0x4620368e	10253.639
3	0x46ebdd03	30190.506
4	0x46d101a6	26752.824
5	0x46278fa0	10723.906
6	0x46930bbf	18821.873
7	0x46866845	17204.135
8	0x466d8471	15201.11
9	0x47027abb	33402.73
10	0x46a2913e	20808.621
11	0x46a4415b	21024.678
12	0x462bcfd1	10995.954
13	0x463662e4	11672.723
14	0x471dee3b	40430.23
15	0x46ff05eb	32642.959
16	0x463f0cb0	12227.172
17	0x46b1c5f8	22754.984
18	0x46a9c1d1	21728.908
19	0x469a3674	19739.227
20	0x46558a38	13666.555
21	0x46731688	15557.633
22	0x46b43693	23067.287
23	0x46ce216b	26384.709
24	0x4608c8d8	8754.211
25	0x465a6332	13976.799
26	0x469f0cf8	20358.484
27	0x4666533b	14740.808
28	0x468ce41d	18034.057
29	0x46eb25e0	30098.938
30	0x46502b4f	13322.827
31	0x46c687f1	25411.97
32	0x46a46be2	21045.941
33	0x46d3db30	27117.594
34	0x47123fa6	37439.65
35	0x461e5af4	10134.738
36	0x46b7625a	23473.176
37	0x46db4f5b	28071.678
38	0x466295f9	14501.493
39	0x46a401f1	20992.97
40	0x45ae4390	5576.4453
41	0x46f3c043	31200.13
42	0x46b3585b	22956.178
43	0x461623b9	9608.931
44	0x46daec4b	28022.146
45	0x46c978e1	25788.44
46	0x45dd2c4f	7077.5386
47	0x4616687a	9626.119
48	0x46388db9	11811.431
49	0x4631c281	11376.626
50	0x46d5cae9	27365.455
51	0x4627e05f	10744.093
52	0x468c022d	17921.088
53	0x46610f4b	14403.823
54	0x467bd600	16117.5
55	0x46d7d315	27625.541
56	0x471c9ba6	40091.65
57	0x46a79e09	21455.018
58	0x4629992a	10854.291
59	0x46e8b9db	29788.928
60	0x47184581	38981.504
61	0x4699440f	19618.03
62	0x461f7627	10205.538
63	0x462ee291	11192.642

layer4.0.weight f4 [128, 64, 3, 3]
0	0x3e1e6910	0.15469766
1	0xbcc8cd5d	-0.024511987
2	0x3f2d1cb6	0.67621934
3	0xbe9248e3	-0.28571233
4	0xbf432aa6	-0.7623695
5	0x3eed9da4	0.46409333
6	0xbef8089a	-0.48444062
7	0xbebf4123	-0.37354383
8	0x3f60b131	0.8777037
9	0x3e2238d9	0.15841998
10	0xbe5dd728	-0.21664107
11	0x3e24225b	0.1602873
12	0xbf22745c	-0.634588
13	0xbf143950	-0.5789995
14	0xbe28e4f7	-0.16493593
15	0xbf13c83e	-0.5772742
16	0xbdd217f6	-0.102584764
17	0x3f2c273b	0.6724736
18	0x3f1cc330	0.6123533
19	0xbdc74711	-0.09730352
20	0x3ea52640	0.32255745
21	0x3e1b72ea	0.15180555
22	0xbf4231df	-0.7585735
23	0xbef33e62	-0.47508532
24	0xbef97190	-0.48719454
25	0xbf6934b9	-0.91096073
26	0x3f180835	0.5938752
27	0xbee84919	-0.4536827
28	0xbf15441b	-0.58307046
29	0xbe6d4496	-0.23170695
30	0x3eab4dd9	0.3345783
31	0xbec9c9c4	-0.39411747
32	0xbe615f84	-0.22009093
33	0x3f429a3f	0.7601661
34	0xbdad074d	-0.08448658
35	0xbebaa651	-0.36455014
36	0xbef8de9a	-0.48607332
37	0xbeaa64f7	-0.33280155
38	0x3ca0d5ab	0.019633135
39	0xbf2149a0	-0.6300297
40	0xbf2ff508	-0.68733263
41	0xbd8253b4	-0.06363621
42	0xbe3095a3	-0.17244582
43	0xbeee72b3	-0.46571884
44	0xbda4e51b	-0.08051511
45	0x3f1d32a3	0.6140539
46	0x3e9cad40	0.3060093
47	0x3e7c6b7e	0.2465038
48	0x3c90d571	0.017679902
49	0xbe9c1885	-0.30487457
50	0xbeb57b9f	-0.35445878
51	0xbeef38b9	-0.46722963
52	0xbee18421	-0.4404612
53	0x3f321e20	0.6957722
54	0xbe306366	-0.17225417
55	0xbd884b42	-0.06654979
56	0x3e802d97	0.25034782
57	0xbf11adc1	-0.5690575
58	0xbf1fe9d3	-0.6246616
59	0x3e2375ff	0.1596298
60	0xbf1aff91	-0.60546213
61	0x3d3cc83c	0.046089396
62	0x3f0f0cc6	0.55878866
63	0x3f0b4425	0.54400855
64	0x3ea4ab58	0.32161975
65	0xbec8a5e8	-0.39189076
66	0x3eca1ac6	0.39473552
67	0x3ecabd07	0.3959734
68	0x3eac1dac	0.33616388
69	0xbf3b0f1f	-0.7306995
70	0xbf4f6d20	-0.81025887
71	0xbe888fcc	-0.26672208
72	0x3e830444	0.25589192
73	0x3e4650f2	0.19366816
74	0xbf4b3308	-0.7937474
75	0xbf39a8df	-0.725233
76	0xbf1b374c	-0.6063125
77	0x3ea89ed6	0.32933682
78	0xbf13b3f2	-0.5769645
79	0xbe8b433e	-0.2719974
80	0x3f4af268	0.7927613
81	0x3e1bf8f3	0.15231685
82	0xbe8d7a2a	-0.27632266
83	0xbd6ab3e4	-0.057300463
84	0x3d1e8abf	0.038706537
85	0xbe8edbe0	-0.27902126
86	0xbed2cbf9	-0.41171244
87	0xbf29b615	-0.6629346
88	0x3d86b02c	0.06576571
89	0x3f058966	0.5216278
90	0x3ef57af6	0.47945374
91	0xbe7d9d07	-0.24766932
92	0xbf78883f	-0.97082895
93	0x3f141d1e	0.5785693
94	0x3e7c2883	0.24624829
95	0x3e4da07a	0.20080748
96	0xbf07c4fe	-0.5303496
97	0xbf3ff008	-0.74975634
98	0x3f112e63	0.56711406
99	0x3f0e547f	0.5559768
100	0x3f7fcace	0.9991883
101	0xbe6ddb66	-0.23228225
102	0x3ea9bada	0.3315037
103	0xbec5ed02	-0.38657385
104	0xbe97481e	-0.2954721
105	0xbebd37cd	-0.36956635
106	0xbf1e02e7	-0.6172318
107	0x3f14e75d	0.5816553
108	0x3ec56147	0.3855078
109	0x3eb771f9	0.35829142
110	0x3f2af77f	0.667839
111	0xbf049b23	-0.5179922
112	0xbf33b948	-0.7020459
113	0xbdb37f31	-0.08764494
114	0xbf4083f5	-0.7520135
115	0xbd557911	-0.05211741
116	0x3f443032	0.7663604
117	0x3e44f1a2	0.192328
118	0xbeba4766	-0.36382598
119	0x3f5a00c6	0.8515743
120	0xbd2d417f	-0.04229879
121	0xbf453c0c	-0.7704475
122	0x3e0eb1fd	0.13935085
123	0x3d836d65	0.0641735
124	0x3cafc497	0.021456046
125	0x3f415a05	0.75527984
126	0x3ed32a56	0.41243237
127	0x3f39c332	0.7256347
128	0xbf2a2dba	-0.66476023
129	0x3fd8df8e	1.6943223
130	0x3f673763	0.9031889
131	0xbe8c0027	-0.27343866
132	0x3df224c6	0.1182342
133	0xbedac557	-0.42728683
134	0xbef44436	-0.4770829
135	0xbf3b5112	-0.7317058
136	0xbebb45e6	-0.36576766
137	0xbf292cfe	-0.6608428
138	0x3dbe7f87	0.09301668
139	0x3f06ae2e	0.5260953
140	0x3e809e4d	0.25120774
141	0xbe010ea9	-0.12603249
142	0xbe04dfdc	-0.1297602
143	0xbe88fba5	-0.2675449
144	0x3ed558d9	0.41669348
145	0x3e9b14be	0.30289263
146	0xbe810323	-0.25197706
147	0xbeda42dd	-0.42629138
148	0xbe148699	-0.1450447
149	0x3e478349	0.19483675
150	0xbf5d3f5b	-0.864248
151	0xbe1bd874	-0.15219289
152	0x3f2ebf0d	0.6826027
153	0x3f119493	0.5686733
154	0x3ebe6111	0.3718343
155	0x3f3bb4e1	0.73322874
156	0x3f552172	0.8325416
157	0x3e6edcdf	0.23326443
158	0x3ccca14b	0.024979254
159	0xbd9750b4	-0.0738844
160	0xbf572d11	-0.8405314
161	0xbda218d0	-0.07914889
162	0x3ef16281	0.47145465
163	0xbe89f1a7	-0.2694218
164	0xbe592556	-0.21205649
165	0xbdd1525f	-0.10220789
166	0xbf51f328	-0.8201165
167	0xbe53c0e7	-0.20679055
168	0xbd152309	-0.036410365
169	0xbe484a68	-0.19559634
170	0x3f0c4f08	0.5480809
171	0xbea5dc54	-0.3239466
172	0x3eb96f28	0.36217618
173	0xbecf3471	-0.40469697
174	0x3e0d9801	0.13827516
175	0x3eac8a15	0.33699098
176	0xbe234214	-0.15943176
177	0x3e5c78e3	0.2153049
178	0xbf342ab8	-0.70377684
179	0xbe2db4fa	-0.16963568
180	0xbba3084f	-0.0049753557
181	0x3f340b81	0.70330054
182	0x3f70e47d	0.94098645
183	0x3e04869c	0.12941974
184	0xbc89a9fa	-0.016804684
185	0xbe4e900a	-0.20172134
186	0xbeff1477	-0.498203
187	0xbf447412	-0.7673961
188	0xbda4946b	-0.08036121
189	0x3ef7e015	0.4841315
190	0xbe148af9	-0.14506139
191	0x3e97f6b3	0.29680404
192	0xbeba9578	-0.3644216
193	0xbe598d94	-0.21245414
194	0x3e0e6a82	0.13907817
195	0xbf09865d	-0.5372065
196	0xbeb9c67a	-0.36284238
197	0x3f26b812	0.6512462
198	0x3d52ff95	0.051513273
199	0x3f3a8d56	0.7287191
200	0xbd4f580a	-0.05062107
201	0x3dee927c	0.116490334
202	0xbcefef17	-0.029288812
203	0x3d213cf8	0.039364785
204	0xbee743e0	-0.45168972
205	0x3e2c0acb	0.16800992
206	0x3dcc7349	0.099829264
207	0x3f05e144	0.52296853
208	0xbd8e79e3	-0.06956842
209	0xbe711f48	-0.23547089
210	0xbe6bc2d2	-0.23023537
211	0xbf4e00e0	-0.80470085
212	0xbd9ceb43	-0.0766206
213	0xbea27e43	-0.31736955
214	0xbf3cedd5	-0.738004
215	0xbf04fd75	-0.51949245
216	0xbdfcf8c5	-0.123521365
217	0x3df95cff	0.12175941
218	0x3ec031fc	0.37538135
219	0x3e0bc129	0.13647904
220	0xbf205b39	-0.62639195
221	0x3ee845cb	0.45365748
222	0xbf2351f3	-0.6379692
223	0xbef33308	-0.4749987
224	0x3f432e3a	0.7624241
225	0x3ebd580e	0.36981243
226	0x3ef0e312	0.4704824
227	0x3e97da7b	0.29658875
228	0x3ecc8558	0.39945483
229	0xbdb2b432	-0.08725776
230	0x3e95b190	0.29237032
231	0xbf21055f	-0.6289882
232	0xbed8f135	-0.42371526
233	0x3f664204	0.8994448
234	0x3f1f21ae	0.62160766
235	0x3d57113e	0.052506678
236	0xbe4d50ed	-0.20050402
237	0xbe27cec9	-0.16387476
238	0x3f3e0cc5	0.74238235
239	0x3e821742	0.2540837
240	0xbe28ebc9	-0.16496195
241	0xbdfaaaa8	-0.12239581
242	0xbe973cf8	-0.29538703
243	0x3f579454	0.84210706
244	0x3dba3de4	0.09093836
245	0xbeedfd17	-0.46482155
246	0xbea00bcb	-0.31258997
247	0xbf4eafe2	-0.80737126
248	0xbe94b43b	-0.29043755
249	0xbf1762e9	-0.591353
250	0xbf54f2e9	-0.8318315
251	0x3f03098b	0.51186436
252	0x3f2405e5	0.64071494
253	0x3eab2729	0.33428314
254	0x3ede9afd	0.43477622
255	0xbf17356d	-0.59065896

layer4.0.bias f4 [128]
0	0x3cdbf8a9	0.026851969
1	0xbca21789	-0.019786613
2	0xbd9fbf1c	-0.07800123
3	0xbdd5073b	-0.1040177
4	0x3d1f0a41	0.03882814
5	0x3d32e4af	0.04367512
6	0xbce97f31	-0.028503032
7	0xbc32fd75	-0.010924687
8	0x3c9368bb	0.017994275
9	0xbbde2de5	-0.0067803734
10	0xbd1e9fe4	-0.038726702
11	0x3e03b376	0.12861428
12	0x3b895253	0.004190722
13	0x3d8963e0	0.06708503
14	0xbd8487d1	-0.064712174
15	0x3b896bc3	0.0041937544
16	0xbc0eeb5e	-0.008723108
17	0x3d86363d	0.06553314
18	0xbbc1095c	-0.0058910083
19	0x3d7dea40	0.061990976
20	0xbd10d350	-0.035357773
21	0x3c9adfc9	0.018905537
22	0xbc549571	-0.012975083
23	0xbbf16dc2	-0.0073678205
24	0xbd59f165	-0.053208727
25	0x3ba69ddf	0.0050847377
26	0x3beab7ed	0.007163039
27	0x3c0b5df4	0.008506287
28	0x3cbf237a	0.023332346
29	0x3bc6d832	0.006068253
30	0xbba11603	-0.004915954
31	0xbd739e22	-0.05947698
32	0x3c999d43	0.018751746
33	0x3cbacda1	0.02280313
34	0xbc8fa1c4	-0.01753319
35	0x3beb956c	0.0071894433
36	0xbd59f057	-0.05320772
37	0x3d83e188	0.06439501
38	0x3d1b78a3	0.037956845
39	0xbd145c89	-0.03622106
40	0x3b6d3f95	0.0036201228
41	0xbd1f7a93	-0.038935255
42	0x3d57c228	0.052675396
43	0xbb04a89f	-0.0020242108
44	0x3da3bed0	0.07995379
45	0xbca49932	-0.02009258
46	0x3dae799e	0.085192904
47	0x3cf7667d	0.030200237
48	0xbcd68cf7	-0.026190264
49	0xbcfe0662	-0.031008903
50	0xbd95e651	-0.0731932
51	0x3b9f90d6	0.0048695607
52	0xbbc51640	-0.0060146153
53	0xbd2a09c7	-0.04151323
54	0xbd4eb66c	-0.05046694
55	0xbd1870a4	-0.037216797
56	0xbc12f06d	-0.008968455
57	0x3dbbebf6	0.09175865
58	0x3b7c59c0	0.0038505644
59	0x3d34c440	0.04413247
60	0x3d345bc9	0.044032846
61	0x3cd48d71	0.02594635
62	0x3d058657	0.03259882
63	0x3d77df2b	0.060515564
64	0xbbc9945d	-0.0061517195
65	0xbc8775f2	-0.016535733
66	0x3cc2868d	0.0237458
67	0xbc81a3b1	-0.015825124
68	0x3d63acae	0.055584602
69	0x3cda47fb	0.026645651
70	0x3c8f2cbf	0.017477391
71	0x3d27d1d8	0.040971607
72	0xbc82e5aa	-0.015978653
73	0x3dd38417	0.103279285
74	0xbcc6cdb0	-0.024268001
75	0xbc83de2f	-0.016097156
76	0x3bceb029	0.006307621
77	0xbcddf0e6	-0.027092408
78	0x3c471857	0.012151799
79	0xbb65da3a	-0.00350727
80	0x3cfcd756	0.030864399
81	0x3c11a181	0.008888603
82	0x3d0946f9	0.03351495
83	0x3c98aa66	0.01863594
84	0xbd614184	-0.05499412
85	0x3c51b7f4	0.0128002055
86	0xbc435707	-0.011922604
87	0xbdc648d4	-0.096818596
88	0x3cddb840	0.027065396
89	0x3c9cce04	0.019141205
90	0xbcaba4f7	-0.020952685
91	0x3ca6da72	0.020367835
92	0x3d258966	0.040414236
93	0xbd5307be	-0.051521055
94	0x3bf860e4	0.0075799096
95	0xbb4ae920	-0.0030961707
96	0xbbd69186	-0.0065481095
97	0xbdd27a08	-0.10277182
98	0x3c7acdc1	0.015307845
99	0x3cb9ac00	0.022665024
100	0x3d6fb520	0.058522344
101	0xbd7af3d3	-0.061267685
102	0x3bdb2f6f	0.006689004
103	0x3ca24d02	0.01981211
104	0x3d048ed0	0.03236276
105	0x3c0d501d	0.0086250575
106	0x3c4e3b60	0.012587398
107	0x3c48a23d	0.012245712
108	0x3c8fbe12	0.017546687
109	0xbd9a9043	-0.07547047
110	0xbb30da3f	-0.0026985554
111	0xbd9937bc	-0.074813336
112	0xbaaa519c	-0.0012994292
113	0x3cc31c55	0.02381722
114	0xbcdac4bd	-0.02670514
115	0x3c3fee25	0.011714493
116	0x3c67fe06	0.014159685
117	0x3d04fc4a	0.032467164
118	0x3cd2f07a	0.025749434
119	0xbd34639e	-0.044040315
120	0x3d8557e2	0.06510903
121	0x3cbbc3f7	0.022920592
122	0xbd0e943e	-0.034809344
123	0x3d860c51	0.06545318
124	0x3dd6d7f7	0.10490411
125	0x3da69e08	0.08135611
126	0xbd95c263	-0.07312467
127	0xbc8ca263	-0.017167276

layer4.1.weight f4 [128]
0	0x3e709517	0.23494373
1	0x3f3f1ef3	0.746566
2	0x3f8f338d	1.1187607
3	0x3f8d40b5	1.1035372
4	0x3f367b40	0.71281815
5	0x3f955f19	1.1669647
6	0x3f4b96f8	0.79527235
7	0x3f69b3ef	0.9129018
8	0x3f281523	0.6565725
9	0x3f73c1ac	0.95217395
10	0x3f5ab47a	0.85431635
11	0x3f41b9ff	0.7567443
12	0x3f24e27a	0.64408076
13	0x3f30c730	0.69053936
14	0x3f67eb3d	0.9059332
15	0x3f8c4353	1.0958046
16	0x3f9184d8	1.1368666
17	0x3f9e291c	1.2356296
18	0x3f7d6627	0.98984
19	0x3f669c80	0.9008255
20	0x3fa017bc	1.2507243
21	0x3f72da09	0.94863945
22	0x3f881d76	1.0633991
23	0x3f86f9ea	1.0545018
24	0x3f0f7540	0.56038284
25	0x3d8da4a1	0.06916166
26	0x3f6223f2	0.883361
27	0x3f809525	1.0045515
28	0x3f510396	0.81646097
29	0x3f40ddf0	0.7533865
30	0x3f3e5078	0.74341536
31	0x3f6e9224	0.9319174
32	0x3f4bd9c4	0.7962916
33	0x3f1cd6fb	0.61265534
34	0x3f88c62f	1.0685481
35	0x3f689aae	0.9086102
36	0x3f6e06c2	0.9297906
37	0x3f9cba73	1.22444
38	0x3f4a0b70	0.789237
39	0x3f4a6ee0	0.7907543
40	0x3f7366c9	0.9507871
41	0x3f912bed	1.134153
42	0x3f435423	0.7630026
43	0x3f7e1d2f	0.9926328
44	0x3f24d127	0.6438164
45	0x3f63ca78	0.8898082
46	0x3f812943	1.0090717
47	0x3f8c2f1e	1.0951879
48	0x3faa07c6	1.3283622
49	0x3f621f83	0.88329333
50	0x3fa3d4f1	1.279936
51	0x3f8b1dd4	1.0868478
52	0x3f386844	0.72034097
53	0x3f9b8b41	1.2151872
54	0x3f842a92	1.0325491
55	0x3f1e521b	0.61844033
56	0x3f62335e	0.8835963
57	0x3f86d578	1.0533895
58	0x3f935c21	1.151249
59	0x3f8861a5	1.0654799
60	0x3f8fa5d0	1.1222477
61	0x3f5cbf82	0.8622972
62	0x3eab6766	0.33477324
63	0x3f846365	1.0342833
64	0x3f75edc5	0.9606593
65	0x3f8b0e7c	1.0863795
66	0x3fa3d821	1.2800332
67	0x3f9d750a	1.2301342
68	0x3f81a9a0	1.012989
69	0x3f9436aa	1.1579182
70	0x3f139959	0.57655865
71	0x3f70dfed	0.94091684
72	0x3f6d729d	0.9275301
73	0x3f3544f5	0.70808345
74	0x3f3694c4	0.7132075
75	0x3f509aa7	0.8148598
76	0x3f4176bf	0.7557182
77	0x3f774099	0.96582943
78	0x3f6920a0	0.91065407
79	0x3eb8308c	0.35974538
80	0x3f80b948	1.0056543
81	0x3f360d50	0.71114063
82	0x3f608012	0.8769542
83	0x3f86e587	1.0538796
84	0x3f31c77e	0.69445026
85	0x3f7414f6	0.95344484
86	0x3f57915d	0.8420618
87	0x3f80ba50	1.0056858
88	0x3f88c266	1.0684326
89	0x3f43a774	0.7642739
90	0x3f5835c4	0.8445704
91	0x3f769a8a	0.9632956
92	0x3f5aa02b	0.85400647
93	0x3f4a6b90	0.7907038
94	0x3f4438d7	0.7664923
95	0x3f8edc8b	1.1161054
96	0x3f5be4e6	0.85896146
97	0x3f6435d7	0.89144653
98	0x3f0208fa	0.5079495
99	0x3f7c946a	0.9866396
100	0x3f69c45c	0.91315246
101	0x3f8fa078	1.1220846
102	0x3f6149f1	0.8800345
103	0x3f56efc8	0.8395963
104	0x3f567bc7	0.8378262
105	0x3f7ea2a9	0.9946695
106	0x3f694932	0.9112731
107	0x3f81d384	1.0142674
108	0x3f82e3ca	1.0225766
109	0x3f6892fc	0.9084928
110	0x3f72aa3b	0.94791
111	0x3f9a76c3	1.2067493
112	0x3f372b42	0.7155038
113	0x3f9fe360	1.2491264
114	0x3f86c106	1.0527656
115	0x3f32ba98	0.6981597
116	0x3fac5072	1.346205
117	0x3f8d92e7	1.1060456
118	0x3f8fde94	1.12398
119	0x3e79df4d	0.24401589
120	0x3e910782	0.2832604
121	0x3f174caf	0.59101385
122	0x3f29f4cc	0.66389155
123	0x3f907df5	1.1288439
124	0x3f79239f	0.9731998
125	0x3f64f4d0	0.89436054
126	0x3f7c9e3e	0.9867896
127	0x3f5cc8fa	0.86244166

layer4.1.bias f4 [128]
0	0xbf7d11d1	-0.9885531
1	0xbf0710cb	-0.5276
2	0xbf164257	-0.58694977
3	0xbf857ed6	-1.0429332
4	0xbebcbb43	-0.3686162
5	0xbf8fed99	-1.1244384
6	0xbfca808a	-1.5820477
7	0xbe83743d	-0.2567462
8	0xbf05fd14	-0.5233929
9	0xbf4b014a	-0.7929884
10	0xbf4c45b0	-0.79793835
11	0xbf890d83	-1.0707248
12	0xbe1d4d76	-0.1536158
13	0xbec4e814	-0.38458312
14	0xbef535a6	-0.47892493
15	0xbf8bbf61	-1.0917779
16	0xbe6c27f6	-0.23062119
17	0xbf628c73	-0.8849556
18	0xbe8245c5	-0.25443855
19	0xbe28fc4c	-0.16502494
20	0xbf7532b2	-0.9578048
21	0xbf00b210	-0.502717
22	0xbf95713a	-1.1675179
23	0xbf1a4be6	-0.6027206
24	0xbeaadd04	-0.33371747
25	0xbf1f18d8	-0.62147284
26	0xbef17f09	-0.47167233
27	0xbf88faf6	-1.0701587
28	0xbf2a715c	-0.6657922
29	0xbfa8f51e	-1.3199804
30	0xbf45ada7	-0.772181
31	0xbf3953e3	-0.72393626
32	0xbef9acaf	-0.4876456
33	0xbf139a72	-0.5765754
34	0xbf31e385	-0.6948779
35	0xbf2969f7	-0.66177315
36	0xbe9fc4ee	-0.31204933
37	0xbf71bcae	-0.9442853
38	0xbf13436a	-0.5752474
39	0xbeecaa7c	-0.4622382
40	0xbf7c92f5	-0.9866174
41	0xbec8380c	-0.3910526
42	0xbf811d89	-1.0087138
43	0xbf21124f	-0.6291856
44	0xbdbddce3	-0.092706464
45	0xbf5e4f28	-0.8683953
46	0xbf195959	-0.5990196
47	0xbf83321b	-1.0249666
48	0xbfa5550b	-1.2916578
49	0xbf655871	-0.89588076
50	0xbf84f9f5	-1.0388781
51	0xbf90f919	-1.1326019
52	0xbf19b195	-0.60036594
53	0xbfad624c	-1.3545623
54	0xbf4fa2cb	-0.8110778
55	0xbe78a750	-0.24282575
56	0xbf3304e8	-0.6992936
57	0xbf8ec863	-1.1154903
58	0xbf73a838	-0.95178556
59	0xbf7936fb	-0.9734952
60	0xbea32f31	-0.31871942
61	0xbe8bb98e	-0.27290004
62	0xbfd63a45	-1.6736532
63	0xbf46fd8a	-0.7773062
64	0xbf514448	-0.81744814
65	0xbefa5895	-0.48895708
66	0xbf82c96b	-1.0217718
67	0xbf959ee8	-1.1689119
68	0xbf645fc7	-0.89208645
69	0xbfb1da21	-1.3894693
70	0xbe851abc	-0.2599696
71	0xbf9bb349	-1.2164088
72	0xbf52bc42	-0.8231851
73	0xbeb77ee1	-0.35838988
74	0xbf46f6ec	-0.7772052
75	0xbf8fad1b	-1.1224703
76	0xbefe8ff2	-0.49719197
77	0xbf702cee	-0.9381856
78	0xbf7ead0e	-0.9948281
79	0xbf8759f9	-1.0574332
80	0xbe15d275	-0.14631064
81	0xbf395241	-0.72391135
82	0xbf2f1789	-0.68395287
83	0xbf89df76	-1.077132
84	0xbf6428a5	-0.8912452
85	0xbf8844d6	-1.0646007
86	0xbf163675	-0.58676845
87	0xbf7b0461	-0.98053557
88	0xbf005987	-0.5013661
89	0xbf1579ea	-0.5838915
90	0xbf785549	-0.97005135
91	0xbef96414	-0.48709166
92	0xbef1c538	-0.47220778
93	0xbed60585	-0.41801086
94	0xbf5dc322	-0.86625874
95	0xbf856c8c	-1.0423751
96	0xbf6211ec	-0.88308597
97	0xbf36dbdb	-0.7142922
98	0xbe9b0cba	-0.30283147
99	0xbf66c3cf	-0.9014253
100	0xbeb5c946	-0.35505122
101	0xbf8a7aee	-1.0818765
102	0xbf42f17e	-0.7614974
103	0xbf4a3ec1	-0.79002005
104	0xbf280712	-0.6563579
105	0xbdbbbf45	-0.09167341
106	0xbebe1e36	-0.37132424
107	0xbf84b640	-1.0368118
108	0xbf604362	-0.8760282
109	0xbf2bb47a	-0.6707226
110	0xbf3fb307	-0.7488255
111	0xbf51097a	-0.81655085
112	0xbd8d7ec1	-0.06908942
113	0xbfcbe1a2	-1.5928233
114	0xbf707879	-0.93933827
115	0xbce1b620	-0.027552664
116	0xbfb11ed5	-1.3837534
117	0xbd3ac244	-0.045595422
118	0xbf868344	-1.0508809
119	0xbfc24c81	-1.5179597
120	0xbf9275cb	-1.1442198
121	0xbf2a5662	-0.6653806
122	0x3db3e65b	0.08784171
123	0xbf8a3e00	-1.0800171
124	0xbf3daf99	-0.74096066
125	0xbf2027ea	-0.62560904
126	0xbf656d2a	-0.89619696
127	0xbe7dea98	-0.24796522

layer4.1.running_mean f4 [128]
0	0xc13367fa	-11.212885
1	0xc30bbb4d	-139.73164
2	0xc2dcce7c	-110.40329
3	0xc34bbb96	-203.73276
4	0xc30a4c40	-138.29785
5	0xc338de6d	-184.86885
6	0xc2b39b78	-89.80365
7	0xc304eb52	-132.91922
8	0xc2761e96	-61.52987
9	0xc3237627	-163.46153
10	0xc2d97124	-108.72098
11	0xc2a2f3a2	-81.475845
12	0xc2174d72	-37.82563
13	0xc2790552	-62.255196
14	0xc2b7bff8	-91.87494
15	0xc2eeaf25	-119.34208
16	0xc27e7ee6	-63.623924
17	0xc309e4a2	-137.8931
18	0xc2c5a9d6	-98.83171
19	0xc2966f9a	-75.21797
20	0xc3687268	-232.4469
21	0xc30e572c	-142.34052
22	0xc2e00779	-112.014595
23	0xc2e34852	-113.64125
24	0xc2fc6cfe	-126.212875
25	0x3faa4e10	1.3305073
26	0xc30f2cae	-143.17453
27	0xc2f0dcda	-120.43135
28	0xc2b7eef3	-91.9667
29	0xc2f15605	-120.66801
30	0xc2e201f7	-113.00384
31	0xc2ffc1b6	-127.87834
32	0xc2e6e1ed	-115.44126
33	0xc2b74fb1	-91.65565
34	0xc2d16a7e	-104.70799
35	0xc33a2b46	-186.16904
36	0xc2e5a14f	-114.815056
37	0xc3280f49	-168.05971
38	0xc312e6de	-146.90182
39	0xc22f9dfc	-43.90428
40	0xc303bc96	-131.73666
41	0xc30f2c33	-143.17265
42	0xc2b6790b	-91.23641
43	0xc3306542	-176.39554
44	0xc29f3564	-79.60428
45	0xc3388ef9	-184.55849
46	0xc31e771e	-158.4653
47	0xc2eb6e15	-117.715004
48	0xc338ee95	-184.93196
49	0xc3054128	-133.25452
50	0xc324437b	-164.2636
51	0xc3184be9	-152.29652
52	0xc26b0456	-58.754234
53	0xc314fd5a	-148.98965
54	0xc2c09865	-96.297646
55	0xc315e2d8	-149.88611
56	0xc3027ae5	-130.48006
57	0xc30e569b	-142.3383
58	0xc325618f	-165.38109
59	0xc32d9a28	-173.60217
60	0xc2e19fd0	-112.81213
61	0xc301c92d	-129.78584
62	0xc26fa822	-59.914192
63	0xc2ead5e3	-117.41775
64	0xc3292194	-169.13116
65	0xc32a6ba6	-170.4205
66	0xc3352b98	-181.17029
67	0xc360c0cc	-224.75311
68	0xc3310651	-177.02467
69	0xc30e519c	-142.31879
70	0xc287206e	-67.56334
71	0xc2b279a7	-89.2376
72	0xc320749a	-160.45547
73	0xc2a9ab6f	-84.83483
74	0xc2ec2ecc	-118.0914
75	0xc2bee823	-95.45339
76	0xc2563cf0	-53.55951
77	0xc33522d7	-181.1361
78	0xc2db2ea0	-109.591064
79	0x411caa35	9.791554
80	0xc2c73515	-99.603676
81	0xc2a2ac83	-81.33694
82	0xc2f6a1f6	-123.31633
83	0xc31b31ab	-155.19402
84	0xc1a0ea5d	-20.114435
85	0xc2e77ace	-115.73985
86	0xc31102f3	-145.01152
87	0xc2dbcd7d	-109.901344
88	0xc2fb1b0c	-125.552826
89	0xc3499154	-201.56769
90	0xc3548ac1	-212.542
91	0xc2ad8f2d	-86.77964
92	0xc231f992	-44.49372
93	0xc2fe1ed6	-127.06023
94	0xc31612f3	-150.07402
95	0xc2acbc96	-86.36833
96	0xc2e78878	-115.76654
97	0xc2a3b361	-81.85035
98	0x42587cd9	54.12192
99	0xc3192747	-153.15343
100	0xc2fd69e3	-126.70681
101	0xc3493ef5	-201.24593
102	0xc2bd4cc3	-94.649925
103	0xc2aeaf62	-87.342545
104	0xc3398508	-185.51965
105	0xc29da191	-78.81556
106	0xc281b7fe	-64.85936
107	0xc2cb28e4	-101.579865
108	0xc3417393	-193.45146
109	0xc2ef8170	-119.75281
110	0xc2fa19db	-125.0505
111	0xc301122b	-129.07097
112	0xc28845e7	-68.13653
113	0xc33811a6	-184.06894
114	0xc31e6c28	-158.42249
115	0xc2519997	-52.39999
116	0xc314d84b	-148.8449
117	0xc298a072	-76.31337
118	0xc33a7150	-186.44263
119	0xc299a7aa	-76.82747
120	0xc178eeb2	-15.558275
121	0xc2aaf816	-85.48454
122	0xc20df23f	-35.48657
123	0xc37c40d2	-252.2532
124	0xc2f3f6b6	-121.98186
125	0xc31ff77b	-159.96672
126	0xc2ff59cc	-127.675385
127	0xc1e7ffc6	-28.99989
