PyApp/onnx_model.onnx (onnx, 403810 bytes, 10 tensors)

FC.0.weight f4 [26, 128]
0	0xbea5f7a7	-0.32415506
1	0x3eb6c60e	0.3569798
2	0xbf616324	-0.880419
3	0xc00770de	-2.1162639
4	0xbef7f470	-0.4842868
5	0x3f34df92	0.7065364
6	0xc04694f6	-3.1028419
7	0xbfad68e6	-1.3547637
8	0xbf792fe3	-0.97338694
9	0xbfb63267	-1.4234132
10	0xbf9efe3f	-1.242134
11	0xbf8cdc1d	-1.1004673
12	0xc01d7b8b	-2.4606655
13	0xbfcd5c0e	-1.6043718
14	0xbf6f5b44	-0.93498635
15	0xbeebf2b4	-0.46083605
16	0xc01cc59e	-2.4495616
17	0xc01b63dc	-2.42797
18	0x3f1ef507	0.6209263
19	0x3f038905	0.5138095
20	0x3dee9f6b	0.116515
21	0xbd7686b8	-0.06018707
22	0xc0599487	-3.3996904
23	0xc027d5b8	-2.6224194
24	0x3eb0bc05	0.34518448
25	0xc00fce06	-2.2469497
26	0x3df4b4de	0.1194856
27	0xbec2dce0	-0.3805914
28	0x3f276f78	0.6540446
29	0xbcc98833	-0.024601078
30	0xc00bbb4a	-2.1833062
31	0xbe9ee007	-0.31030294
32	0x3f9a8f4a	1.2074978
33	0xc0628a92	-3.5397077
34	0xbfa66ec6	-1.3002555
35	0x3e0103eb	0.12599151
36	0x3e831a83	0.25606164
37	0xbfa0a6e8	-1.2550936
38	0xbfc0cc5c	-1.5062366
39	0x3eaa0f53	0.33214816
40	0xc04f6b46	-3.2409225
41	0xc0008853	-2.0083206
42	0xbd397ab0	-0.04528302
43	0x3f174477	0.59088844
44	0xbfc05b22	-1.5027812
45	0xc01d8b94	-2.4616442
46	0xbee10b30	-0.43953848
47	0xc01397ff	-2.306152
48	0x3f2a8deb	0.666228
49	0x3dba4451	0.090950616
50	0xbf9c3dba	-1.2206337
51	0xc02dbf09	-2.7147849
52	0x3f09bab5	0.5380052
53	0x3e5c0845	0.2148753
54	0x3fb5247e	1.4151762
55	0xbf3a6d30	-0.72822857
56	0x3d311b5b	0.04323898
57	0xbfe55a7a	-1.7918236
58	0xbec7ea47	-0.39045927
59	0xc01fe8d9	-2.498587
60	0xbd5c670a	-0.053809203
61	0x3f92437f	1.1426848
62	0xbf064ae9	-0.52458054
63	0x3e8c0adc	0.27352035
64	0xbda7210c	-0.081606
65	0x3d450361	0.048098926
66	0xc00b5d1b	-2.1775577
67	0x3d9b8bf3	0.075950526
68	0x3df979d5	0.12181441
69	0x3e5f4ab1	0.21805836
70	0x3e975e94	0.29564345
71	0xbe43eca7	-0.19133244
72	0xbf28881a	-0.65832675
73	0x3f1f0cc7	0.6212887
74	0xbfd5cf5d	-1.6703907
75	0x3e09b8ec	0.13449448
76	0xbeeee19e	-0.46656507
77	0xbfbb3795	-1.4626337
78	0x3e95e940	0.29279518
79	0x3f91352c	1.1344352
80	0x3fcbf022	1.5932658
81	0xbf26ded4	-0.6518376
82	0x3fa6e62a	1.303899
83	0xbff28ecb	-1.8949827
84	0x3f91be15	1.1386133
85	0x3f212258	0.6294303
86	0x3faab448	1.3336267
87	0xbff1a444	-1.8878255
88	0xbd47cc4d	-0.04877882
89	0xbff051a4	-1.8774915
90	0x3f23cf82	0.63988507
91	0xbff35136	-1.9009159
92	0x3d5a5af4	0.053309396
93	0xbf4a2cbc	-0.7897451
94	0x3e697e01	0.22801973
95	0x3e2d31c4	0.16913515
96	0x3f9982ec	1.1993079
97	0xbfc79a19	-1.5593902
98	0x3ecfd6d0	0.40593576
99	0xbfbb8a8d	-1.4651657
100	0xbfbf2356	-1.4932659
101	0xbeb3df80	-0.35131454
102	0x3bfb51ae	0.007669649
103	0x3fa2f45e	1.2730825
104	0xc003e050	-2.060566
105	0xbf04dab7	-0.5189623
106	0xc0059789	-2.087374
107	0xc0454960	-3.0826035
108	0x3fadb5a9	1.3571063
109	0xbe9fe52d	-0.31229535
110	0xbf15d728	-0.5853143
111	0x3f3a2c5d	0.72723943
112	0x3ef3782d	0.47552624
113	0x3f640adb	0.89079064
114	0x3c7a9bee	0.015295966
115	0x3edefd42	0.43552595
116	0xbe443589	-0.19161047
117	0x3faa6a6c	1.3313727
118	0xbf2fdaf6	-0.6869348
119	0xbed50608	-0.41606164
120	0x3ec9a48e	0.39383358
121	0xbf447ad6	-0.7674993
122	0x4000287c	2.002471
123	0xbef397f4	-0.4757687
124	0x3e9dae7d	0.30797186
125	0xc0178d9b	-2.368018
126	0xbfdf4532	-1.7442992
127	0x3d16c90e	0.036812834
128	0xbf833d5b	-1.0253099
129	0xbfa81240	-1.313057
130	0xbfc52780	-1.540268
131	0x3f74e52b	0.9566218
132	0x3d03d515	0.032185633
133	0xbfa974a8	-1.3238726
134	0xc01a83c9	-2.4142935
135	0xbfc236c3	-1.5172962
136	0xbfc45532	-1.53385
137	0xbfa70cef	-1.3050822
138	0x3f19e301	0.60112005
139	0xbf4a7489	-0.7908407
140	0xc0553f3f	-3.3319852
141	0xbf17ccd4	-0.5929692
142	0xbdeb9534	-0.115030676
143	0xbb5ace68	-0.0033387188
144	0x3f9f4568	1.2443056
145	0xbd8c3fca	-0.06848104
146	0x3d2f8f7a	0.04286144
147	0xbf94fafd	-1.1639096
148	0xc0116aa7	-2.2721345
149	0x3e527df5	0.20555861
150	0xc007bbaa	-2.120829
151	0xc01414b9	-2.3137648
152	0xbf84f1df	-1.0386313
153	0xbec59e08	-0.3859713
154	0xbf606585	-0.87654907
155	0xc0194494	-2.3948107
156	0xbebf9cb9	-0.37424257
157	0xbf1190c6	-0.5686153
158	0x3ecfbc4b	0.40573344
159	0x3fc628d8	1.5481215
160	0x3f9a07ac	1.2033591
161	0xc01105e7	-2.2659853
162	0xbf9401f7	-1.15631
163	0xbba4471a	-0.005013359
164	0x3eb093e3	0.3448783
165	0x3f89df55	1.077128
166	0xbf8ff906	-1.1247871
167	0xbf8a7b76	-1.0818927
168	0x3e82c914	0.25544035
169	0x3fb6e157	1.4287518
170	0x3e90b83f	0.2826557
171	0xc02adae3	-2.6696098
172	0xc0269784	-2.6029978
173	0xbfb29686	-1.3952186
174	0x3f6fbf79	0.9365154
175	0xbfe95c04	-1.8231206
176	0xbd642d57	-0.055707302
177	0x3e7e01b2	0.24805334
178	0xc0180ead	-2.3758957
179	0x3fb981f7	1.4492787
180	0xbef4a036	-0.4777848
181	0xbec7d1bc	-0.39027202
182	0xbfc14af2	-1.5100996
183	0xbf7930de	-0.9734019
184	0x3c95e0f6	0.018295746
185	0xbf083e75	-0.532203
186	0xc006e7f7	-2.107908
187	0xc00bbed4	-2.1835222
188	0x3fa74e00	1.3070679
189	0xbe1956b5	-0.14974482
190	0x3f10afc2	0.56518185
191	0xbf9c13fe	-1.2193601
192	0xbf63f7fa	-0.8905026
193	0xbfecac28	-1.8490038
194	0x3e045047	0.12921248
195	0xbf6b55b6	-0.9192766
196	0x3f376454	0.71637464
197	0x3e42b3d3	0.1901391
198	0x3ecd06e1	0.4004431
199	0xc04aaa12	-3.1666303
200	0xc01d4a7e	-2.4576716
201	0x3f0814b1	0.5315657
202	0xbeefc118	-0.46827006
203	0x3d956c7b	0.07296082
204	0xc01868b6	-2.381391
205	0x3dc2e5d8	0.095164955
206	0xbf5caf06	-0.86204565
207	0x3f7177cf	0.9432344
208	0xc07216bb	-3.7826374
209	0xbdd0b67b	-0.101910554
210	0xbeefdc80	-0.46847916
211	0x3fbfb7c7	1.4977959
212	0xc01bce1b	-2.4344547
213	0xbf0b1c5a	-0.54340136
214	0xbfc36cc0	-1.5267563
215	0xc03a0e94	-2.9071398
216	0xbe5009c4	-0.20316225
217	0xbfa0291c	-1.2512546
218	0xbf19e951	-0.6012164
219	0x3fa93aff	1.3221129
220	0x3efc3c3b	0.49264702
221	0xbe4aac49	-0.19792284
222	0xbf4708e7	-0.7774796
223	0xbfab5150	-1.338419
224	0x3e35c7af	0.17751954
225	0xbe4da7bf	-0.20083521
226	0xc014e056	-2.3261924
227	0xbcfe7407	-0.031061186
228	0xbf9c9a36	-1.2234561
229	0xbeac4546	-0.336466
230	0x3f026904	0.5094149
231	0xbf8b9546	-1.090493
232	0xc05307a2	-3.2973409
233	0xbf9ea211	-1.2393209
234	0x3e38d546	0.18050107
235	0xbf77047a	-0.96491206
236	0x3f15b70a	0.5848242
237	0x3ea6a435	0.32547155
238	0xc0189d99	-2.384619
239	0xbff1e939	-1.8899299
240	0x3d8e5a01	0.06950761
241	0x3f464630	0.7745085
242	0xc0185a76	-2.3805213
243	0xbf3e6db0	-0.7438612
244	0xbe819dc6	-0.25315684
245	0x3fc45174	1.5337358
246	0xbf3eb293	-0.7449123
247	0xbdbe5ddd	-0.09295247
248	0xbeb02cb1	-0.34409097
249	0xbf03ad76	-0.51436555
250	0xbfe866a1	-1.815632
251	0xbfedce23	-1.8578533
252	0x3ed97f36	0.42479867
253	0x3f31ca6d	0.694495
254	0xbfe31e10	-1.7743549
255	0xbe25d190	-0.16193223

FC.0.bias f4 [26]
0	0xbed30565	-0.41215053
1	0x3f891aba	1.0711281
2	0x3ed2970c	0.41130865
3	0x3f05cf37	0.5226931
4	0xbf2020de	-0.6255015
5	0xbef1ce4d	-0.47227708
6	0x3cb52d58	0.022116348
7	0x3fe171d4	1.7612863
8	0x3e5d497a	0.2161006
9	0xbe11fd3e	-0.1425676
10	0xbf169728	-0.58824396
11	0xbf1aa1fc	-0.6040342
12	0xbf605549	-0.87630135
13	0x3f10de33	0.5658905
14	0x3cb6482f	0.022251217
15	0xbefaf77d	-0.49016944
16	0xbf301e0a	-0.68795836
17	0xbeef4aca	-0.46736747
18	0xbcf7da8b	-0.030255577
19	0xbf655f18	-0.89598227
20	0x3f4527b7	0.77013725
21	0xbfc349d9	-1.5256912
22	0xbe8f5be6	-0.279998
23	0x3f01e717	0.5074324
24	0xbe85ad54	-0.261088
25	0x3e62f16f	0.22162412

55 f4 [16, 1, 3, 3]
0	0x40172471	2.3615992
1	0x3f2c6e5b	0.6735589
2	0xc01356a5	-2.3021634
3	0x40206bb9	2.5065749
4	0x3dc3b20d	0.09555445
5	0xc02af2dd	-2.6710732
6	0x4043354a	3.0501275
7	0xbf84cedf	-1.0375632
8	0xc039e193	-2.904393
9	0xbfc4ea01	-1.5383912
10	0xbf6f1d5b	-0.9340417
11	0x3fbfdb3c	1.498878
12	0xbf84bd5f	-1.0370291
13	0x3ea4e18b	0.32203326
14	0x4009f0c1	2.1553195
15	0x3f8d1dae	1.1024683
16	0x4000a953	2.0103347
17	0xbf401f88	-0.7504811
18	0x3ed5ad1c	0.41733634
19	0x3f1c7a50	0.61124134
20	0xbe644f3c	-0.2229585
21	0x3f6eee53	0.93332404
22	0x3f90b3d4	1.1304879
23	0x3f699c31	0.91253954
24	0x3f27ea97	0.6559233
25	0x3e8b4fff	0.2720947
26	0xbe2de975	-0.16983588
27	0xbf1b3683	-0.60630053
28	0xc016c2ed	-2.3556473
29	0xbf89ffa9	-1.0781146
30	0xbf70624f	-0.93900007
31	0xc040b893	-3.0112655
32	0xc006a152	-2.1035962
33	0x3fa77237	1.3081731
34	0xc047b5cc	-3.120471
35	0xc0481f06	-3.1268935
36	0xbf856dda	-1.0424149
37	0xc058d984	-3.388276
38	0xbfae5a89	-1.3621379
39	0xbf1e624f	-0.61868757
40	0xbf590d20	-0.8478565
41	0x3f21231d	0.62944204
42	0x406491d5	3.571401
43	0x4038fb4c	2.890338
44	0x3fc25e31	1.5184995
45	0xbee9bdd3	-0.45652637
46	0x3fe306f4	1.7736497
47	0x3dda70ec	0.106660694
48	0xc01ffa3b	-2.4996479
49	0x3f9fe132	1.2490599
50	0x400381ac	2.0547895
51	0xc08b7bdf	-4.358871
52	0x3dabd3e6	0.08390026
53	0x400cbd46	2.1990523
54	0x40aaaf62	5.333909
55	0x4067b497	3.6203973
56	0xc0984677	-4.7586017
57	0x3da41d32	0.08013381
58	0xc12019a3	-10.006259
59	0xc0090b51	-2.1413157
60	0xc0693655	-3.6439412
61	0xbe5f5568	-0.21809924
62	0x409de274	4.933893
63	0xbfa4bfa7	-1.2870988
64	0xbfea1831	-1.8288633
65	0x3fa246cf	1.2677859
66	0xc02df6ec	-2.718196
67	0xbf53c5e4	-0.8272383
68	0x402c9c9e	2.6970592
69	0xc0199050	-2.3994331
70	0xbf90e165	-1.1318785
71	0x3ff44e85	1.9086462
72	0x3f4bad27	0.79561085
73	0xbf179701	-0.5921479
74	0xc04adfae	-3.1699023
75	0xbf9d193c	-1.2273326
76	0x40da0105	6.8126245
77	0xbffcedaf	-1.9760035
78	0xc05e37b5	-3.47215
79	0x40a0890c	5.0167294
80	0xc05656b0	-3.349041
81	0x40511ed7	3.2675073
82	0x4079df94	3.9042711
83	0x405623d8	3.3459377
84	0xbe4c71a4	-0.19965225
85	0xbe83dc63	-0.2575408
86	0xbfec378e	-1.8454454
87	0xc08276c2	-4.076997
88	0xc06f3f18	-3.738226
89	0xbfc09610	-1.5045795
90	0xc07f4c06	-3.989015
91	0x408c2ba2	4.3803263
92	0x40a18f4b	5.048742
93	0xc07c0a53	-3.9381301
94	0xc12b4c9a	-10.706202
95	0xc0122463	-2.2834709
96	0x40c512b7	6.1585345
97	0xbeedcb3b	-0.46444115
98	0xc08f68ae	-4.4815283
99	0xbfdda654	-1.7316384
100	0xbdfa876a	-0.122328594
101	0x3f1ff250	0.62479115
102	0x3fa77c0c	1.3084731
103	0x4014d455	2.3254597
104	0xbfe74b0f	-1.8069781
105	0x3f3a4c06	0.7277225
106	0xbf5fb1c9	-0.87380654
107	0xc0010d67	-2.016443
108	0x3e8825ae	0.26591247
109	0x3f6c7d1d	0.9237841
110	0x40096f34	2.1474123
111	0xbf54ccbf	-0.8312492
112	0xbf85b335	-1.0445315
113	0x3fbbf171	1.4683057
114	0xbf96e8d2	-1.1789801
115	0xbfc43fd8	-1.5331984
116	0xbe6f4fae	-0.23370239
117	0xbedb9d18	-0.4289329
118	0xbe62c179	-0.22144116
119	0xbe9a242f	-0.3010573
120	0xbe3cc763	-0.18435435
121	0xbde96127	-0.113954835
122	0xbebf2ad2	-0.37337357
123	0xbddb9b94	-0.107230335
124	0xbebed02d	-0.372682
125	0xbee2ebb6	-0.44320458
126	0xbf9a5c18	-1.2059355
127	0xc037e665	-2.8734372
128	0xc01f90d2	-2.4932141
129	0x40006f1e	2.006782
130	0x401b8bbd	2.430404
131	0x3eb2cb7b	0.34920868
132	0x3e66f271	0.22553422
133	0x3f2472b4	0.64237523
134	0x3f9ee865	1.2414671
135	0x3eb05bbf	0.34444997
136	0xc07c5d9a	-3.943213
137	0xc05d96ca	-3.4623284
138	0xc08defdd	-4.43553
139	0xbf8bba5d	-1.0916249
140	0x3f3ad022	0.72973835
141	0xc05fa535	-3.4944584
142	0x3ff6da3a	1.9285347
143	0x4001f143	2.0303504

56 f4 [16]
0	0xbe14b830	-0.14523387
1	0xc01094a8	-2.2590733
2	0xc036e63e	-2.8578029
3	0x40607190	3.5069313
4	0xbf0907cf	-0.5352754
5	0xbec999ae	-0.3937506
6	0x3fc911a0	1.5708504
7	0x3f0af5b2	0.5428115
8	0xbeb7829d	-0.35841838
9	0x3f36822e	0.7129239
10	0x3f8da0ad	1.1064659
11	0x3ee1b40e	0.44082683
12	0x3eea85b9	0.45805147
13	0xbd1b8dd0	-0.03797704
14	0x3f04d73b	0.51890916
15	0x3fe5c71f	1.7951392

58 f4 [32, 16, 3, 3]
0	0x3cdb9059	0.026802229
1	0xbd932154	-0.07184091
2	0xbd36f528	-0.044667393
3	0xbc22aadc	-0.009928431
4	0xbd082ddf	-0.03324687
5	0xbccb061e	-0.02478319
6	0x3d5c6a90	0.053812563
7	0xbc98d884	-0.01865793
8	0xbcd74df1	-0.026282283
9	0xbcb84ea1	-0.02249843
10	0xbc905554	-0.017618813
11	0xbdce75c4	-0.10081056
12	0xba176a29	-0.0005776012
13	0xbdb15315	-0.08658425
14	0x3c6ac81e	0.014329938
15	0xbd69a153	-0.057038616
16	0xbdaff55d	-0.08591721
17	0x3d855fa8	0.065123856
18	0xbdbcb817	-0.092148
19	0xbd8c5cd7	-0.06853645
20	0xbc9735b6	-0.018458229
21	0xbc383ac4	-0.01124448
22	0xbd807253	-0.062718056
23	0xbdaa7a58	-0.083241165
24	0xbd7d0038	-0.061767787
25	0xbd343a8b	-0.044001143
26	0x3d1f2784	0.038856044
27	0x3df4cf36	0.11953585
28	0x3deffe42	0.11718418
29	0xbd026d3d	-0.03184246
30	0x3cdef438	0.027216062
31	0x3d27c275	0.040956933
32	0x3d8c809d	0.068604685
33	0x3d329076	0.0435948
34	0xbd82f122	-0.06393649
35	0xbcd12eab	-0.025534948
36	0xbd00eed3	-0.03147776
37	0xbdf58641	-0.119884975
38	0xbdeb3097	-0.11483877
39	0x3c433109	0.011913546
40	0x3d9de314	0.07709327
41	0x3db14335	0.08655397
42	0xbdd6cff7	-0.10488885
43	0xbd5edd2f	-0.054410156
44	0x3d3b3092	0.045700617
45	0xbd99086b	-0.07472309
46	0xbc5a16b5	-0.013311078
47	0x3dc22482	0.094796196
48	0x3d44d6ae	0.048056297
49	0xbc9a076a	-0.018802363
50	0x3ce996a3	0.028514212
51	0x3e0ed03b	0.13946621
52	0x3d806040	0.06268358
53	0x3cc10a62	0.023564521
54	0x3d8237c5	0.063582934
55	0xbdcb4e13	-0.09927001
56	0xbe133a64	-0.14377743
57	0x3e1d47db	0.15359442
58	0xbc7c75a3	-0.015408906
59	0xbda46700	-0.08027458
60	0x3db04e7a	0.08608718
61	0xbcaa880c	-0.020816825
62	0x3ccdf792	0.025142465
63	0xbd2ed006	-0.042678855
64	0x3d18c7a8	0.037299782
65	0x3dccbde0	0.09997153
66	0x3dcacd52	0.09902443
67	0xbdbc573a	-0.09196325
68	0x3d1b7959	0.037957523
69	0x3e5a5d55	0.21324666
70	0xbd35d846	-0.044395708
71	0xbcc0ee8e	-0.023551252
72	0xbd3ac6b1	-0.045599643
73	0x3ce45103	0.02787066
74	0x3d8d8250	0.06909621
75	0xbbef0f5a	-0.007295531
76	0x3db42384	0.087958366
77	0xbc7573e5	-0.014981245
78	0x3d2795af	0.040914234
79	0x3cd42031	0.025894256
80	0xbd71d137	-0.059037413
81	0x3bcf01a8	0.006317336
82	0xbd760d53	-0.0600713
83	0x3d1c78d7	0.03820118
84	0xbd8a3b59	-0.06749601
85	0xbd8cd2af	-0.06876122
86	0x3c4e39af	0.012586995
87	0x3c5c4e5b	0.013446416
88	0x3dfc65b9	0.123240896
89	0xbca5fc6a	-0.020261962
90	0xbd38f731	-0.045157615
91	0x3cac7ce3	0.021055644
92	0x3de3c8dc	0.11122295
93	0xbd02e1ee	-0.031953745
94	0x3e3bef63	0.18353038
95	0x3e30fad1	0.17283179
96	0x3dd0385b	0.10166999
97	0xbce27941	-0.027645709
98	0xbe0892ba	-0.13337222
99	0x3ccfddd1	0.025374325
100	0xbd0fbbfd	-0.03509139
101	0xbcde06f9	-0.027102934
102	0xbb893075	-0.0041866847
103	0xbc8bd3b4	-0.017068721
104	0xbd97ac3d	-0.07405899
105	0x3d3be593	0.045873236
106	0x3d822698	0.063550174
107	0x3da24d61	0.07924915
108	0xbe0e0a51	-0.13871123
109	0x3d1fd96c	0.03902571
110	0x3df9f331	0.12204588
111	0xbd6586a7	-0.056036618
112	0xbd5d0463	-0.05395926
113	0x3dbaaf3b	0.09115454
114	0x3e1a5466	0.15071258
115	0x3dbe8576	0.093027994
116	0xbd30461e	-0.04303562
117	0x3be7412b	0.007057329
118	0x3c7b042e	0.015320821
119	0xba57d348	-0.00082330825
120	0xb988618e	-0.00026012625
121	0xb9bfd25f	-0.00036587098
122	0x3bcd03da	0.0062565627
123	0x3c08aa9f	0.0083414605
124	0xbbef0922	-0.00729479
125	0x3c0025d6	0.007821521
126	0xbc4e03c3	-0.012574139
127	0xbdabca14	-0.08388153
128	0x3d3bc59e	0.04584276
129	0x3d9fa0d1	0.07794345
130	0x3d8ac2b1	0.06775416
131	0x3d08d207	0.033403423
132	0xbdd4ed39	-0.10396809
133	0x3c85010d	0.016235853
134	0x3d5cc556	0.05389913
135	0xbbc873c4	-0.006117316
136	0x3b9889a9	0.0046550822
137	0xbdab439f	-0.08362507
138	0x3e2065da	0.15663853
139	0x3d64a987	0.055825736
140	0x3c8540cc	0.01626625
141	0x3e18278d	0.14858837
142	0xbca089d6	-0.019596975
143	0x3d4cff67	0.05004826
144	0xbd614ebc	-0.055006728
145	0xbdc9967f	-0.09843158
146	0x3d5d48cc	0.054024503
147	0x3d2d53c9	0.042316232
148	0xbdb45bf9	-0.08806605
149	0xbdbe67fc	-0.09297177
150	0x3d7135a1	0.058889035
151	0xbd4981d3	-0.049196076
152	0xbcdfa22d	-0.027299011
153	0x3cb4a1eb	0.022049865
154	0xbd41a264	-0.04727401
155	0x3ce21660	0.02759856
156	0x3d0eb11b	0.03483687
157	0xbcd1376f	-0.025539128
158	0xbda176ea	-0.07884009
159	0xbb7d6bf0	-0.0038669072
160	0xbca185d1	-0.019717129
161	0xbd4b103c	-0.04957603
162	0x3dabcf65	0.08389167
163	0x3dba2640	0.09089327
164	0x3dfb3713	0.12266364
165	0x3daf47c3	0.08558609
166	0xbc978475	-0.018495778
167	0xbca04985	-0.019566307
168	0x3dec0397	0.11524122
169	0x3d9db7b1	0.07701052
170	0xbc15d90a	-0.009145984
171	0x3e2d7146	0.16937742
172	0x3d763e2d	0.06011789
173	0xbc92e76a	-0.017932612
174	0x3dcbc37a	0.099493936
175	0x3dfb4d5f	0.12270617
176	0x3df46686	0.11933617
177	0x3df64f15	0.120268025
178	0x3da4fe72	0.08056344
179	0x3e83f8be	0.25775713
180	0xbda0f02f	-0.078583114
181	0xbe288c40	-0.16459751
182	0xbc7b52ce	-0.015339566
183	0x3d435e20	0.047697186
184	0xbd902372	-0.07038011
185	0xbdbba881	-0.09162999
186	0x3d3a1492	0.045429774
187	0x3d1527bc	0.036414847
188	0x3d815144	0.06314328
189	0xbd150d8a	-0.036389865
190	0x3cba988f	0.022777824
191	0x3dc7bf6b	0.09753307
192	0xbe0d30db	-0.13788168
193	0xbde45777	-0.11149495
194	0x3d143eeb	0.036192816
195	0xbccfc509	-0.025362508
196	0x3a434ecb	0.0007450401
197	0xbd8527b5	-0.06501714
198	0xbb203f62	-0.0024451842
199	0xbd83e405	-0.06439976
200	0xbc2a99e9	-0.010412672
201	0xbc9418c7	-0.018078221
202	0xbdd49623	-0.10380199
203	0xbe04ba20	-0.12961626
204	0xbc7448f1	-0.014909969
205	0xbda6a712	-0.08137335
206	0xbb7abae9	-0.003825838
207	0x3d1fdc70	0.039028585
208	0xbc249d42	-0.010047259
209	0x3dd1ef0a	0.10250671
210	0xbd9c3f13	-0.07629218
211	0xbe0fe414	-0.14051849
212	0xbbe2a3d5	-0.006916503
213	0x3d1a45c7	0.0376642
214	0xbd3a25c1	-0.04544616
215	0xbc90a590	-0.017657071
216	0xbdbf152c	-0.0933021
217	0xbcbc52a0	-0.022988617
218	0x3c903988	0.017605558
219	0x3cd54316	0.026032966
220	0xbdffd665	-0.124920644
221	0xbd917f20	-0.07104325
222	0x3d0a0139	0.033692572
223	0x3d02c633	0.0319273
224	0xbddf836d	-0.10913739
225	0xbc4bebf3	-0.012446391
226	0x3ba86c0f	0.0051398347
227	0x3cfc04cf	0.030764012
228	0xbcd8731f	-0.026422082
229	0xbd1f5832	-0.03890247
230	0x3d97ad21	0.074060686
231	0xbd30c8d5	-0.04316028
232	0xbdd2c867	-0.1029213
233	0xbd341773	-0.043967675
234	0x3d2325b2	0.03983087
235	0xbc8a2817	-0.01686482
236	0xbd04ba46	-0.032404207
237	0x3d5d47ca	0.05402354
238	0xbdb23f3c	-0.08703467
239	0x3ddfb688	0.10923487
240	0x3ca7aebb	0.02046906
241	0xbc268d3a	-0.010165507
242	0x3e353080	0.17694283
243	0x3d2c87c4	0.042121664
244	0xbd7c52ff	-0.06160259
245	0x3c55572d	0.013021273
246	0x3cf7bf3f	0.03024256
247	0xbd9a6236	-0.075382635
248	0xbda086c8	-0.078382075
249	0x3cbb0ed4	0.022834219
250	0xbd3dfb7d	-0.046382416
251	0xbd53c8d0	-0.05170518
252	0x3d0ff551	0.03514606
253	0x3ca1b3c2	0.019739036
254	0x3db2da8f	0.08733093
255	0xbdcc0549	-0.099619456

59 f4 [32]
0	0xc04fbb89	-3.2458212
1	0xbfbe6e02	-1.4877322
2	0x3f8466a9	1.0343829
3	0x4017e088	2.3730793
4	0xbfc73ec0	-1.5566025
5	0x3f0c4e08	0.54806566
6	0xbf792114	-0.973161
7	0x3f9f0e78	1.242629
8	0x40168835	2.3520634
9	0xbf7c7e63	-0.9863035
10	0x40243300	2.5656128
11	0xbe1e3894	-0.1545127
12	0xbf651980	-0.89492035
13	0xbfdd0982	-1.7268527
14	0x3fdb9d20	1.7157326
15	0xbf8937d2	-1.072016
16	0x40a7f520	5.2486725
17	0xc0a7a12e	-5.2384253
18	0xbe9c24f0	-0.3049693
19	0x4021c022	2.5273519
20	0xbe8a532b	-0.27016577
21	0x40142607	2.314821
22	0xbf84bdd2	-1.0370429
23	0xbf99174d	-1.1960236
24	0x3f0f0a40	0.55875015
25	0x3f837874	1.0271134
26	0x3f19bf09	0.6005712
27	0x3fd2f8ca	1.6482174
28	0x3f870c3a	1.0550606
29	0x3f8eee94	1.1166558
30	0x3e701988	0.2344724
31	0x3f699eef	0.9125814

61 f4 [64, 32, 3, 3]
0	0xbccd2191	-0.02504042
1	0xbd7840b6	-0.06060859
2	0xbcc30361	-0.023805322
3	0x3d8a0134	0.06738511
4	0xbc61d4ed	-0.013783676
5	0x3d284d77	0.0410895
6	0xbd5a5dd6	-0.053312145
7	0x3cfb12ba	0.030648578
8	0xbd0ca734	-0.034339145
9	0xbd474d85	-0.048657913
10	0xbd7f552f	-0.062337097
11	0x3cfe46ab	0.031039556
12	0xbc8834f9	-0.016626822
13	0xbc9ad3e3	-0.018899864
14	0xba9ea08f	-0.0012102294
15	0x3c5b1dc7	0.013373799
16	0xbc010065	-0.007873629
17	0xbda682ca	-0.08130415
18	0xbd66b429	-0.056324158
19	0xbdc41f50	-0.09576285
20	0xbd16e60c	-0.036840484
21	0x3c09d721	0.008413107
22	0xbd2f4484	-0.04278995
23	0xbb88a0cb	-0.0041695586
24	0x3d0e3c8d	0.034725714
25	0x3dc016c3	0.093793415
26	0x3d210ce0	0.03931892
27	0xbc099778	-0.008397929
28	0xbc9748f4	-0.018467404
29	0xbdb52f89	-0.08846957
30	0x3d1c455b	0.03815208
31	0xbd8fc9e3	-0.07020929
32	0xbd4320fb	-0.047638875
33	0x3d93c89e	0.07215999
34	0xbc945b60	-0.018109977
35	0x3d1e8db2	0.03870935
36	0xba5a90fd	-0.0008337645
37	0x3d3fb481	0.046803
38	0xbc736baf	-0.014857217
39	0x3d04bd74	0.03240724
40	0x3c06d223	0.008228811
41	0xbd2b6bbe	-0.041850798
42	0x3bd16fb8	0.0063914917
43	0xbd56cf59	-0.052443836
44	0x3cb15408	0.021646515
45	0x3d7df29a	0.06199894
46	0xbd2e8535	-0.042607505
47	0xbd586073	-0.052826356
48	0x3ca6a27d	0.020341152
49	0xbc64e34b	-0.0139702065
50	0xbd287d32	-0.04113502
51	0x3a926e07	0.0011171707
52	0xbb44b115	-0.0030012776
53	0x3cb92a00	0.022603035
54	0xbc79adf9	-0.015239232
55	0x3d58c2bc	0.05292009
56	0x3cfc7ee3	0.030822223
57	0xbd5d30f8	-0.05400178
58	0xbd69f6f3	-0.057120275
59	0x3d2f46eb	0.042792242
60	0xbc62f4b6	-0.013852289
61	0x3b6bc99c	0.0035978323
62	0xbd8ba0cd	-0.0681778
63	0xbd07274f	-0.032996472
64	0xbd33380c	-0.043754622
65	0xbd2eecdd	-0.04270636
66	0xbd8c38e7	-0.06846791
67	0xbd4ec91f	-0.050484773
68	0xbd282844	-0.041054025
69	0x3d6a2127	0.057160523
70	0x3dc4a298	0.09601325
71	0x3b8a7b92	0.0042261565
72	0x3bc2bf2e	0.0059432006
73	0xbbbb7791	-0.0057210405
74	0xbcb2155f	-0.021738706
75	0x3d5b428b	0.053530257
76	0x3d0fa08c	0.03506522
77	0xbd82c9e6	-0.06386165
78	0xbd3e6283	-0.046480667
79	0x3c881dd5	0.016615788
80	0x3cbd5a32	0.023114298
81	0xbd6721e3	-0.0564288
82	0x3d264334	0.040591434
83	0xbc9a0a12	-0.01880363
84	0xbdd098ed	-0.10185418
85	0xbe026813	-0.12735014
86	0x3d32a468	0.04361382
87	0x3c1fd6fb	0.009755845
88	0xbbeb5dde	-0.0071828207
89	0xbdb6d833	-0.089279555
90	0xbd12676c	-0.035743162
91	0xbb2a6993	-0.0026002869
92	0x3c47e6a0	0.012200981
93	0x3ce8a5ed	0.028399432
94	0xbcb3cb35	-0.021947483
95	0xbdb4d96c	-0.088305324
96	0xbcff7bd4	-0.031186976
97	0x3d426793	0.047462057
98	0x3c554dc4	0.013019029
99	0x3cf3e435	0.029771904
100	0xbe07c3c6	-0.13258275
101	0xbd828507	-0.06373029
102	0xbb061dd7	-0.0020464563
103	0x3c167e1e	0.009185342
104	0x3cb1f60b	0.021723768
105	0xbd9b15f4	-0.075725466
106	0x3c4dd5b6	0.01256316
107	0xbd7b8ccd	-0.061413575
108	0x3cc33be9	0.023832278
109	0xbb48e768	-0.0030655507
110	0x3d012240	0.031526804
111	0xbccb7522	-0.024836127
112	0x3b6eab34	0.0036417963
113	0x3c8c2133	0.017105674
114	0xbd61830e	-0.055056624
115	0xbd1b0c82	-0.037853725
116	0x3b899fa5	0.0041999393
117	0x3d598d4c	0.053113267
118	0xbb0a2276	-0.002107767
119	0x3d4a2e9a	0.04936085
120	0x3ca69b3a	0.02033769
121	0x3ca0f2d2	0.019647036
122	0x3d863e3d	0.0655484
123	0x3ce79c4a	0.028272767
124	0xbde75e68	-0.112973034
125	0xbdd80ca2	-0.105492845
126	0xbd833aa2	-0.06407668
127	0xbe00ecfe	-0.12590405
128	0xbcd1b56d	-0.025599206
129	0x3b5fac6d	0.0034129873
130	0x3d121102	0.03566075
131	0xbd14ff5e	-0.03637635
132	0xbb662b48	-0.0035121012
133	0x3d56e5f6	0.0524654
134	0x3c8c860b	0.01715376
135	0x3d484030	0.04888934
136	0x3d01ac3b	0.031658392
137	0xbb0d5ef0	-0.002157148
138	0xbc9351e1	-0.017983379
139	0x3d4dde5d	0.05026089
140	0xbcc1ee0d	-0.023673082
141	0xbdc3280f	-0.09529125
142	0xbdddcf2d	-0.10830531
143	0xbca35242	-0.019936685
144	0xbc7ddb51	-0.015494184
145	0xba93874e	-0.0011255534
146	0xbc1d8bb6	-0.009615829
147	0xbba546c5	-0.005043837
148	0xbcbc077f	-0.022952793
149	0xbcece562	-0.028917972
150	0xbcd12184	-0.025528677
151	0xbd4090a2	-0.047012933
152	0x3d572a1f	0.052530404
153	0x3c4173f8	0.011807434
154	0xbda57fe2	-0.08081032
155	0xbcbc62ee	-0.022996392
156	0xbd0054dc	-0.03133093
157	0x3ca0db51	0.019635828
158	0x3d4cdfa3	0.050017964
159	0x3d4b079d	0.049567807
160	0xbc5464d2	-0.012963491
161	0xbcba88ec	-0.022770368
162	0xbcb19dff	-0.021681784
163	0xbccf2a59	-0.025288748
164	0xbcb1509a	-0.02164488
165	0xbc9662a1	-0.018357577
166	0x3c9df7bb	0.019283166
167	0x3c8c69c2	0.017140273
168	0xbdbb822b	-0.09155687
169	0xbd50793e	-0.050896876
170	0x3cefb336	0.02926026
171	0xbc8720bc	-0.016495101
172	0xbd938c5a	-0.07204504
173	0xbc86ae62	-0.016440574
174	0xbd40b107	-0.047043826
175	0x3aa7ff84	0.0012817238
176	0x3dbb7ec2	0.091550365
177	0xbc54ebd2	-0.012995677
178	0xbd17fa1c	-0.037103757
179	0xbd0887c9	-0.03333262
180	0xbdd9c6dc	-0.106336325
181	0xbcd34a63	-0.025792306
182	0x3c1a391d	0.009413031
183	0x3d88065a	0.066418365
184	0x3bc7a21d	0.0060923235
185	0xbca64ce6	-0.02030034
186	0xbd248dad	-0.040174175
187	0x3d5b7a06	0.053583167
188	0x3d163de8	0.036680132
189	0x3b2cd2e8	0.0026370827
190	0x3bf7fd17	0.0075680125
191	0x3bdfe838	0.0068331026
192	0x3d2cc8df	0.042183753
193	0xbc75e8e7	-0.0150091415
194	0xbd47d1d0	-0.048784077
195	0xbc2008d9	-0.009767734
196	0xbcf00097	-0.029297156
197	0x3d17d475	0.03706785
198	0x3c649802	0.013952257
199	0x3c4f4a3e	0.012651978
200	0xbbe174ff	-0.006880402
201	0x3c43e15c	0.011955585
202	0x3d122d05	0.035687465
203	0xbd85f08c	-0.06540021
204	0xbd9c6777	-0.07636922
205	0xbde5ae2b	-0.112148605
206	0x3cbc21bb	0.022965303
207	0x3cdccb61	0.026952447
208	0x3d240b28	0.040049702
209	0x3d8b585f	0.06803965
210	0xbc969d3e	-0.018385526
211	0x3c2b7e52	0.010467129
212	0xbca279ee	-0.019833531
213	0xbace0b6b	-0.0015719956
214	0x3d03a960	0.03214395
215	0xbc0e31cb	-0.008678864
216	0xbcb084f4	-0.021547772
217	0xbdd46db8	-0.1037249
218	0x3d385f7b	0.045012932
219	0x3d96021a	0.073246196
220	0x3d677a21	0.056512956
221	0x3d8f6bf1	0.0700301
222	0xbd3e3e55	-0.046446163
223	0xbd80a7c8	-0.06282002
224	0x3d245b02	0.040125854
225	0x3c0a6f15	0.008449336
226	0x3d1c2454	0.038120583
227	0x3da7463c	0.08167693
228	0x3c16bdc6	0.009200519
229	0xbd36f5f2	-0.044668145
230	0xbd5465a6	-0.051854752
231	0x3b4242ff	0.0029641984
232	0xbda5cb94	-0.0809547
233	0x3c414747	0.011796779
234	0x3cddd34c	0.027078293
235	0xbbd84a82	-0.006600679
236	0xbc8d5b09	-0.017255323
237	0xbdbe15f7	-0.09281533
238	0xbc7a0e9c	-0.015262272
239	0x3d41ce3b	0.047315817
240	0x3db55c5c	0.08855507
241	0x3d17ee99	0.03709278
242	0xbd817d40	-0.06322718
243	0x3c4fedd3	0.012690979
244	0xbb5a98ba	-0.0033355192
245	0xbca4754b	-0.02007546
246	0xbb68567a	-0.0035451935
247	0xbd1ff04c	-0.039047524
248	0xbd0f1b86	-0.034938358
249	0x3d9136ff	0.07090568
250	0xbbb3d032	-0.0054874653
251	0xbc8803f5	-0.01660345
252	0x3ca8ea43	0.020619517
253	0xb81b1b4f	-3.6980313e-05
254	0x3befb38f	0.007315106
255	0x3d07da4d	0.033167172

62 f4 [64]
0	0x3f02796e	0.50966537
1	0x3d33f680	0.043936253
2	0xbe8d4454	-0.27591193
3	0xbf4e03fe	-0.8047484
4	0x3fd7a665	1.6847655
5	0xbfb6ca3d	-1.4280468
6	0x3f3dd332	0.74150383
7	0xc0544882	-3.3169255
8	0x3cb82080	0.022476435
9	0xbf4181d4	-0.75588727
10	0xbf929861	-1.1452752
11	0xbfaf14d0	-1.3678226
12	0x3e89a418	0.26883006
13	0xbf175559	-0.59114605
14	0x3eedee60	0.46470928
15	0xbf4050e8	-0.75123453
16	0xbf39f066	-0.72632444
17	0xbfbdece8	-1.4837923
18	0xbf7c3689	-0.98520714
19	0x3f0cdf18	0.55027914
20	0xbf3964ab	-0.7241923
21	0x3f565604	0.83725
22	0x3ecef560	0.4042158
23	0xbb91a980	-0.004445255
24	0xbef86d10	-0.48520708
25	0xbffc06e1	-1.9689599
26	0x3f1481d6	0.58010614
27	0x3f82012b	1.0156606
28	0x3f5b7e4a	0.85739577
29	0x3fdb4cb7	1.7132787
30	0x3f73fd98	0.9530883
31	0xbd2096c0	-0.039206266
32	0xc0423b7f	-3.0348814
33	0xc0006cc6	-2.006639
34	0xbfdfdc5d	-1.7489125
35	0xbf8349d0	-1.0256901
36	0xbfe8adf3	-1.8178085
37	0x3f9d5112	1.2290366
38	0xbf2ea1a6	-0.68215406
39	0xbd2d1360	-0.042254806
40	0xbea6d07c	-0.32580936
41	0xc00df26e	-2.2179217
42	0xbf9058b5	-1.1277071
43	0x3e8fa778	0.28057456
44	0xbdb5d980	-0.088793755
45	0xbee5690e	-0.44806713
46	0xbe89df04	-0.2692796
47	0x3fd4084b	1.6565031
48	0xbf17b3da	-0.59258807
49	0xbf14dd41	-0.58150107
50	0xbf6e27d7	-0.9302954
51	0x405050ce	3.254932
52	0x3dec4220	0.1153605
53	0x3f7339aa	0.95009863
54	0xbd22f340	-0.039782763
55	0x3f912082	1.1338046
56	0xc00ab34c	-2.1671934
57	0xc04faa70	-3.2447777
58	0xbf2922a4	-0.6606848
59	0xbfaf1044	-1.3676839
60	0xbeb17ba4	-0.34664643
61	0xbf7fd4c4	-0.9993403
62	0xbf66b816	-0.9012464
63	0xbf023386	-0.5085987

64 f4 [128, 64, 3, 3]
0	0xbd0b3ea2	-0.03399528
1	0x3cb6d479	0.022318112
2	0xbd3aa82f	-0.04557055
3	0xbb6ef95d	-0.003646455
4	0xbca8a6c0	-0.020587325
5	0x3ca68850	0.02032867
6	0x3a8d7be1	0.0010794365
7	0x3c697f46	0.014251536
8	0xbd2272ec	-0.03966038
9	0xbd1e93b3	-0.038715076
10	0xbc950bbf	-0.018194078
11	0x3d5cfa8a	0.05394987
12	0xbd7bcf4e	-0.061476998
13	0xbaf0b8db	-0.0018365638
14	0x3c192ea6	0.009349501
15	0xbbee13e9	-0.007265557
16	0xbbc978df	-0.006148442
17	0xbc9e5bf0	-0.019330949
18	0xbba583db	-0.005051119
19	0xbc4d17ca	-0.012517879
20	0x3ca6d71b	0.020366242
21	0xbd4b6859	-0.04966006
22	0xbc67cb6e	-0.0141476225
23	0x3c8d6dc6	0.017264258
24	0x3c307705	0.010770564
25	0x3c38fe6e	0.0112911295
26	0x3ca159ea	0.019696195
27	0xbcd34eb6	-0.025794368
28	0xbc93475e	-0.017978366
29	0x3c9bb01a	0.01900487
30	0xba8805b0	-0.0010377672
31	0xbcf084bb	-0.029360166
32	0xbd4d556b	-0.05013029
33	0x3ccfeb15	0.02538065
34	0x3b709a61	0.003671311
35	0xbd2873d4	-0.041126087
36	0xbcfbbe5b	-0.030730417
37	0xbd100205	-0.035158176
38	0xbb8a2512	-0.004215845
39	0xbd02d771	-0.031943742
40	0x3d026cd5	0.03184207
41	0xbbc4e455	-0.0060086646
42	0xbd083b3b	-0.03325961
43	0xbcfa8d12	-0.030584846
44	0xbc869017	-0.01642613
45	0xbca634db	-0.020288875
46	0x3cc46db1	0.023978086
47	0x3cda8516	0.026674788
48	0xbd021996	-0.031762682
49	0x3afda905	0.001935274
50	0x3c6e3467	0.014538861
51	0x3b6aded5	0.0035838385
52	0xbd172c44	-0.03690745
53	0xbc08c55b	-0.008347834
54	0xbcbb74ba	-0.022882808
55	0x3c1ceb26	0.009577548
56	0xbb42ef30	-0.0029744618
57	0xbd2a883e	-0.041633837
58	0x3c938e65	0.018012235
59	0x3b27ffeb	0.0025634717
60	0xbc15e42e	-0.009148641
61	0x3d359b72	0.044337697
62	0x3d099e80	0.033598423
63	0xbc20bb39	-0.009810262
64	0xbb6a553f	-0.0035756377
65	0x3cd81c53	0.026380694
66	0xbd7c5948	-0.061608583
67	0xbd21532c	-0.03938596
68	0xbacb2191	-0.0015497674
69	0xbcb144c4	-0.021639235
70	0xbd2800d4	-0.041016415
71	0x3caf5012	0.021400485
72	0xbd21308a	-0.03935293
73	0xb9fb7849	-0.0004796407
74	0x3d02bf6d	0.03192084
75	0xbd29e57a	-0.04147861
76	0xbb0dde45	-0.0021647376
77	0x3c7ffa5e	0.015623657
78	0xbb4c84c7	-0.003120707
79	0x3d127344	0.035754457
80	0xbd06ac88	-0.032879382
81	0xbd0b5aa7	-0.034022
82	0x3c32d66f	0.010915383
83	0xbd1b63fd	-0.037937153
84	0xbc9e6a5d	-0.019337827
85	0xbc8b684b	-0.017017504
86	0xbd15e7c5	-0.036597986
87	0xbcf7f040	-0.030265927
88	0xbb26f552	-0.0025475812
89	0xbd0e83b9	-0.03479359
90	0xbd62a8bc	-0.0553367
91	0x3cca397f	0.02468562
92	0x3ca9c35b	0.020723036
93	0xbb3363ce	-0.002737272
94	0xbc7721dc	-0.015083756
95	0xbbb2f9b0	-0.005461894
96	0xbc0dbc0d	-0.008650792
97	0xbd416e60	-0.047224402
98	0xbc6d71a4	-0.014492426
99	0xbce56255	-0.02800099
100	0xbc56ac0b	-0.013102542
101	0xbcd2724b	-0.025689265
102	0xbc77b4e9	-0.015118816
103	0xbd898694	-0.06715122
104	0x3c12808c	0.008941781
105	0x3c574893	0.013139862
106	0xbc94f6e6	-0.018184137
107	0xbd01d1e9	-0.031694327
108	0xbd3aa720	-0.04556954
109	0x3d0dc78d	0.034614135
110	0x3b75c3cd	0.003750074
111	0xbc9820ab	-0.018570265
112	0x3cd6cf82	0.026221994
113	0xbd276ecb	-0.040877145
114	0xbca89a27	-0.020581318
115	0x3c83bc30	0.016080946
116	0x3d8fcccc	0.07021484
117	0xbc6766ec	-0.01412366
118	0xbc5f3914	-0.013624448
119	0xbc53c3ac	-0.01292507
120	0x3d21a34a	0.039462365
121	0xbd13e338	-0.036105365
122	0xbbe8437b	-0.0070881224
123	0xb940d1c3	-0.00018388689
124	0xbc0e711e	-0.008693961
125	0x3ce1a81f	0.027545987
126	0xbb42fd8d	-0.0029753179
127	0xbc7c79a9	-0.015409865
128	0x3ce4545d	0.027872259
129	0xbcd4d91d	-0.025982434
130	0x3c309c34	0.010779429
131	0x3d31e0ba	0.043427207
132	0x3b88fc66	0.004180479
133	0xbc28552b	-0.010274212
134	0xbc1720e6	-0.009224152
135	0xbd122013	-0.03567512
136	0xbd552994	-0.052041605
137	0x3c468981	0.012117744
138	0x3ce753e2	0.02823824
139	0xbcc90608	-0.024539009
140	0xbd50764d	-0.05089407
141	0x3ce2e9b6	0.027699333
142	0x3d2fa251	0.042879406
143	0xbcacae44	-0.02107919
144	0xbd1adce2	-0.037808307
145	0xbc885ef7	-0.016646845
146	0x3c980904	0.018558986
147	0xbc6f5c98	-0.014609478
148	0xbc41f6fc	-0.011838671
149	0x3d251e40	0.04031205
150	0x3d0398d0	0.032128155
151	0xbcbf091c	-0.023319773
152	0xbc688715	-0.014192362
153	0xbcfe08ed	-0.031010116
154	0xbbb9fe9e	-0.0056761047
155	0x3d9f466e	0.07777105
156	0x3d4a69c3	0.04941727
157	0xbd0d64e0	-0.03452003
158	0x3cbbb2cd	0.022912407
159	0x3bfaad6d	0.0076500685
160	0x3d08c98b	0.03339533
161	0x3ce9b91c	0.02853065
162	0xbd6e96b1	-0.05824918
163	0x3cef8fc1	0.029243352
164	0x3ca879e2	0.02056593
165	0xbc1ef0e5	-0.009700988
166	0xbb614bfc	-0.0034377566
167	0x3c6e0f5b	0.014530028
168	0xbbd5a2a3	-0.006519632
169	0xbd58ed1d	-0.052960504
170	0xbc142593	-0.0090421615
171	0xbd532fda	-0.051559307
172	0xbc3008e1	-0.010744304
173	0x3c8dbb55	0.017301241
174	0xbce171bb	-0.027520051
175	0x3d3524d3	0.04422457
176	0xbc563280	-0.013073564
177	0xbcb1d244	-0.021706708
178	0x3abe0103	0.0014496151
179	0x3d9aca45	0.07558111
180	0xbd245a3a	-0.04012511
181	0x3c99d6b4	0.018779136
182	0x3c7dfd08	0.015502222
183	0x3cc018d7	0.023449345
184	0xbd2c70fe	-0.042099945
185	0x3c880ccd	0.016607666
186	0x3d1315cc	0.03590946
187	0xbc635306	-0.013874775
188	0xbd0764c3	-0.03305508
189	0xbcd830ed	-0.026390517
190	0xbc308032	-0.010772752
191	0x3c10ea3c	0.008844908
192	0x3c9cdbed	0.019147838
193	0x3d255571	0.040364686
194	0xbcc93eb2	-0.024566028
195	0x3cc39e8c	0.023879312
196	0x3cb63a77	0.022244675
197	0x3c0f725e	0.008755295
198	0xbd0ed44e	-0.03487044
199	0xbd051b04	-0.032496467
200	0x3d07be3d	0.03314041
201	0x3d54dac5	0.051966447
202	0xbd438c2d	-0.047741104
203	0xbc6fb4ed	-0.014630538
204	0x3cb9cbc2	0.022680167
205	0xbbc440b6	-0.0059891595
206	0x3bea19de	0.007144197
207	0x3c534278	0.012894265
208	0x3be25c13	0.0069079488
209	0xbbbddb35	-0.005793954
210	0xbd6dc4cb	-0.058049005
211	0x3cddce52	0.02707592
212	0x3bb13097	0.0054074037
213	0x3ac26cec	0.0014833487
214	0x3ccfe1fd	0.025376314
215	0x3c839962	0.01606435
216	0x3d370ba0	0.04468882
217	0xba20ddf4	-0.0006136589
218	0xbcd14404	-0.025545128
219	0x3cafc81c	0.021457724
220	0xbc295129	-0.0103342915
221	0xbc03437b	-0.008011694
222	0xbd2aaacd	-0.041666795
223	0xbd2fb548	-0.042897493
224	0xbd4c6b02	-0.049906738
225	0xbc124254	-0.008926947
226	0x3ca000db	0.019531658
227	0xbcb0df78	-0.021590933
228	0xbc510b25	-0.012759005
229	0xbc49365c	-0.012281027
230	0xbb073599	-0.0020631312
231	0x3d1f8654	0.038946465
232	0xbba6e175	-0.0050927945
233	0x3ce899a0	0.028393567
234	0xbb0dc76e	-0.0021633762
235	0xbcb3d8e1	-0.021954002
236	0xbb86c7fd	-0.004113196
237	0x3c1f5709	0.009725341
238	0xbd39383a	-0.045219637
239	0xbc44bd35	-0.012008001
240	0x3ce6c711	0.028171094
241	0xbcd307bb	-0.025760522
242	0x3b8ab376	0.004232819
243	0xbb069f55	-0.0020541747
244	0xbd384fb9	-0.044997904
245	0x3ce774a0	0.028253853
246	0xbbef862f	-0.007309697
247	0xbc3bca5d	-0.011461821
248	0x3d081ec2	0.033232458
249	0x3a8ae82a	0.0010597755
250	0x3cad079b	0.02112179
251	0x3ca60478	0.020265803
252	0xbd549bf5	-0.051906545
253	0xbc080f4a	-0.008304426
254	0x3c9acc72	0.018896315
255	0xbbfaca1a	-0.007653487

65 f4 [128]
0	0xbf5167fe	-0.81799304
1	0xbfb7509d	-1.4321476
2	0xbfcabf67	-1.5839661
3	0xbeb095d8	-0.34489322
4	0xbf09a6a8	-0.5376992
5	0xbf192060	-0.59815025
6	0xbeaa6598	-0.33280635
7	0xbeeb435a	-0.45949823
8	0xbf7cd526	-0.9876274
9	0xbede8eb8	-0.4346826
10	0xbeb0a01e	-0.3449716
11	0xbe2b4200	-0.16724396
12	0xbf302774	-0.688102
13	0xbf79c45b	-0.9756524
14	0xbf5f2764	-0.8716948
15	0xbf401c94	-0.75043607
16	0xbfbfc746	-1.4982688
17	0xbf6e4ba4	-0.9308417
18	0xbf848875	-1.0354143
19	0xbebec850	-0.372622
20	0xbd1f3ed8	-0.03887829
21	0xbea18dcf	-0.31553504
22	0xbe14b265	-0.14521177
23	0xbeffc698	-0.49956203
24	0xbf070bf4	-0.52752614
25	0xc00ba01c	-2.1816473
26	0xbf903578	-1.1266317
27	0xbfda9f08	-1.7079782
28	0xbf633a7d	-0.8876112
29	0xbf7a4049	-0.9775434
30	0xbd57e163	-0.05270518
31	0xbf06e97c	-0.5270002
32	0xbeb90c85	-0.36142364
33	0xbd498d84	-0.049207225
34	0x3dc99ed8	0.0984475
35	0xbf6423dc	-0.8911722
36	0xbec7de2b	-0.39036688
37	0xbff399d8	-1.9031324
38	0xbec248f0	-0.37946272
39	0xbdabe3d0	-0.08393061
40	0xbf6bc726	-0.9210075
41	0xbfb7c91a	-1.4358246
42	0xbf8164c0	-1.0108871
43	0xbf4bd3fa	-0.79620326
44	0xbeb8ad02	-0.36069494
45	0xbf5b7e0d	-0.85739213
46	0xbf9a783f	-1.2067946
47	0xbf61dd2e	-0.8822812
48	0xbf8a04c4	-1.0782704
49	0xbf5d6e16	-0.864961
50	0xbf1438a5	-0.5789893
51	0xbfb6feee	-1.4296548
52	0x3ed6ee50	0.41978693
53	0xbfa6598d	-1.2996079
54	0xbf48d3ba	-0.7844807
55	0xbf0f2e58	-0.5593009
56	0xbf939453	-1.152964
57	0xbede7c2f	-0.4345412
58	0xbfb26596	-1.3937252
59	0xbf94c21c	-1.1621737
60	0x3d181920	0.037133336
61	0x3dcf9d10	0.10137379
62	0xbfd9f274	-1.7027116
63	0xbf893332	-1.0718749
64	0xbfe3b9e0	-1.77911
65	0x3dfe7a1a	0.12425633
66	0xbf5735c4	-0.84066415
67	0xbf7519c9	-0.9574247
68	0xbf1fee94	-0.62473416
69	0xbe921700	-0.28533173
70	0xbf70c3a5	-0.9404853
71	0xbf15c5e2	-0.5850507
72	0xbf072b3d	-0.5280035
73	0xbe12e830	-0.14346385
74	0xbfb888ec	-1.4416785
75	0xbf2fa764	-0.6861479
76	0xbeda70d9	-0.4266422
77	0xbf6b29bb	-0.9186055
78	0xbea9a38b	-0.33132586
79	0xbf8a7c44	-1.0819173
80	0xbe861956	-0.26191205
81	0xbfca1bb5	-1.5789706
82	0xbe8fc7cc	-0.2808212
83	0xbf14644a	-0.5796553
84	0xbf680b7e	-0.90642536
85	0xbf96c96a	-1.1780217
86	0xbfc2322a	-1.5171559
87	0xbca6e950	-0.020374924
88	0xbf175dfc	-0.59127784
89	0xbfdfcaea	-1.74838
90	0xbfa5a059	-1.2939559
91	0xbfb2e098	-1.397479
92	0xbfcc4320	-1.5957985
93	0xbf973a00	-1.1814575
94	0xbf341158	-0.70338964
95	0xbf6a0fd3	-0.91430396
96	0xbfd79eb3	-1.6845306
97	0xbfac1ca6	-1.3446243
98	0xbf8a4ee1	-1.0805322
99	0xbf3cc302	-0.7373506
100	0xbf200eec	-0.6252277
101	0xbf88dbdb	-1.0692095
102	0xbfa199bc	-1.2625041
103	0x3d53b1f0	0.051683366
104	0xbf81232c	-1.0088859
105	0xbeac4ea8	-0.3365376
106	0xbf48290a	-0.7818762
107	0xbebc44e0	-0.36771297
108	0x3e8c0ee9	0.27355126
109	0xbe994fce	-0.299437
110	0xbf46a512	-0.7759563
111	0xbf8f7caa	-1.120992
112	0x3d7396b0	0.05946988
113	0xbecc8d06	-0.39951342
114	0xbece092b	-0.4024137
115	0x3e0560d8	0.13025224
116	0xbf769e62	-0.96335423
117	0xbddc0aa0	-0.10744214
118	0x3d1aff70	0.03784126
119	0xbf5f13a0	-0.8713932
120	0xbf9e328e	-1.2359178
121	0xbedc504c	-0.43030012
122	0x3ecc0382	0.39846426
123	0xbfbecf70	-1.4907055
124	0xbf9c3ea7	-1.220662
125	0x3e39d6e8	0.18148386
126	0xbdb3a9e0	-0.087726355
127	0xbf4168f0	-0.75550747
