main/Pytorch/english.pt (torch, 414475 bytes, 26 tensors)

layer1.0.weight f4 [16, 1, 3, 3]
1.6077269 0.4585447 -1.5672643 1.7064233 0.06505145 -1.8184103 2.0764625 -0.70635116
-1.9772495 -1.6832945 -1.0220205 1.6400596 -1.1347084 0.35236603 2.3583322 1.2063113
2.199691 -0.82117003 0.9754214 1.4286269 -0.5211109 2.1814163 2.6422386 2.1328375
1.53306 0.6359547 -0.39694977 -0.46598262 -1.810473 -0.8286033 -0.7216845 -2.3143594
-1.6167548 1.0054187 -2.398291 -2.4032273 -0.73283446 -2.3820126 -0.9576048 -0.4349473
-0.59605676 0.44250786 2.5107522 2.031954 1.0675296 -0.3212103 1.2479335 0.07504608
-1.7587432 0.878834 1.4457425 -3.0668857 0.05903192 1.5472453 1.7573644 1.1928133
-1.5678177 0.026401708 -3.2967646 -0.7054998 -1.2005702 -0.071857214 1.625571 -1.0038484
-1.4263874 0.9887857 -2.1200056 -0.6451889 2.1035204 -1.8713926 -0.8827873 1.4886127
0.33966184 -0.2527995 -1.3532933 -0.5239723 2.9084425 -0.84359455 -1.4823288 2.1417398
-1.4297711 1.6882117 2.0172062 1.728734 -0.10315364 -0.1330627 -0.9534799 -2.1064477
-1.9314162 -0.77736586 -1.1506121 1.263484 1.4562852 -1.1359346 -3.0881522 -0.6586561
1.7763995 -0.1339658 -1.2926751 -1.7223418 -0.12167185 0.62143683 1.3014483 2.312975
-1.797277 0.7238156 -0.86911535 -2.0056174 0.3276078 1.1381147 2.6456416 -1.0241104
-1.2868772 1.8089728 -1.4525197 -1.8889215 -0.28792456 -0.5403777 -0.27897573 -0.37927762
-0.23225306 -0.14356244 -0.470383 -0.13509078 -0.46951178 -0.5583574 -0.98713225 -2.3520846
-2.0408487 1.6426742 1.9894347 0.28584874 0.1846136 0.52582353 1.016217 0.20887576
-2.3911793 -2.099569 -2.6897223 -0.6619654 0.44251612 -2.119053 1.1694708 1.2312123
00000000: ffc9 cd3f 5fc6 ea3e 1e9c c8bf 146c da3f
00000010: b239 853d abc1 e8bf c3e4 0440 6ed3 34bf
00000020: 8316 fdbf 3276 d7bf 91d1 82bf 79ed d13f
00000030: 203e 91bf 5269 b43e eaee 1640 6968 9a3f
00000040: bdc7 0c40 3338 52bf 38b5 793f 3fdd b63f
00000050: 8667 05bf 539c 0b40 701a 2940 6980 0840
00000060: 4f3b c43f edcd 223f 003d cbbe 4695 eebe
00000070: 94bd e7bf 591f 54bf 51c0 38bf 771e 14c0
00000080: d2f1 cebf 8fb1 803f 9a7d 19c0 7ace 19c0
00000090: 0a9b 3bbf e572 18c0 9725 75bf 6ab1 debe
000000a0: 2d97 18bf 6490 e23e 2ab0 2040 890b 0240
000000b0: cfa4 883f ad75 a4be 49bc 9f3f c2b1 993d
000000c0: 7f1e e1bf 44fb 603f 170e b93f db47 44c0
000000d0: 74cb 713d 220c c63f 51f1 e03f 1bae 983f
000000e0: 40ae c8bf 6548 d83c 31fe 52c0 a39b 34bf
000000f0: 49ac 99bf e029 93bd b612 d03f 1b7e 80bf
00000100: dd93 b6bf 0f21 7d3f 2cae 07c0 1a2b 25bf
00000110: 14a0 0640 cb89 efbf 59fe 61bf dc8a be3f
00000120: 28e8 ad3e f06e 81be b738 adbf 0c23 06bf
00000130: ec23 3a40 d0f5 57bf f3bc bdbf 4412 0940
00000140: bd02 b7bf 5217 d83f e819 0140 2847 dd3f
00000150: 3742 d3bd 9741 08be 4217 74bf 0ad0 06c0
00000160: a538 f7bf 7301 47bf 4247 93bf d8b9 a13f
00000170: 8e67 ba3f 4e66 91bf 49a4 45c0 b09d 28bf
00000180: 0f61 e33f 552e 09be 6176 a5bf b275 dcbf
00000190: 172f f9bd 7c16 1f3f dc95 a63f c807 1440
000001a0: 2c0d e6bf fb4b 393f 587e 5ebf 095c 00c0
000001b0: 36bc a73e bead 913f 3152 2940 0d16 83bf
000001c0: 64b8 a4bf 6c8c e73f 2aec b9bf 2ec8 f1bf
000001d0: d96a 93be 3156 0abf e8d5 8ebe ad30 c2be
000001e0: bfd3 6dbe 0802 13be 0ad6 f0be 3d55 0abe
000001f0: d963 f0be 83f0 0ebf b3b4 7cbf 8e88 16c0
00000200: 449d 02c0 2643 d23f cca5 fe3f c45a 923e
00000210: 590b 3d3e 5f9c 063f 6613 823f 87e3 553e
00000220: 1509 19c0 575f 06c0 6924 2cc0 9176 29bf
00000230: 7991 e23e 909e 07c0 38b1 953f 5d98 9d3f

layer1.0.bias f4 [16]
2.0588286 -0.32931373 -0.2290957 0.6925802 -0.5154863 -0.30237147 -0.68851626 0.51869905
-1.3567727 1.1337147 0.18456979 -0.09265167 1.6283089 -0.30302173 0.38223132 1.4971924
00000000: d9c3 0340 cf9b a8be 1098 6abe f04c 313f
00000010: e9f6 03bf 6fd0 9abe 9a42 30bf 76c9 043f
00000020: baaa adbf 901d 913f ddff 3c3e 29c0 bdbd
00000030: 6d6c d03f aa25 9bbe d3b3 c33e 00a4 bf3f

layer1.1.weight f4 [16]
2.1756628 1.2706263 1.3269571 4.329712 1.8854104 1.6663405 3.2248402 2.1168225
1.3259765 2.6746304 3.7180345 0.82474923 1.0257587 0.6923693 1.2485456 3.6700363
00000000: 0f3e 0b40 e2a3 a23f bbd9 a93f 008d 8a40
00000010: 2155 f13f a54a d53f c863 4e40 057a 0740
00000020: 99b9 a93f 252d 2b40 47f4 6d40 c422 533f
00000030: 104c 833f 1d3f 313f 58d0 9f3f e0e1 6a40

layer1.1.bias f4 [16]
-0.18060587 -1.819733 -2.1527452 1.1723822 -0.32558113 -0.37013555 0.51487046 -0.12793595
-0.5388096 0.541367 -0.4892063 0.19783118 0.45552847 -0.43339092 0.5690977 0.025709262
00000000: bff0 38be 03ed e8bf 94c6 09c0 9f10 963f
00000010: 92b2 a6be 6882 bdbe 8dce 033f a401 03be
00000020: 6def 09bf 0797 0a3f 4079 fabe 4294 4a3e
00000030: 073b e93e 6ae5 ddbe 63b0 113f 3b9c d23c

layer1.1.running_mean f4 [16]
2.034748 0.15140851 1.4188036 -1.1016774 -0.36806786 -0.285756 -1.0364302 -0.00443778
-1.4337852 1.045077 -0.27569416 -0.33434275 1.6252005 -0.80117154 0.4233137 0.42420334
00000000: 5039 0240 d50a 1b3e 5b9b b53f c403 8dbf
00000010: 6473 bcbe 9c4e 92be bfa9 84bf cc6a 91bb
00000020: 4686 b7bf 15c5 853f c927 8dbe f92e abbe
00000030: 9206 d03f 9419 4dbf 93bc d83e 2e31 d93e

layer1.1.running_var f4 [16]
2.1937811 1.9329478 9.618903 11.073403 1.756871 1.3745847 1.1288728 2.7257113
0.3204425 1.9096153 1.1501371 0.6729171 1.5970511 0.76082706 1.044497 4.952947
00000000: e966 0c40 d56a f73f 07e7 1941 a92c 3141
00000010: 26e1 e03f 64f2 af3f e77e 903f 0e72 2e40
00000020: 0a11 a43e 466e f43f b137 933f 4c44 2c3f
00000030: 2c6c cc3f 90c5 423f 14b2 853f 8b7e 9e40

layer2.0.weight f4 [32, 16, 3, 3]
0.5156345 -1.3821108 -0.85933334 -0.19100805 -0.6396197 -0.47679123 1.0352726 -0.35895047
-0.5056315 -0.43283588 -0.3389594 -1.9394432 -0.011112176 -1.6657504 0.2756864 -1.097337
-1.6529176 1.2528849 -1.7727886 -1.3185381 -0.3551085 -0.21632683 -1.2066008 -1.6014346
-1.1883191 -0.84651566 0.7475317 2.2996895 2.254447 -0.6126009 0.523596 0.7879497
1.3198507 0.8386982 -1.2300416 -0.4912539 -0.6055847 -2.3064063 -2.2093248 0.22919866
1.4831583 1.6651679 -2.0179033 -1.0467694 0.879211 -1.4375596 -0.25608507 1.823736
0.9245307 -0.36172915 0.54857045 2.6831198 1.2059376 0.45334587 1.2232398 -1.9098053
-2.766061 2.954925 -0.29644412 -1.544362 1.6561877 -0.40048432 0.48370314 -0.8210768
0.7175916 1.9233016 1.9050808 -1.7692343 0.73024553 4.1025443 -0.8541065 -0.45309058
-0.8772684 0.5361895 1.3293068 -0.14035502 1.6921864 -0.28821656 0.7871282 0.49816644
-1.1357908 0.121536024 -1.1556813 0.73493314 -1.2985214 -1.3228623 0.2421548 0.25868878
2.370969 -0.3898096 -0.86876446 0.40507886 2.139762 -0.61474186 3.5308478 3.3250232
1.9559773 -0.5318618 -2.5658803 0.48816377 -0.6751054 -0.5214196 -0.0805455 -0.32837647
-1.4247832 0.88253194 1.2226095 1.5246342 -2.6685948 0.75079584 2.3479788 -1.07806
-1.0380949 1.7536759 2.899483 1.7897184 -0.82794046 0.13577238 0.2947495 -0.01583921
-0.0050044367 -0.007038806 0.120366834 0.16047712 -0.14034076 0.15047427 -0.24190748 -1.6137542
0.8819456 1.4995146 1.3034878 0.6426315 -2.0001893 0.31235334 1.0369381 -0.11768793
0.08955676 -1.6088203 3.0134892 1.074003 0.31293812 2.8586164 -0.37701628 0.962853
-1.1259139 -2.0147624 1.1058091 0.86615646 -1.8025938 -1.9030074 1.2053795 -1.0069777
-0.5587741 0.45133114 -0.9676355 0.56490546 0.71306396 -0.5227517 -1.6137509 -0.0791504
-0.40358317 -1.0147548 1.7171499 1.8604631 2.51076 1.7518325 -0.37858373 -0.40049604
2.358833 1.5763019 -0.18720603 3.4669282 1.2305325 -0.36705652 2.0365074 2.5116305
2.4426513 2.461725 1.6490256 5.2759423 -1.6084908 -3.36909 -0.31398034 0.9762974
-1.4405863 -1.8755429 0.9298865 0.74536306 1.2924583 -0.7448517 0.4662315 1.996371
-2.822253 -2.282152 0.7408184 -0.5191365 0.01524997 -1.3308136 -0.05004964 -1.3181766
-0.21313341 -0.37003693 -2.1246874 -2.653071 -0.30518705 -1.6656033 -0.07830977 0.79886276
-0.2056539 2.0981748 -1.5615985 -2.8762248 -0.14157154 0.77093565 -0.9302219 -0.36141655
-1.9097688 -0.47054616 0.36036214 0.53285986 -2.556958 -1.4541601 0.6896417 0.65350896
-2.233896 -0.25476092 0.10520551 0.62969804 -0.54082453 -0.79628134 1.5159229 -0.883433
-2.1066608 -0.8999593 0.8152845 -0.3452002 -0.66327065 1.1057894 -1.7814829 2.235891
0.4189742 -0.20807429 3.621782 0.8621739 -1.2609223 0.26652798 0.61902463 -1.5429814
-1.6043758 0.4673858 -0.9493858 -1.0583357 0.7193927 0.40403157 1.787547 -2.0390766
00000000: 9f00 043f 02e9 b0bf 45fd 5bbf 9d97 43be
00000010: 1ebe 23bf fb1d f4be d083 843f 5bc8 b7be
00000020: 1171 01bf aa9c ddbe 168c adbe ad3f f8bf
00000030: d80f 36bc 4f37 d5bf c526 8d3e 8a75 8cbf
00000040: ce92 d3bf 885e a03f bdea e2bf dbc5 a8bf
00000050: c8d0 b5be c884 5dbe e571 9abf cffb ccbf
00000060: d71a 98bf 40b5 58bf 3d5e 3f3f 1d2e 1340
00000070: dc48 1040 6ad3 1cbf 630a 063f 12b7 493f
00000080: def0 a83f edb4 563f 0172 9dbf a285 fbbe
00000090: 9907 1bbf 299c 13c0 9465 0dc0 0eb3 6a3e
000000a0: 22d8 bd3f 3924 d53f 5425 01c0 8afc 85bf
000000b0: f913 613f f401 b8bf 951d 83be 2e70 e93f
000000c0: 0bae 6c3f 9034 b9be 1d6f 0c3f 3cb8 2b40
000000d0: 2a5c 9a3f f31c e83e 1f93 9c3f 8074 f4bf
000000e0: 2507 31c0 7e1d 3d40 86c7 97be a7ad c5bf
000000f0: f5fd d33f 480c cdbe f0a7 f73e 1732 52bf
00000100: 15b4 373f bf2e f63f b0d9 f33f 4576 e2bf
00000110: 5ff1 3a3f 0b48 8340 b9a6 5abf 7dfb e7be
00000120: a994 60bf b743 093f ba26 aa3f 3ab9 0fbe
00000130: 9099 d83f 1f91 93be 3c81 493f ac0f ff3e
00000140: 9861 91bf e1e7 f83d 5ded 93bf 9424 3c3f
00000150: f335 a6bf 8d53 a9bf 6ef7 773e db72 843e
00000160: f5bd 1740 2095 c7be 5967 5ebf 7f66 cf3e
00000170: dcf1 0840 b95f 1dbf 69f9 6140 2ecd 5440
00000180: 775d fa3f 1828 08bf 6237 24c0 9af0 f93e
00000190: b5d3 2cbf c17b 05bf 0af5 a4bd f620 a8be
000001a0: 4c5f b6bf 9ded 613f 787e 9c3f 3727 c33f
000001b0: 42ca 2ac0 2834 403f 4945 1640 dffd 89bf
000001c0: 4be0 84bf 7478 e03f 2191 3940 7e15 e53f
000001d0: e8f3 53bf ea07 0b3e 68e9 963e 3bc1 81bc
000001e0: 42fc a3bb c9a5 e6bb e382 f63d 1d54 243e
000001f0: 7db5 0fbe ed15 1a3e 98b6 77be 7f8f cebf
00000200: 30c7 613f 18f0 bf3f b0d8 a63f 7f83 243f
00000210: 1a03 00c0 c7ec 9f3e 63ba 843f 5f06 f1bd
00000220: 8969 b73d d3ed cdbf 02dd 4040 ee78 893f
00000230: 6d39 a03e 92f3 3640 4708 c1be 897d 763f
00000240: f21d 90bf def1 00c0 278b 8d3f 6ebc 5d3f
00000250: 65bb e6bf bf95 f3bf e049 9a3f a5e4 80bf
00000260: d20b 0fbf e014 e73e f6b6 77bf a59d 103f
00000270: 5c8b 363f 0ed3 05bf 648f cebf 9b19 a2bd
00000280: 74a2 cebe 7ce3 81bf 91cb db3f a823 ee3f
00000290: 4bb0 2040 0c3c e03f bad5 c1be d10d cdbe
000002a0: 1ff7 1640 43c4 c93f f0b2 3fbe 27e2 5d40
000002b0: 1782 9d3f d5ee bbbe 2356 0240 8ebe 2040
000002c0: 6654 1c40 e78c 1d40 4513 d33f 85d4 a840
000002d0: 07e3 cdbf 2c9f 57c0 08c2 a0be a0ee 793f
000002e0: 2265 b8bf ca11 f0bf 0b0d 6e3f 1dd0 3e3f
000002f0: 466f a53f 9aae 3ebf e5b5 ee3e 1689 ff3f
00000300: cb9f 34c0 c70e 12c0 46a6 3d3f 21e6 04bf
00000310: 03db 793c 1a58 aabf da00 4dbd 03ba a8bf
00000320: a53f 5abe 7b75 bdbe e1fa 07c0 eacb 29c0
00000330: 7a41 9cbe 7d32 d5bf df60 a0bd 4582 4c3f
00000340: f096 52be 7f48 0640 76e2 c7bf 1114 38c0
00000350: 21f8 10be 0a5c 453f 0623 6ebf 970b b9be
00000360: 4e73 f4bf 6deb f0be 6381 b83e 8169 083f
00000370: 33a5 23c0 eb21 babf 5c8c 303f 5d4c 273f
00000380: 27f8 0ec0 0670 82be fd75 d73d e433 213f
00000390: 7a73 0abf 18d9 4bbf c309 c23f aa28 62bf
000003a0: 88d3 06c0 bc63 66bf 7cb6 503f 15be b0be
000003b0: 1bcc 29bf 828a 8d3f a207 e4bf d718 0f40
000003c0: c983 d63e 6d11 55be 47cb 6740 6eb7 5c3f
000003d0: e765 a1bf 5b76 883e 6678 1e3f 6a80 c5bf
000003e0: 305c cdbf 314d ef3e f30a 73bf 8b77 87bf
000003f0: 1f2a 383f 3add ce3e 57ce e43f 3b80 02c0

layer2.0.bias f4 [32]
0.03140373 -0.8784962 0.26285726 -0.08014879 -0.34286043 -0.45080113 0.31435946 -0.38405168
0.2232567 0.1952729 0.48779738 -0.6947163 0.30639157 -0.22906609 -0.6422219 -0.6753749
-0.18072306 -0.5172381 -0.00878717 0.4282099 0.80917984 0.5769343 0.21756057 -0.029021919
0.33300143 -0.16917852 0.7006338 0.6214346 0.5556725 -0.592316 0.22352754 -0.7192188
00000000: 33a1 003d 21e5 60bf 3a95 863e 0c25 a4bd
00000010: 678b afbe 68cf e6be b9f3 a03e 6ca2 c4be
00000020: 689d 643e 9ef5 473e 94c0 f93e edd8 31bf
00000030: 5bdf 9c3e 4d90 6abe a868 24bf 5fe5 2cbf
00000040: 770f 39be b769 04bf 10f8 0fbc 543e db3e
00000050: 6926 4f3f f7b1 133f 33c8 5e3e 60bf edbc
00000060: 2a7f aa3e 223d 2dbe bd5c 333f 5716 1f3f
00000070: 8e40 0e3f 05a2 17bf 67e4 643e b91e 38bf

layer2.1.weight f4 [32]
1.7170064 2.7043283 1.3642131 2.3963165 1.6777592 1.4666575 2.90435 2.5866
1.0297586 1.584224 1.926843 3.1642578 2.8324742 2.6946282 2.1985939 1.845956
1.6768565 2.9753585 1.8443431 2.034943 1.2324182 1.7646831 1.890206 2.3376663
1.6649616 2.2137878 2.2501087 2.586362 1.5764847 1.8383874 1.6248289 1.8835475
00000000: dec6 db3f b713 2d40 899e ae3f 405d 1940
00000010: d0c0 d63f 6fbb bb3f dfe0 3940 db8a 2540
00000020: 21cf 833f dac7 ca3f cba2 f63f 3383 4a40
00000030: 4247 3540 ca74 2c40 c3b5 0c40 4948 ec3f
00000040: 3ca3 d63f 466c 3e40 6f13 ec3f 823c 0240
00000050: e1bf 9d3f 23e1 e13f 45f2 f13f 539c 1540
00000060: 761d d53f b3ae 0d40 c801 1040 f486 2540
00000070: 40ca c93f 4750 eb3f 65fa cf3f 1618 f13f

layer2.1.bias f4 [32]
-1.3976878 -0.41861606 0.18875608 -1.1671586 -1.4813628 -0.32045105 -0.75207394 -0.20605554
0.42683247 -1.7449149 -2.2249327 -0.9863428 -0.5957037 -0.5620983 -0.85269207 -1.847368
-0.15588476 -1.3460388 -1.9930439 0.05465658 -0.68958086 -0.6526609 -2.4620285 -0.9798709
-0.7202842 -0.5888979 -0.4003182 -1.0984199 -0.28461358 0.04167219 -1.8275515 -0.94690853
00000000: 6fe7 b2bf d854 d6be 4649 413e 7465 95bf
00000010: 4c9d bdbf 2912 a4be eb87 40bf 3900 53be
00000020: c989 da3e 5f59 dfbf 4c65 0ec0 f680 7cbf
00000030: 0a80 18bf ade5 0fbf 074a 5abf 8e76 ecbf
00000040: 41a0 1fbe 004b acbf 101c ffbf 94df 5f3d
00000050: 5f88 30bf c914 27bf e091 1dc0 d2d8 7abf
00000060: 8c64 38bf 03c2 16bf 82f6 ccbe 0699 8cbf
00000070: dfb8 91be 75b0 2a3d 35ed e9bf 9968 72bf

layer2.1.running_mean f4 [32]
35.586704 21.004875 -21.98861 -51.31226 1.3940821 -24.10139 3.6502538 -23.091675
-85.35837 -17.32372 -67.606674 -13.034 6.081988 22.147772 -52.96805 -20.262487
-96.301506 47.70049 -24.123245 -43.226044 -9.716579 -72.738945 -25.138432 5.2108083
-25.631248 -38.29838 -21.064964 -51.165382 -22.07728 -15.778345 -39.74331 -61.40687
00000000: c958 0e42 fc09 a841 ace8 afc1 c13f 4dc2
00000010: 4871 b23f a6cf c0c1 c29d 6940 c0bb b8c1
00000020: 7cb7 aac2 fb96 8ac1 9e36 87c2 448b 50c1
00000030: a59f c240 a32e b141 48df 53c2 9319 a2c1
00000040: 5f9a c0c2 4dcd 3e42 68fc c0c1 78e7 2cc2
00000050: 1c77 1bc1 577a 91c2 821b c9c1 f1be a640
00000060: cc0c cdc1 8b31 19c2 0c85 a8c1 5aa9 4cc2
00000070: 459e b0c1 1a74 7cc1 26f9 1ec2 a3a0 75c2

layer2.1.running_var f4 [32]
1091.1538 3064.062 1288.6179 1202.5632 1500.1564 1595.0894 1920.4192 1643.8198
2095.3967 1338.4829 750.1472 2203.2024 2989.1934 2679.949 2006.2659 2174.6313
889.4185 1358.502 694.15295 1290.674 956.6101 1900.8744 1131.2496 3211.28
1142.3407 2728.341 2394.286 2378.0137 709.3548 674.4641 991.80756 3778.9067
00000000: ec64 8844 fe80 3f45 c613 a144 0652 9644
00000010: 0185 bb44 dc62 c744 6a0d f044 3c7a cd44
00000020: 59f6 0245 744f a744 6c89 3b44 3db3 0945
00000030: 18d3 3a45 2f7f 2745 82c8 fa44 1aea 0745
00000040: c95a 5e44 10d0 a944 ca89 2d44 9155 a144
00000050: 0c27 6f44 fb9b ed44 fd67 8d44 7bb4 4845
00000060: e7ca 8e44 7585 2a45 93a4 1545 38a0 1445
00000070: b556 3144 b49d 2844 aff3 7744 822e 6c45

layer3.0.weight f4 [64, 32, 3, 3]
-0.78222084 -1.893311 -0.74363846 2.104998 -0.43057898 1.2835673 -1.6653823 0.95741034
-1.0726975 -1.5199919 -1.9473068 0.96962386 -0.5193941 -0.59040016 -0.037805542 0.41777512
-0.24595901 -2.5398057 -1.7594726 -2.9914713 -1.1508352 0.2628114 -1.3366865 -0.13025004
1.0847733 2.9299495 1.2282573 -0.26233727 -0.5768908 -2.7636416 1.1918073 -2.1932209
-1.4881588 2.2541575 -0.56572545 1.2092154 -0.02604541 1.4620476 -0.4641146 1.0123479
0.25705433 -1.307349 0.19965953 -1.6382577 0.6762009 1.9367433 -1.3309872 -1.650207
0.6354236 -0.4364059 -1.2849892 0.034898546 -0.093754895 0.70608103 -0.47604814 1.6531351
0.9628347 -1.6869253 -1.7843419 1.3367581 -0.43272236 0.112390265 -2.1297605 -1.0307547
-1.3668213 -1.3340753 -2.138823 -1.5770599 -1.2824591 1.7855992 2.9992933 0.13201806
0.18565565 -0.17871575 -0.67908084 1.6721958 1.0953789 -1.9949312 -1.4519783 0.5190494
0.72205204 -1.7627414 1.2680086 -0.587394 -3.1817544 -3.9782054 1.3624228 0.30475628
-0.22437932 -2.788944 -1.1165566 -0.081228614 0.38113827 0.88715076 -0.68560266 -2.7585108
-0.974229 1.4826354 0.4066927 0.9300245 -4.1416636 -1.9908278 -0.063927874 0.28693473
0.6786142 -2.365537 0.39245212 -1.9184574 0.74448055 -0.09576268 0.9848446 -0.7758391
0.11376363 0.53435266 -1.7198769 -1.1824871 0.13119909 1.6591697 -0.06584311 1.5419505
0.6353154 0.61374056 2.0476224 0.88319397 -3.5290887 -3.2954202 -2.0016482 -3.9330323
-0.7996764 0.10661602 1.1139823 -1.1363363 -0.109712176 1.6389315 0.5358548 1.5272212
0.9889553 -0.067385696 -0.5617707 1.5700662 -0.7395075 -2.9767394 -3.383277 -0.6227887
-0.4840124 -0.035160407 -0.30038244 -0.15756103 -0.7170069 -0.9033491 -0.7974732 -1.4686054
1.640962 0.3688445 -2.5243795 -0.7183688 -0.97872585 0.61339045 1.5624776 1.5484154
-0.40495777 -0.71130824 -0.67730266 -0.7899782 -0.67614985 -0.57346004 0.6023739 0.5354335
-2.8600836 -1.5899333 0.9140416 -0.5152794 -2.2505667 -0.51357603 -1.4695705 0.04003891
2.8598804 -0.40596324 -1.1590594 -1.0412554 -3.321769 -0.8057085 0.29404736 2.0747986
0.190314 -0.6341487 -1.2549741 1.6738486 1.145826 0.08237806 0.23641206 0.21345471
1.31775 -0.4688605 -1.523933 -0.3051277 -0.9151942 1.1579376 0.4358452 0.39522666
-0.21493226 0.3734725 1.1148168 -2.0429933 -2.3856468 -3.503335 0.7173977 0.8419494
1.2510858 2.125445 -0.5743331 0.3269756 -0.6195664 -0.049106512 1.0041233 -0.2711132
-0.6731164 -3.2401924 1.4061288 2.2880888 1.7653702 2.1876233 -1.4509006 -1.9623924
1.2534646 0.26394314 1.1908233 2.5514507 0.28740883 -1.3953582 -1.6198558 0.092596605
-2.5288897 0.36851165 0.8458806 -0.20619418 -0.53902745 -2.899396 -0.47676787 1.478067
2.7663124 1.1587164 -1.9751112 0.39644498 -0.10419605 -0.62712383 -0.11074592 -1.2197794
-1.0914159 2.2149749 -0.17141925 -0.518664 0.64411926 -0.0011552032 0.22851169 1.036087
00000000: a03f 48bf 0458 f2bf 175f 3ebf 4ab8 0640
00000010: d974 dcbe ef4b a43f 3f2b d5bf d818 753f
00000020: 274e 89bf 188f c2bf 5941 f9bf 4539 783f
00000030: 03f7 04bf 7724 17bf fcd9 1abd 9fe6 d53e
00000040: aedc 7bbe 2d8c 22c0 6636 e1bf 4474 3fc0
00000050: 914e 93bf 378f 863e 8b18 abbf 4460 05be
00000060: dad9 8a3f 4b84 3b40 8937 9d3f 1251 86be
00000070: 1eaf 13bf 81df 30c0 248d 983f bb5d 0cc0
00000080: fd7b bebf 1e44 1040 62d3 10bf 92c7 9a3f
00000090: 2f5d d5bc 6024 bb3f 6ea0 edbe 9e94 813f
000000a0: a09c 833e 3657 a7bf 8c73 4c3e 6eb2 d1bf
000000b0: 811b 2d3f 34e7 f73f ca5d aabf fc39 d3bf
000000c0: 1fab 223f 9870 dfbe 877a a4bf c7f1 0e3d
000000d0: 9102 c0bd bac1 343f 95bc f3be ee99 d33f
000000e0: 567c 763f 2bed d7bf 5165 e4bf e41a ab3f
000000f0: c98d ddbe de2c e63d ff4d 08c0 c5ef 83bf
00000100: 00f4 aebf fbc2 aabf 7ae2 08c0 19dd c9bf
00000110: 9f27 a4bf 848e e43f 6cf4 3f40 be2f 073e
00000120: 841c 3e3e 4301 37be 3ed8 2dbf 830a d63f
00000130: 6035 8c3f e859 ffbf 6dda b9bf 6ce0 043f
00000140: 67d8 383f 83a1 e1bf 1b4e a23f 745f 16bf
00000150: dda1 4bc0 eb9a 7ec0 df63 ae3f 0409 9c3e
00000160: b1c3 65be 0f7e 32c0 54eb 8ebf 305b a6bd
00000170: 8e24 c33e 501c 633f a883 2fbf 718b 30c0
00000180: 1267 79bf ffc6 bd3f 073a d03e 1616 6e3f
00000190: 8288 84c0 72d3 febf 9eec 82bd 1ce9 923e
000001a0: a9b9 2d3f f564 17c0 7cef c83e 0390 f5bf
000001b0: 4796 3e3f 391f c4bd c71e 7c3f 649d 46bf
000001c0: e8fc e83d 56cb 083f ed24 dcbf bd5b 97bf
000001d0: 0e59 063e ac5f d43f c1d8 86bd a25e c53f
000001e0: 08a4 223f 1a1e 1d3f 3f0c 0340 0019 623f
000001f0: 97dc 61c0 2ae8 52c0 011b 00c0 cdb6 7bc0
00000200: 98b7 4cbf 8059 da3d f996 8e3f 7873 91bf
00000210: c7b0 e0bd 82c8 d13f c82d 093f fc7b c33f
00000220: 2d2c 7d3f 8301 8abd 34d0 0fbf eef7 c83f
00000230: 5d50 3dbf e682 3ec0 9c87 58c0 156f 1fbf
00000240: 79d0 f7be 5c04 10bd bacb 99be ae57 21be
00000250: c48d 37bf e341 67bf 3427 4cbf 43fb bbbf
00000260: 0b0b d23f 30d9 bc3e 6f8f 21c0 05e7 37bf
00000270: c78d 7abf 2807 1d3f 44ff c73f 7a32 c63f
00000280: a056 cfbe 4c18 36bf b563 2dbf 033c 4abf
00000290: 2818 2dbf 47ce 12bf 2d35 1a3f 2b12 093f
000002a0: 9c0b 37c0 ef82 cbbf a1fe 693f 5ae9 03bf
000002b0: 4909 10c0 b879 03bf e31a bcbf d7ff 233d
000002c0: 4808 3740 6ada cfbe 0f5c 94bf db47 85bf
000002d0: dd97 54c0 ea42 4ebf 608d 963e 80c9 0440
000002e0: ace1 423e 9257 22bf fea2 a0bf ac40 d63f
000002f0: 6daa 923f d4b5 a83d 0116 723e df93 5a3e
00000300: 08ac a83f 7c0e f0be 3d10 c3bf b339 9cbe
00000310: 2b4a 6abf 4d37 943f 1a27 df3e 265b ca3e
00000320: 3417 5cbe ca37 bf3e 51b2 8e3f 67c0 02c0
00000330: 70ae 18c0 a436 60c0 60a7 373f ff89 573f
00000340: 9423 a03f 4a07 0840 7e07 13bf 5969 a73e
00000350: e79b 1ebf e923 49bd 1d87 803f 59cf 8abe
00000360: 5b51 2cbf 505f 4fc0 07fc b33f 0c70 1240
00000370: a7f7 e13f 0502 0c40 1cb7 b9bf ad2f fbbf
00000380: 8771 a03f 8e23 873e e66c 983f f84a 2340
00000390: 4027 933e 199b b2bf 6f57 cfbf 4aa3 bd3d
000003a0: 54d9 21c0 8fad bc3e a28b 583f 9124 53be
000003b0: b4fd 09bf b48f 39c0 eb1a f4be 4d31 bd3f
000003c0: 430b 3140 d250 943f 72d0 fcbf d6fa ca3e
000003d0: bd64 d5bd 308b 20bf c2ce e2bd bb21 9cbf
000003e0: 84b3 8bbf 26c2 0d40 8788 2fbe 2ac7 04bf
000003f0: 00e5 243f 306a 97ba f8fe 693e 809e 843f

layer3.0.bias f4 [64]
-0.048959833 0.050563633 -0.023577522 -0.042520456 -0.040110823 -0.09669493 -0.03724688 -0.016895508
-0.008334839 0.017596655 0.06887719 0.08836144 -0.07528775 -0.045944747 -0.004376634 -0.0060588573
0.018383 -0.052326255 -0.0024889684 -0.20715594 0.073948 -0.086316586 -0.017743928 0.01672238
0.04294963 0.020792725 0.007596004 0.077859774 -0.10630863 -0.042563938 -0.00050874316 0.024512403
-0.052445088 -0.082450174 0.04421426 -0.0053843735 -0.03326594 -0.051724616 0.010465609 -0.03904731
-0.024111617 -0.017336173 0.0011876515 -0.12851256 0.018140808 -0.06473137 -0.09218213 -0.047647282
0.03360875 0.04330556 0.009130196 0.03420473 -0.0509214 0.04348528 -0.052648462 0.031910192
-0.00051904825 0.07885656 -0.027134625 0.0035076917 -3.431581e-05 0.015330514 -0.17038472 0.009581154
00000000: 1b8a 48bd d01b 4f3d a625 c1bc ee29 2ebd
00000010: 3f4b 24bd fe07 c6bd 2f90 18bd 7368 8abc
00000020: d98e 08bc dc26 903c 7c0f 8d3d d8f6 b43d
00000030: 7730 9abd 8f30 3cbd de69 8fbb 6189 c6bb
00000040: f297 963c 0e54 56bd f61d 23bb b020 54be
00000050: 0d72 973d c0c6 b0bd b75b 91bc 5ffd 883c
00000060: f4eb 2f3d 8155 aa3c e6e7 f83b f274 9f3d
00000070: 57b8 d9bd 8657 2ebd 2d5d 05ba 3cce c83c
00000080: a9d0 56bd a3db a8bd 031a 353d 666f b0bb
00000090: de41 08bd 31dd 53bd f277 2b3c 12f0 1fbd
000000a0: ba85 c5bc 9704 8ebc f9aa 9b3a cc98 03be
000000b0: 089c 943c e191 84bd fcc9 bcbd cc29 43bd
000000c0: 54a9 093d 2c61 313d d196 153c 421a 0c3d
000000d0: f592 50bd 9f1d 323d eaa5 57bd 43b4 023d
000000e0: bd10 08ba 8c7f a13d 6f49 debc 4de1 653b
000000f0: 52ee 0fb8 d62c 7b3c 5579 2ebe 46fa 1c3c

layer3.1.weight f4 [64]
1.5804785 1.6523916 1.5027785 1.9025444 1.67416 1.5993872 1.9986645 1.5669369
2.0709069 1.7059469 1.8718526 1.2790064 1.3249463 2.1243458 1.6567744 2.009407
1.8623477 2.2684693 1.1447601 1.9637623 1.5574701 1.9616334 1.6993973 1.2553654
1.8624767 2.0930176 1.7546221 1.797479 2.219067 2.6241112 2.3836734 1.6271977
1.8169591 1.3950558 1.4313294 1.414527 1.8807784 2.1799242 1.197002 1.6115763
1.4738798 1.7065598 1.6684585 1.6110908 1.9866202 1.4265654 1.6918378 2.6769252
1.8399651 2.3274038 1.6967492 1.9546845 1.9782547 1.7420279 2.2416472 2.1238437
1.7533118 1.7218653 2.4040492 1.6014303 1.5248915 1.4895838 1.7186193 1.5643519
00000000: 1f4d ca3f 9181 d33f 0c5b c03f 9386 f33f
00000010: e04a d63f b8b8 cc3f 3dd4 ff3f 6391 c83f
00000020: bd89 0440 785c da3f de98 ef3f 7bb6 a33f
00000030: d797 a93f 48f5 0740 2f11 d43f 209a 0040
00000040: 6961 ee3f 9a2e 1140 8087 923f 905c fb3f
00000050: 2e5b c73f ce16 fb3f da85 d93f d0af a03f
00000060: a365 ee3f 00f4 0540 7597 e03f cb13 e63f
00000070: 3205 0e40 70f1 2740 1b8e 1840 0448 d03f
00000080: 1e92 e83f 3091 b23f cd35 b73f 390f b53f
00000090: 59bd f03f e183 0b40 5d37 993f 2248 ce3f
000000a0: 18a8 bc3f 8d70 da3f 0c90 d53f 3938 ce3f
000000b0: 9249 fe3f b299 b63f 248e d83f be52 2b40
000000c0: fa83 eb3f 2ff4 1440 142f d93f 1a33 fa3f
000000d0: 7337 fd3f c5fa de3f 2677 0f40 0eed 0740
000000e0: 856c e03f 1566 dc3f f1db 1940 abfb cc3f
000000f0: a52f c33f afaa be3f b8fb db3f af3c c83f

layer3.1.bias f4 [64]
-1.1382037 -1.4509935 -1.0603228 -1.4843191 -1.1214844 -1.262101 -1.4148067 -2.9803512
-1.6836474 -1.7719941 -1.3784947 -0.9834229 -1.0726646 -1.5602971 -1.9284792 -1.564331
-1.6275316 -1.3017813 -0.9808857 -2.073134 -1.3871452 -1.8410528 -0.82554734 -0.61076164
-1.5983838 -1.2229968 -1.9700335 -1.7143737 -1.6946448 -1.4357444 -1.7486494 -1.7878755
-2.4676437 -1.3852836 -1.4468143 -1.3758501 -1.8599464 -2.0290554 -0.96030563 -1.5288867
-1.913701 -3.0338745 -1.7709757 -1.2521226 -1.7364824 -1.2555809 -2.1587472 -0.878636
-1.7025199 -1.3226322 -1.7968351 -1.364688 -2.0957353 -1.461317 -1.6475624 -2.1804216
-1.920145 -1.835178 -1.7120512 -1.8140794 -1.3320191 -1.9088268 -1.1186242 -1.7017384
00000000: a9b0 91bf 28ba b9bf a8b8 87bf 2bfe bdbf
00000010: cd8c 8fbf 878c a1bf 6318 b5bf 13be 3ec0
00000020: c281 d7bf b4d0 e2bf 8472 b0bf 9ac1 7bbf
00000030: 134d 89bf d1b7 c7bf 68d8 f6bf 003c c8bf
00000040: f552 d0bf c5a0 a6bf 531b 7bbf 3aae 04c0
00000050: f98d b1bf 9ea7 ebbf 1257 53bf e05a 1cbf
00000060: d797 ccbf 298b 9cbf 0f2a fcbf 9970 dbbf
00000070: 1fea d8bf 79c6 b7bf bed3 dfbf 1bd9 e4bf
00000080: e0ed 1dc0 f950 b1bf 3631 b9bf db1b b0bf
00000090: b912 eebf 0bdc 01c0 97d6 75bf 8fb2 c3bf
000000a0: 28f4 f4bf 002b 42c0 55af e2bf 8e45 a0bf
000000b0: 0e45 debf e0b6 a0bf ea28 0ac0 4aee 60bf
000000c0: 2cec d9bf 034c a9bf b1fe e5bf 19ae aebf
000000d0: 8720 06c0 6f0c bbbf 53e3 d2bf 078c 0bc0
000000e0: 50c7 f5bf 1de7 eabf 7e24 dbbf c133 e8bf
000000f0: 9a7f aabf 7054 f4bf 142f 8fbf 90d2 d9bf

layer3.1.running_mean f4 [64]
-51.52564 -42.97332 -26.672909 -19.843237 -82.965576 5.553187 -53.766766 10.138651
-37.25111 -32.021122 -6.2034183 16.745125 -52.85017 -30.378155 -67.795555 -23.29773
-26.253458 3.704793 0.22192302 -62.00311 -20.177605 -79.793236 -42.815956 -23.022575
-26.034874 18.620604 -93.55084 -67.36315 -72.18611 -92.54053 -69.069145 -48.926502
13.728433 21.07929 8.472644 -13.444197 -1.1188984 -75.09117 -10.332869 -44.77701
-50.134254 -20.309994 -21.138268 -66.68447 -53.504276 -29.041391 -44.496506 -65.87956
-31.17318 -18.851437 -25.823153 -112.62083 -50.41813 -78.08916 -43.802994 -91.79563
6.0908337 44.74491 -24.296299 -11.168887 -30.514273 -27.56522 -6.928153 -35.36312
00000000: 411a 4ec2 aee4 2bc2 1e62 d5c1 f3be 9ec1
00000010: 60ee a5c2 b5b3 b140 2b11 57c2 ea37 2241
00000020: 2301 15c2 a115 00c2 6782 c6c0 04f6 8541
00000030: 9366 53c2 7606 f3c1 5397 87c2 c061 bac1
00000040: 1507 d2c1 541b 6d40 ca3f 633e 2f03 78c2
00000050: bc6b a1c1 2396 9fc2 8a43 2bc2 3c2e b8c1
00000060: 6c47 d0c1 fff6 9441 081a bbc2 efb9 86c2
00000070: 4a5f 90c2 c014 b9c2 6723 8ac2 bdb4 43c2
00000080: a9a7 5b41 63a2 a841 f38f 0741 6e1b 57c1
00000090: 1038 8fbf ae2e 96c2 6e53 25c1 a91b 33c2
000000a0: 7a89 48c2 de7a a2c1 2c1b a9c1 735e 85c2
000000b0: 6104 56c2 c554 e8c1 6cfc 31c2 56c2 83c2
000000c0: ac62 f9c1 becf 96c1 d195 cec1 dd3d e1c2
000000d0: 2aac 49c2 a62d 9cc2 4436 2fc2 5d97 b7c2
000000e0: 1ce8 c240 cafa 3242 d25e c2c1 c3b3 32c1
000000f0: 3b1d f4c1 9285 dcc1 6eb3 ddc0 d673 0dc2

layer3.1.running_var f4 [64]
2437.5457 2261.5364 2606.6062 3072.997 2447.4685 2965.1953 2480.1792 2235.361
2043.5446 2893.361 2534.35 3071.5703 2716.8972 4420.542 2202.517 3313.24
2947.496 2192.7056 3533.9421 2139.7573 2263.554 3408.069 3497.8264 2275.5173
1903.6898 2723.505 4143.862 1971.6941 3928.1936 5941.24 3713.3757 2074.8594
1948.5609 2257.3867 1594.6898 2947.2114 2347.9893 2520.7822 1981.2886 2352.0542
2163.384 1801.3197 3006.3098 4894.4194 4164.385 2620.4758 1580.8441 4832.166
2676.2375 3520.7512 2558.4917 2272.1765 2030.6963 3185.8923 3720.87 3462.7944
1868.88 2976.8845 3079.5571 1606.457 2229.8823 2040.5312 2854.5366 2150.9136
00000000: bb58 1845 9558 0d45 b3e9 2245 f40f 4045
00000010: 7ff7 1845 2053 3945 de02 1b45 c7b5 0b45
00000020: 6d71 ff44 c7d5 3445 9a65 1e45 20f9 3f45
00000030: 5bce 2945 5624 8a45 46a8 0945 d713 4f45
00000040: f037 3845 4a0b 0945 13df 5c45 1ebc 0545
00000050: dd78 0d45 1b01 5545 399d 5a45 4738 0e45
00000060: 13f6 ed44 1438 2a45 e57e 8145 3676 f644
00000070: 1983 7545 eca9 b945 0316 6845 c0ad 0145
00000080: f391 f344 3016 0d45 1356 c744 6233 3845
00000090: d4bf 1245 848c 1d45 3ca9 f744 de00 1345
000000a0: 2536 0745 3b2a e144 f5e4 3b45 5bf3 9845
000000b0: 1423 8245 9dc7 2345 039b c544 5401 9745
000000c0: cd43 2745 050c 5c45 dee7 1f45 d302 0e45
000000d0: 48d6 fd44 471e 4745 ec8d 6845 b66c 5845
000000e0: 299c e944 270e 3a45 ea78 4045 a0ce c844
000000f0: 1e5e 0b45 0011 ff44 9668 3245 9e6e 0645

layer4.0.weight f4 [128, 64, 3, 3]
-1.6019933 1.0517186 -2.1474664 -0.17183553 -0.970157 0.95796824 0.05086736 0.6715893
-1.8689556 -1.824409 -0.85737765 2.5423334 -2.8970418 -0.08654623 0.44058585 -0.34238207
-0.28973916 -0.9109515 -0.2380289 -0.58989245 0.95973873 -2.3401804 -0.6666925 0.81356084
0.507552 0.53208315 0.9281634 -1.2155337 -0.84721243 0.8955854 -0.048903733 -1.3835683
-2.3623395 1.1960377 0.17300685 -1.9380255 -1.44814 -1.6567937 -0.19866747 -1.5053169
1.5005257 -0.28315228 -1.5673258 -1.4412801 -0.77406484 -0.95609283 1.1299433 1.2570226
-1.4967844 0.09119784 0.6851292 0.16888478 -1.7392265 -0.3933833 -1.0783293 0.45133233
-0.14016852 -1.9619528 0.84880847 0.120801024 -0.4311205 2.0893695 1.583292 -0.46229875
-0.16849834 1.2431637 -2.9032426 -1.8560238 -0.07303123 -1.0197272 -1.9328574 1.0084764
-1.8544674 -0.022602586 1.5042374 -1.9546379 -0.102011085 0.73624915 -0.14706019 1.6848929
-1.5494078 -1.6032525 0.51437646 -1.7877502 -0.9112757 -0.80193275 -1.7246433 -1.4262514
-0.1200522 -1.6396129 -2.6076863 1.163285 0.97655225 -0.1289912 -0.71080685 -0.25738627
-0.4076599 -2.2254026 -0.682941 -1.3195186 -0.6174441 -1.2105808 -0.712459 -3.1644337
0.42137244 0.6192028 -0.85690916 -1.4935633 -2.1474187 1.6311563 0.17671847 -0.8751051
1.2356851 -1.9262943 -0.9698739 0.75779843 3.3088038 -0.6655633 -0.64203846 -0.6090809
1.8596243 -1.701429 -0.33402064 -0.008665485 -0.4096942 1.298077 -0.14020887 -0.7261744
1.3134522 -1.2243961 0.5079698 2.0464635 0.19700086 -0.4841619 -0.4346789 -1.6811543
-2.4524083 0.5710365 1.3306987 -1.1563761 -2.3983319 1.3053032 2.020649 -0.99333566
-1.7816784 -0.78446585 0.8745736 -0.688457 -0.55788547 1.8996649 1.514007 -1.098921
-0.66880083 -1.4613205 -0.26748073 3.664883 2.3287392 -1.6267217 1.0797242 0.3605018
1.5737214 1.3444782 -2.744934 1.3780636 0.9691488 -0.45714936 -0.16200082 0.684713
-0.3072311 -2.4957106 -0.4261028 -2.4296806 -0.5063146 0.8153036 -1.2968547 2.0840385
-0.61607856 -1.0229068 0.068311654 3.561684 -1.8908556 0.8849479 0.7305266 1.1050268
-1.9839177 0.7826196 1.6921972 -0.6538348 -1.5576873 -1.2436266 -0.5076551 0.41680744
0.9023226 1.9021454 -1.1576494 1.1252886 1.048258 0.41258448 -1.6432344 -1.5313634
1.5617085 2.4488666 -2.2497516 -0.6894494 1.0687801 -0.28223312 0.3366631 0.6076293
0.32553014 -0.27303424 -2.735501 1.2759255 0.25481847 0.06990132 1.1958333 0.7570163
2.1059158 -0.028918061 -1.2037885 1.0111737 -0.4869931 -0.37754303 -1.9635059 -2.0215013
-2.351805 -0.4206734 0.92040974 -1.017451 -0.6012553 -0.57873106 -0.097222984 1.835313
-0.23999283 1.3380183 -0.101946935 -1.0345603 -0.19383024 0.45829692 -2.13093 -0.565865
1.3275346 -1.2139387 0.19946736 -0.09680092 -2.120481 1.3314345 -0.34446213 -0.5401268
1.5660461 0.049940854 0.9953432 0.9550056 -2.4460437 -0.39133775 0.8904699 -0.36066288
00000000: 1e0e cdbf b79e 863f 1770 09c0 a7f5 2fbe
00000010: 365c 78bf 683d 753f 4b5a 503d 47ed 2b3f
00000020: f039 efbf 3c86 e9bf 1a7d 5bbf 97b5 2240
00000030: 2269 39c0 263f b1bd 7894 e13e b44c afbe
00000040: b158 94be 1e34 69bf d9bd 73be 3103 17bf
00000050: 70b1 753f 84c5 15c0 5cac 2abf 8645 503f
00000060: eeee 013f 9a36 083f 1e9c 6d3f 9c96 9bbf
00000070: eae2 58bf 1645 653f 484f 48bd c418 b1bf
00000080: 9230 17c0 c317 993f b528 313e 3811 f8bf
00000090: a75c b9bf d111 d4bf 7c6f 4bbe 39ae c0bf
000000a0: 3a11 c03f 56f9 90be 229e c8bf de7b b8bf
000000b0: 1d29 46bf 80c2 74bf fba1 903f 1ee6 a03f
000000c0: a296 bfbf efc5 ba3d a164 2f3f 22f0 2c3e
000000d0: f99e debf 8969 c9be b206 8abf 0815 e73e
000000e0: 5688 0fbe 4521 fbbf 834b 593f 8766 f73d
000000f0: d4bb dcbe 3bb8 0540 50a9 ca3f 6cb2 ecbe
00000100: d48a 2cbe fd1f 9f3f bace 39c0 3092 edbf
00000110: 6691 95bd 6c86 82bf df67 f7bf c115 813f
00000120: 305f edbf 0f29 b9bc da8a c03f 9331 fabf
00000130: 30eb d0bd d37a 3c3f f296 16be 92aa d73f
00000140: ff52 c6bf 6137 cdbf 2dae 033f 00d5 e4bf
00000150: 5d49 69bf 774b 4dbf 1dc1 dcbf 688f b6bf
00000160: eedd f5bd d6de d1bf 55e4 26c0 86e6 943f
00000170: 54ff 793f 4516 04be 70f7 35bf 22c8 83be
00000180: ccb8 d0be ff6c 0ec0 39d5 2ebf fce5 a8bf
00000190: d110 1ebf 50f4 9abf b763 36bf 1586 4ac0
000001a0: 21be d73e 1384 1e3f 665e 5bbf 152d bfbf
000001b0: 4f6f 09c0 bbc9 d03f b0f5 343e e306 60bf
000001c0: ee2a 9e3f d090 f6bf a849 78bf 14ff 413f
000001d0: 71c3 5340 5b62 2abf a25c 24bf baec 1bbf
000001e0: 2b08 ee3f 6dc8 d9bf c104 abbe aef9 0dbc
000001f0: 70c3 d1be 6327 a63f ea92 0fbe 91e6 39bf
00000200: 341f a83f 03b9 9cbf 4f0a 023f 42f9 0240
00000210: 98ba 493e 12e4 f7be 3c8e debe 1030 d7bf
00000220: 42f4 1cc0 732f 123f 5654 aa3f 2204 94bf
00000230: 457e 19c0 2d14 a73f 5052 0140 3f4b 7ebf
00000240: 0a0e e4bf c1d2 48bf 0ee4 5f3f b83e 30bf
00000250: 95d1 0ebf 3828 f33f fbca c13f 71a9 8cbf
00000260: 8836 2bbf 8d0c bbbf 3cf3 88be 718d 6a40
00000270: 100a 1540 6b38 d0bf 6734 8a3f b193 b83e
00000280: b46f c93f dd17 ac3f 00ad 2fc0 6364 b03f
00000290: 231a 783f 7b0f eabe 8be3 25be 5a49 2f3f
000002a0: 654d 9dbe b9b9 1fc0 252a dabe e37f 1bc0
000002b0: d59d 01bf bdb7 503f 56ff a5bf e360 0540
000002c0: 53b7 1dbf 9cee 82bf fbe6 8b3d a1f2 6340
000002d0: 8e07 f2bf f28b 623f cb03 3b3f 8571 8d3f
000002e0: 04f1 fdbf c259 483f eb99 d83f b861 27bf
000002f0: 4c62 c7bf 282f 9fbf aff5 01bf c967 d53e
00000300: 9dfe 663f 8079 f33f db2d 94bf 7509 903f
00000310: 512d 863f 463e d33e 8155 d2bf b703 c4bf
00000320: 10e6 c73f 3bba 1c40 eefb 0fc0 c27f 30bf
00000330: c9cd 883f dc80 90be 1b5f ac3e 988d 1b3f
00000340: e3ab a63e 25cb 8bbe 7312 2fc0 8751 a33f
00000350: 9177 823e 6c28 8f3d 1111 993f d2cb 413f
00000360: 53c7 0640 92e5 ecbc be15 9abf 246e 813f
00000370: 2957 f9be 524d c1be 2954 fbbf 4760 01c0
00000380: f983 16c0 8162 d7be f99f 6b3f d63b 82bf
00000390: deeb 19bf b827 14bf d81c c7bd 89eb ea3f
000003a0: aec0 75be 2f44 ab3f 8ec9 d0bd 796c 84bf
000003b0: 6f7b 46be e5a5 ea3e 2861 08c0 87dc 10bf
000003c0: a7ec a93f 5862 9bbf 2c41 4c3e 903f c6bd
000003d0: f6b5 07c0 726c aa3f 575d b0be c045 0abf
000003e0: 3374 c83f c88e 4c3d d0ce 7e3f 3f7b 743f
000003f0: fb8b 1cc0 6c5d c8be d6f5 633f cea8 b8be

layer4.0.bias f4 [128]
0.017855115 -0.026772963 -0.020781662 -0.052316874 0.01369706 0.015078076 0.018635012 -0.03433066
0.013381269 0.043481555 -0.0004538071 -0.015934514 0.02154492 0.005247008 -0.0652651 0.010497641
-0.014107922 -0.03358394 0.023124356 0.030991865 -0.04612427 0.045736946 0.007336273 -0.012891988
-0.024013482 0.029579047 0.012033398 0.029612752 -0.019894449 0.076411635 0.0001862884 0.008906131
0.053089652 0.018975314 0.009812375 0.0627357 0.0060709496 0.018704629 -0.022053838 0.03225769
0.026320824 0.004053671 0.014389403 0.0032446247 -0.03786381 0.022447925 0.018880785 -0.008345203
0.054557487 -0.06087013 -0.010385894 -0.074911445 -0.0031454528 0.04163968 -0.039685033 0.015401401
-0.0065548923 0.029931583 -0.03629001 0.006499984 -0.027103316 0.008706153 -0.0122029595 -0.02963876
-0.005703532 -0.0053361426 0.0003468316 -0.031294007 -0.020681314 -0.039323706 -0.039485063 -0.037216675
-0.007264962 0.053494222 0.018229578 0.049700137 -0.050292358 -0.02116273 -0.01494707 0.04272619
-0.0119552035 -0.006691167 -0.0044824043 -0.066812724 0.027598519 0.015739677 0.007900544 0.011032157
0.013118522 -0.030747894 -0.049333557 -0.028736629 -0.032807678 -0.010311564 0.06340422 -0.0024384134
0.008151962 0.007757322 -0.01264948 -0.009917118 0.017440706 -0.025893265 -0.006827598 0.037595976
-0.0067252773 -0.09325889 0.033047877 -0.04302694 -0.008223116 0.010899212 -0.01873124 0.005337199
0.045298204 0.06693119 -0.040283877 0.036019146 -0.0044590784 0.0027002187 0.05606898 -0.051210724
-0.015805835 -0.0409458 -0.042018775 0.030611165 0.043425083 0.0019169624 -0.07018166 0.01556433
00000000: e444 923c f952 dbbc 4e3e aabc 384a 56bd
00000010: a269 603c 090a 773c 74a8 983c 4e9e 0cbd
00000020: 1c3d 5b3c b719 323d f5ec edb9 1989 82bc
00000030: f97e b03c 18ef ab3b b5a9 85bd 4cfe 2b3c
00000040: ea24 67bc 508f 09bd 4a6f bd3c a7e2 fd3c
00000050: cdec 3cbd aa56 3b3d 1e65 f03b eb38 53bc
00000060: ecb7 c4bc c24f f23c bb27 453c 7196 f23c
00000070: aff9 a2bc b47d 9c3d 6956 4339 05eb 113c
00000080: 8974 593d 1e72 9b3c 15c4 203c 937b 803d
00000090: d1ee c63b 733a 993c 40aa b4bc a420 043d
000000a0: c59e d73c a8d4 843b 88c1 6b3c c5a3 543b
000000b0: 1517 1bbd b6e4 b73c e0ab 9a3c 51ba 08bc
000000c0: ac77 5f3d f552 79bd 9929 2abc 2c6b 99bd
000000d0: f123 4ebb 5e8e 2a3d c68c 22bd 2856 7c3c
000000e0: 6cca d6bb 1433 f53c d5a4 14bd d1fd d43b
000000f0: c607 debc 41a4 0e3c ecee 47bc fccc f2bc
00000100: b2e4 babb cfda aebb f3d6 b539 252e 00bd
00000110: dc6b a9bc e511 21bd 17bb 21bd 8370 18bd
00000120: eb0e eebb c21c 5b3d 3256 953c 5f92 4b3d
00000130: 5cff 4dbd 765d adbc 8ee4 74bc a801 2f3d
00000140: c2df 43bc 9441 dbbb 22e1 92bb 1cd5 88bd
00000150: 4a16 e23c 7ff0 803c 4971 013c 38c0 343c
00000160: 12ef 563c 02e3 fbbc fc11 4abd 1469 ebbc
00000170: 5861 06bd d6f1 28bc 12da 813d cacd 1fbb
00000180: cf8f 053c 2231 fe3b c43f 4fbc 687b 22bc
00000190: d0df 8e3c 1d1e d4bc 0bba dfbb 3dfe 193d
000001a0: b75f dcbb 84fe bebd 365d 073d 043d 30bd
000001b0: 40ba 06bc 9c92 323c 4272 99bc ace3 ae3b
000001c0: 9c8a 393d 3813 893d b500 25bd d088 133d
000001d0: 761d 92bb 27f6 303b 96a8 653d 56c2 51bd
000001e0: 3d7b 81bc c8b6 27bd e11b 2cbd 44c4 fa3c
000001f0: 80de 313d 9642 fb3a 67bb 8fbd 8801 7f3c

layer4.1.weight f4 [128]
1.0072333 0.42849183 1.0011073 1.2172098 0.30507436 0.9747942 1.0474308 1.1530393
0.6258992 1.6155174 1.1892184 1.2230358 1.6828092 1.051203 0.35931262 0.69867027
1.0595815 1.4930961 0.20659402 1.232753 1.7548497 0.42085347 1.676449 1.9900255
1.0883056 1.0180825 0.9364497 1.5223728 1.4550823 0.9429557 1.5519323 0.9983942
1.1433223 1.1140934 1.8959451 0.123662785 0.27845058 1.0817695 1.350388 1.1273831
1.1115773 0.97738075 0.47264776 0.7496203 1.2953048 1.1351215 0.9306734 1.3169196
1.0817046 0.21968342 1.7313255 0.8040841 2.0703554 0.08407447 1.0431824 1.2080698
0.16618288 1.7996411 0.84473026 1.1934427 1.2946776 0.95770216 0.25332075 0.93236715
0.7392151 1.1466684 1.1261612 1.6870866 1.0605124 0.94745857 0.7013439 1.4402643
1.0347652 1.0510453 1.263433 0.33696824 1.3559557 0.97710776 1.0440944 1.0969509
1.1188393 0.7384806 1.458195 1.2899126 0.97014827 0.23148449 0.97191906 1.6555537
0.2824248 1.2346734 0.24590965 1.0636111 0.48065668 1.4795223 1.5779998 0.7194759
0.46217364 0.9831717 1.0748537 1.2124317 1.1398864 1.0364374 1.1177725 1.3374803
1.6646606 1.1757731 1.1332507 0.9716546 1.0773605 1.2641028 0.7480077 0.63105184
1.1796068 0.9467456 1.1578307 1.8075739 0.9147746 1.0735935 1.4311953 1.5007315
0.40722397 0.95374227 1.1927559 0.81956875 0.051275425 1.1051832 1.1869891 1.0152326
00000000: 05ed 803f 4863 db3e 4924 803f 88cd 9b3f
00000010: b532 9c3e 1d8c 793f 3612 863f cb96 933f
00000020: ee3a 203f 46c9 ce3f 4f38 983f 708c 9c3f
00000030: 4b66 d73f d28d 863f d3f7 b73e 0edc 323f
00000040: 5ea0 873f c61d bf3f 628d 533e daca 9d3f
00000050: ea9e e03f 1b7a d73e e195 d63f 28b9 fe3f
00000060: 994d 8b3f 8750 823f 2bbb 6f3f 1ddd c23f
00000070: 2340 ba3f 8b65 713f b8a5 c63f c396 7f3f
00000080: 6358 923f 9d9a 8e3f 54ae f23f ea42 fd3d
00000090: 1391 8e3e 6c77 8a3f 84d9 ac3f 174e 903f
000000a0: 2a48 8e3f a035 7a3f e3fe f13e 1ee7 3f3f
000000b0: 8ccc a53f a94b 913f 9d40 6e3f d290 a83f
000000c0: 4c75 8a3f b1f4 603e 139c dd3f 75d8 4d3f
000000d0: b480 0440 3c2f ac3d 0087 853f 08a2 9a3f
000000e0: d82b 2a3e a45a e63f 3e40 583f bbc2 983f
000000f0: ffb7 a53f f82b 753f 42b3 813e 9daf 6e3f
00000100: 333d 3d3f 08c6 923f 0d26 903f 74f2 d73f
00000110: dfbe 873f a58c 723f 468b 333f 955a b83f
00000120: 3073 843f a788 863f 2cb8 a13f 1a87 ac3e
00000130: f58f ad3f bc23 7a3f e3a4 853f e368 8c3f
00000140: 2036 8f3f 110d 3d3f 22a6 ba3f db1b a53f
00000150: a35b 783f 450a 6d3e b0cf 783f 2fe9 d33f
00000160: fc99 903e c709 9e3f bdcf 7b3e 6924 883f
00000170: a218 f63e fd60 bd3f e6fb c93f 932f 383f
00000180: 06a2 ec3e 24b1 7b3f ce94 893f f630 9b3f
00000190: cce7 913f fba9 843f 2b13 8f3f 8e32 ab3f
000001a0: 9913 d53f bc7f 963f 5c0e 913f 5bbe 783f
000001b0: f3e6 893f 1fce a13f 6f7d 3f3f 9d8c 213f
000001c0: 5bfd 963f eb5d 723f cc33 943f 955e e73f
000001d0: ab2e 6a3f 836b 893f 6831 b73f f817 c03f
000001e0: a97f d03e 7428 743f 3aac 983f 42cf 513f
000001f0: 2e06 523d a576 8d3f 42ef 973f 24f3 813f

layer4.1.bias f4 [128]
-1.5510918 -1.256403 -1.5094646 -0.869725 -0.5403567 -0.8167031 -0.19318393 -0.21427828
-1.0137908 -0.7706046 -0.96495444 -1.0024385 -0.60886997 -1.2827914 -1.1935022 -0.8349088
-1.1398001 -0.55534494 -1.0784256 -1.0340582 -0.43065694 -0.5658353 0.20262821 -1.0360533
-0.7029787 -1.5449849 -0.7582897 -1.3162583 -1.3147227 -0.97470194 -0.008518976 -1.3829187
-0.6316067 0.008709253 -0.7644088 -0.94971836 -0.45712695 -1.4450918 -1.4008421 -1.1507359
-0.7674419 -1.3005284 -0.87755245 -1.097552 -0.5055637 -1.005103 -0.4796366 -0.8298208
-0.9613056 -0.949764 -0.67676824 -1.138282 -0.03498622 -1.2386631 -0.8869207 -1.3321528
-1.1878549 -0.7952313 -0.9167754 -0.67364454 -1.0119835 -0.4928375 -1.78055 -1.3525681
-1.2169282 -0.17667572 -1.3315456 -0.50652826 -0.90469503 -0.54600126 -1.4844825 -0.25887984
-1.1945252 -1.1900623 -0.9035235 -0.8074317 -0.7568383 -1.2342702 -0.6114175 -1.0295687
-0.305596 -1.2764934 -0.822755 -0.30191576 -0.40914917 -1.0374146 -1.0961189 -0.082318045
-0.58562654 -1.2401974 -1.1407757 -0.9327589 -1.4761157 -1.5373092 -0.3586504 -0.9726988
-1.6094217 -1.2272563 -1.2178043 -0.6772238 -0.88936085 -1.413312 -1.0342988 -0.5871895
-0.56912667 -0.20921236 -0.92119443 -0.24268568 -0.29917696 -0.9752437 -0.3971238 -1.2231824
-0.50395423 -0.9121147 0.04786966 -0.6937352 -1.2117046 -1.1995403 -0.56567025 -0.29358986
-0.8154382 -1.0434698 -0.082074404 -1.4642501 -1.1945907 -0.80302584 -1.0768307 -0.7309516
00000000: 2d8a c6bf d0d1 a0bf 2336 c1bf 4ca6 5ebf
00000010: d154 0abf 7413 51bf 02d2 45be c46b 5bbe
00000020: e6c3 81bf 5846 45bf 4107 77bf e84f 80bf
00000030: e7de 1bbf 8232 a4bf aec4 98bf 95bc 55bf
00000040: f8e4 91bf 162b 0ebf da09 8abf 055c 84bf
00000050: 117f dcbe 95da 10bf c57d 4f3e 659d 84bf
00000060: 69f6 33bf 11c2 c5bf 461f 42bf 277b a8bf
00000070: d548 a8bf 1186 79bf 2d93 0bbc 7b03 b1bf
00000080: fab0 21bf 41b1 0e3c 4cb0 43bf be20 73bf
00000090: 8b0c eabe c5f8 b8bf cb4e b3bf 504b 93bf
000000a0: 1377 44bf b777 a6bf 47a7 60bf 957c 8cbf
000000b0: 9f6c 01bf 37a7 80bf ee92 f5be 236f 54bf
000000c0: 2018 76bf bc23 73bf af40 2dbf 39b3 91bf
000000d0: b64d 0fbd 838c 9ebf 3c0d 63bf fc83 aabf
000000e0: a10b 98bf 4794 4bbf cbb1 6abf f873 2cbf
000000f0: ad88 81bf 3255 fcbe 10e9 e3bf f420 adbf
00000100: 4ec4 9bbf 7bea 34be 1670 aabf d6ab 01bf
00000110: 189a 67bf bdc6 0bbf 8603 bebf e68b 84be
00000120: 34e6 98bf f653 98bf 514d 67bf d8b3 4ebf
00000130: 28c0 41bf 91fc 9dbf db85 1cbf e8c8 83bf
00000140: 1477 9cbe 2364 a3bf 12a0 52bf b494 9abe
00000150: 007c d1be 00ca 84bf a04d 8cbf 5d96 a8bd
00000160: 9feb 15bf cabe 9ebf f004 92bf 4ac9 6ebf
00000170: 5cf1 bcbf 8cc6 c4bf 06a1 b7be ca02 79bf
00000180: 8801 cebf bc16 9dbf 03e1 9bbf 8a5e 2dbf
00000190: 27ad 63bf 68e7 b4bf e763 84bf 0d52 16bf
000001a0: 49b2 11bf c43b 56be 66d3 6bbf 9882 78be
000001b0: b92d 99be 92a9 79bf d053 cbbe 3e91 9cbf
000001c0: 2503 01bf 5980 69bf fa12 443d a198 31bf
000001d0: 2319 9bbf 898a 99bf c4cf 10bf 6951 96be
000001e0: 8fc0 50bf 6b90 85bf a016 a8bd 8c6c bbbf
000001f0: 59e8 98bf 1a93 4dbf 97d5 89bf a51f 3bbf

layer4.1.running_mean f4 [128]
-34.528687 20.178217 3.4702048 -28.053942 -0.28503147 -11.0507555 9.005721 16.204243
-3.444361 -15.894838 -30.504463 -37.902855 3.5161822 -14.427296 -38.703068 -9.044497
16.219694 14.172494 -4.2319355 -42.631397 -19.896172 -6.7938604 15.873185 -22.31333
-13.148206 30.25887 21.050186 15.742211 -16.974327 0.2428332 1.9336667 -46.452637
-13.207685 3.5780168 -37.422653 -9.437571 -6.0158095 18.299635 -41.547623 -44.330574
8.9441185 6.791107 9.164019 -19.561954 -9.012945 -5.943355 38.719437 1.9310099
6.048622 -10.320727 -4.1632357 18.567389 -18.400372 21.720045 -4.990451 -27.615171
-6.962825 -16.183832 26.3291 32.657085 -38.328808 -32.017273 -12.385165 -13.294377
32.989704 -17.93683 -24.562086 21.621277 -13.600895 -15.077894 -36.800804 18.166801
-35.16223 -51.976307 23.970072 -6.722925 -19.353416 -25.865849 -21.785313 2.2883184
-2.855202 22.221102 -26.941624 13.931534 26.169807 23.459011 30.09408 -2.6725667
0.89364487 18.23002 25.435839 18.9285 10.930657 -10.571021 16.565304 -4.965807
7.244097 7.2313304 -7.9596057 4.5519066 -13.415047 -16.55507 15.312365 -29.831339
19.624907 6.073199 -5.714164 7.020003 -30.357843 -26.388592 34.500553 -9.359659
-35.577496 -24.615112 30.91098 -33.557877 -12.941745 -49.692333 -28.460527 30.013287
60.183716 -33.978127 -24.95577 1.7317644 12.280174 -49.636566 -46.293835 1.2724377
00000000: 601d 0ac2 fd6c a141 d617 5e40 796e e0c1
00000010: a5ef 91be e5cf 30c1 6f17 1041 4aa2 8141
00000020: 6970 5cc0 4251 7ec1 2409 f4c1 869c 17c2
00000030: 2109 6140 34d6 66c1 f1cf 1ac2 42b6 10c1
00000040: efc1 8141 89c2 6241 046c 87c0 8d86 2ac2
00000050: 5c2b 9fc1 4e67 d9c0 91f8 7d41 b381 b2c1
00000060: 0d5f 52c1 2a12 f241 c866 a841 19e0 7b41
00000070: 6ccb 87c1 44a9 783e 6482 f73f 80cf 39c2
00000080: ae52 53c1 3afe 6440 ccb0 15c2 4a00 17c1
00000090: 8381 c0c0 a765 9241 c430 26c2 8252 31c2
000000a0: 1c1b 0f41 c050 d940 d29f 1241 e27e 9cc1
000000b0: 0635 10c1 f72f bec0 b4e0 1a42 552b f73f
000000c0: 508e c140 b321 25c1 3a39 85c0 038a 9441
000000d0: f633 93c1 a7c2 ad41 c6b1 9fc0 dfeb dcc1
000000e0: 76cf dec0 7d78 81c1 ffa1 d241 dba0 0242
000000f0: b350 19c2 b011 00c2 a329 46c1 c5b5 54c1
00000100: 75f5 0342 a17e 8fc1 277f c4c1 60f8 ac41
00000110: 449d 59c1 0e3f 71c1 0634 13c2 9c55 9141
00000120: 20a6 0cc2 bde7 4fc2 b5c2 bf41 3422 d7c0
00000130: ccd3 9ac1 42ed cec1 5248 aec1 cf73 1240
00000140: a1bb 36c0 d1c4 b141 7288 d7c1 90e7 5e41
00000150: c45b d141 0eac bb41 adc0 f041 550b 2bc0
00000160: e9c5 643f 15d7 9141 997c cb41 916d 9741
00000170: f9e3 2e41 e722 29c1 be85 8441 e4e7 9ec0
00000180: a5cf e740 0f67 e740 17b5 fec0 38a9 9140
00000190: 08a4 56c1 c970 84c1 72ff 7441 95a6 eec1
000001a0: cfff 9c41 a557 c240 6eda b6c0 dda3 e040
000001b0: dddc f2c1 d61b d3c1 9100 0a42 2ac1 15c1
000001c0: 5b4f 0ec2 c0eb c4c1 b049 f741 443b 06c2
000001d0: 6311 4fc1 f3c4 46c2 29af e3c1 361b f041
000001e0: 20bc 7042 9ae9 07c2 6ba5 c7c1 75aa dd3f
000001f0: 987b 4441 d88b 46c2 e32c 39c2 3ddf a23f

layer4.1.running_var f4 [128]
2252.9124 2426.8223 2200.529 4217.52 1176.0645 2436.0232 4545.464 5830.052
6842.329 5875.3203 3423.558 3078.092 5508.9927 2439.9958 1861.1349 5609.031
2302.537 3190.8884 417.716 6322.1753 7905.3564 132.25139 5847.2046 6842.5635
6627.162 2336.7031 2860.7603 3728.9524 3336.2551 3050.15 4611.6006 2937.1526
3148.9011 4687.109 6765.0547 402.67633 630.8515 1864.052 3014.215 2197.9167
4166.8384 2403.912 1051.9508 2368.7144 6439.7876 2101.8306 2453.4175 2370.1233
3072.909 706.40704 5407.038 2646.6936 7014.6313 894.35486 2541.7102 1865.3971
1097.7454 6544.4185 2180.5156 6362.1533 2234.1472 2664.3052 1621.4388 1941.3656
1882.327 4668.4395 3175.343 6563.569 2646.3672 2987.8105 2246.2124 6461.428
2978.7112 2730.1528 3162.0403 354.0681 6283.5093 6399.931 6585.833 2214.2473
5302.9937 2945.004 5253.4155 4226.6733 2601.1504 1489.5873 4823.407 5144.4097
1936.4113 1968.3529 1673.8663 1882.4901 1938.6625 1927.9304 5705.586 3739.6968
1982.5233 3661.535 3872.0002 8461.659 3360.3948 2478.6372 5630.2407 3910.0771
5522.4824 3242.5708 2185.4978 3012.9788 3259.3533 2438.4336 4645.5957 3344.4492
5562.3677 2078.1143 6333.957 5430.8984 2270.8308 2386.6152 4573.2188 6097.5273
3399.0918 2786.4563 3824.0608 2777.3413 579.1961 3105.029 3077.0723 2700.2534
00000000: 99ce 0c45 28ad 1745 7788 0945 29cc 8345
00000010: 1002 9344 5f40 1845 b60b 8e45 6a30 b645
00000020: a2d2 d545 909a b745 eef8 5545 7961 4045
00000030: f127 ac45 ef7f 1845 51a4 e844 3f48 af45
00000040: 98e8 0f45 376e 4745 a6db d043 6791 c545
00000050: da0a f745 5b40 0443 a3b9 b645 82d4 d545
00000060: 4c19 cf45 400b 1245 2acc 3245 3d0f 6945
00000070: 1584 5045 66a2 3e45 ce1c 9045 7192 3745
00000080: 6bce 4445 df78 9245 7068 d345 9256 c943
00000090: 7fb6 1d44 aa01 e944 7163 3c45 ab5e 0945
000000a0: b536 8245 983e 1645 6d7e 8344 6e0b 1445
000000b0: 4d3e c945 4a5d 0345 ae56 1945 f921 1445
000000c0: 8b0e 4045 0d9a 3044 4ef8 a845 196b 2545
000000d0: 0d35 db45 b696 5f44 5ddb 1e45 b52c e944
000000e0: da37 8944 5983 cc45 4048 0845 3ad1 c645
000000f0: 5ba2 0b45 e284 2645 0bae ca44 b3ab f244
00000100: 774a eb44 84e3 9145 7d75 4645 8d1c cd45
00000110: e065 2545 f8bc 3a45 6663 0c45 6deb c945
00000120: 612b 3a45 72a2 2a45 a5a0 4545 b808 b143
00000130: 135c c445 73ff c745 aace cd45 f563 0a45
00000140: f3b7 a545 1010 3845 532b a445 6315 8445
00000150: 6892 2245 cb32 ba44 42bb 9645 47c3 a045
00000160: 290d f244 4b0b f644 b93b d144 af4f eb44
00000170: 3355 f244 c6fd f044 b04c b245 26bb 6945
00000180: bfd0 f744 8fd8 6445 0100 7245 a336 0446
00000190: 5106 5245 32ea 1a45 edf1 af45 3c61 7445
000001a0: dc93 ac45 22a9 4a45 f797 0845 a94f 3c45
000001b0: a7b5 4b45 f066 1845 c42c 9145 3007 5145
000001c0: f1d2 ad45 d4e1 0145 a8ef c545 30b7 a945
000001d0: 4bed 0d45 d829 1545 c0e9 8e45 388c be45
000001e0: 7871 5445 4d27 2e45 f900 6f45 7695 2d45
000001f0: 8dcc 1044 7710 4245 2851 4045 0ec4 2845
