main/Pytorch/english.pt (torch, 414475 bytes, 26 tensors)

layer1.0.weight f4 [16, 1, 3, 3]
-2.4104862 -0.26170596 0.70008224 1.2437047 1.8782299 2.2083447 2.1626182 1.9538531
5.479034 0.41106892 1.7129278 -1.8545712 2.9457633 -0.14735027 -3.3677099 3.208435
-1.6127605 -2.6414065 -0.28167102 2.950494 0.8652964 2.8721328 4.6285253 3.7208133
0.97150487 1.6725945 -0.62697124 2.30478 2.5964258 2.807098 0.28774974 0.17726773
-0.51575166 -2.9059834 -2.8031268 -2.7837899 0.3600148 -0.8696055 1.2546375 -3.9805677
1.0655285 2.3405213 -3.6608582 1.1675203 2.8328056 -0.28831637 3.6760604 0.35048565
-2.1397355 0.5057632 0.5062724 -5.1806884 -2.0577738 0.3950873 -1.0998636 -3.0816119
-3.4956822 0.5522698 -1.0094061 -0.57840055 2.5447497 2.2856975 3.0040877 -0.73749226
-2.5092504 -1.7174802 3.7541122 -0.7567799 -3.0942447 2.2935505 1.859926 -1.6484231
-2.1514065 -2.2580326 -2.775077 -2.0978818 -0.81967527 -2.7164395 -1.7398273 -2.448456
-1.3199588 -3.9691353 -3.5335805 0.15908974 -0.0013186968 0.715348 -0.5869785 3.805608
1.3747139 -1.0434177 0.6319751 -2.3714566 -2.5127926 -0.079046585 3.394253 4.163186
-0.048756395 -1.616149 -1.9713452 -0.98013854 -0.7737959 1.2450149 -3.0722659 -5.2620735
-2.1016579 1.596863 -2.2250586 -4.221628 3.16147 -1.2134249 -1.3814284 -3.0160494
-3.810323 1.54457 -0.98034114 2.0458426 1.2377634 2.6305463 2.162583 -2.2019575
-0.8972324 -3.6642978 -3.3290677 -1.6260124 -1.0895171 1.2627679 -2.5405295 0.74242616
3.3418689 -2.9506445 -2.1671586 0.39614075 0.4690778 -3.078901 -1.4616464 2.1028187
-2.066936 -2.5854998 -0.051164493 -4.0238953 0.7987101 -3.3244913 -0.4060877 2.451294
00000000: 6845 1ac0 53fe 85be 9738 333f b731 9f3f
00000010: d669 f03f 8555 0d40 5668 0a40 dc17 fa3f
00000020: 3f54 af40 a077 d23e 3841 db3f 9762 edbf
00000030: 6387 3c40 fde2 16be 8f88 57c0 0057 4d40
00000040: f06e cebf ce0c 29c0 2f37 90be e5d4 3c40
00000050: 1184 5d3f 06d1 3740 e11c 9440 ce21 6e40
00000060: 8bb4 783f 9417 d63f 3081 20bf 8481 1340
00000070: d72b 2640 7ea7 3340 ef53 933e ac85 353e
00000080: 4d08 04bf a2fb 39c0 6e66 33c0 9d29 32c0
00000090: dc53 b83e 779e 5ebf f697 a03f 9fc1 7ec0
000000a0: 3d63 883f 1acb 1540 804b 6ac0 4e71 953f
000000b0: b04c 3540 349e 93be 9344 6b40 db72 b33e
000000c0: 6df1 08c0 b279 013f 119b 013f 33c8 a5c0
000000d0: 91b2 03c0 e248 ca3e 55c8 8cbf 2139 45c0
000000e0: 42b9 5fc0 8e61 0d3f 3834 81bf 0f12 14bf
000000f0: 2edd 2240 de48 1240 f942 4040 4bcc 3cbf
00000100: 8f97 20c0 64d6 dbbf 6043 7040 54bc 41bf
00000110: 1b08 46c0 88c9 1240 0e12 ee3f 87ff d2bf
00000120: a5b0 09c0 9b83 10c0 dd9a 31c0 b243 06c0
00000130: 3dd6 51bf 25da 2dc0 a9b2 debf 81b3 1cc0
00000140: 69f4 a8bf 5006 7ec0 2f26 62c0 6ce8 223e
00000150: 1fd8 acba 0c21 373f 3944 16bf 158f 7340
00000160: a0f6 af3f b68e 85bf 1fc9 213f f2c5 17c0
00000170: 98d1 20c0 2de3 a1bd 713b 5940 d238 8540
00000180: c9b4 47bd f8dd cebf 0a55 fcbf 5cea 7abf
00000190: 7d17 46bf a65c 9f3f 01a0 44c0 e862 a8c0
000001a0: 9081 06c0 0266 cc3f 5c67 0ec0 9417 87c0
000001b0: 8655 4a40 8251 9bbf a5d2 b0bf f406 41c0
000001c0: 55dc 73c0 78b4 c53f a3f7 7abf 16ef 0240
000001d0: 086f 9e3f df5a 2840 c367 0a40 dfec 0cc0
000001e0: 06b1 65bf db83 6ac0 720f 55c0 2d21 d0bf
000001f0: 4c75 8bbf 61a2 a13f 0998 22c0 a40f 3e3f
00000200: 2ee1 5540 5cd7 3cc0 bab2 0ac0 f6d2 ca3e
00000210: f72a f03e b70c 45c0 3b17 bbbf 9594 0640
00000220: ae48 04c0 d478 25c0 dc91 51bd c0c3 80c0
00000230: 4478 4c3f 77c4 54c0 baea cfbe 00e2 1c40

layer1.0.bias f4 [16]
-1.7466319 1.2262882 -0.9708002 0.08979582 1.1290263 -1.4935887 0.18160613 -2.7453027
1.5316281 1.6996858 -0.31810006 1.7478441 -1.1444427 0.9123791 -0.7200228 0.7004804
00000000: a291 dfbf 03f7 9c3f 5d86 78bf dfe6 b73d
00000010: ef83 903f ea2d bfbf f5f6 393e 0ab3 2fc0
00000020: 640c c43f 4e8f d93f 03de a2be 5bb9 df3f
00000030: 197d 92bf ad91 693f 6a53 38bf af52 333f

layer1.1.weight f4 [16]
1.6785647 3.1789255 1.6348102 2.7683039 2.6513631 1.3565441 1.9342968 3.4393964
5.549504 1.3551632 2.1621869 3.8318343 1.5904902 5.8898606 6.1429186 4.8820286
00000000: 35db d63f 8473 4b40 7641 d13f e42b 3140
00000010: efaf 2940 3da3 ad3f 0a97 f73f 121f 5c40
00000020: 8995 b140 fd75 ad3f 4561 0a40 c63c 7540
00000030: 2f95 cb3f bd79 bc40 ca92 c440 9439 9c40

layer1.1.bias f4 [16]
-2.365008 0.20030823 -2.4896395 1.6509784 -0.66295785 0.048301637 1.3696978 0.42690283
-0.056409325 1.0484514 -0.9784911 0.9794994 0.8792791 -0.3088256 -1.2963707 -0.52339023
00000000: 4b5c 17c0 9a1d 4d3e 4156 1fc0 4353 d33f
00000010: 9bb7 29bf f0d7 453d 4252 af3f 0293 da3e
00000020: 770d 67bd a833 863f 657e 7abf 79c0 7a3f
00000030: 6f18 613f 641e 9ebe 7aef a5bf e7fc 05bf

layer1.1.running_mean f4 [16]
0.23860219 1.0200659 1.5997268 -0.038224157 1.2071866 -2.1422994 0.047022723 -3.1370387
-1.2770648 1.2277066 -0.38095534 -0.6728014 -1.5140852 -0.12243712 -1.8310349 -0.38844505
00000000: 2254 743e 8591 823f d9c3 cc3f ef90 1cbd
00000010: 1785 9a3f 6f1b 09c0 e69a 403d 3ec5 48c0
00000020: dc76 a3bf 7d25 9d3f 940c c3be b63c 2cbf
00000030: 8bcd c1bf 50c0 fabd 5a5f eabf 45e2 c6be

layer1.1.running_var f4 [16]
16.065746 4.341158 24.018606 4.590232 3.8010938 4.398485 4.2846766 3.7518163
24.880297 3.3689747 0.5733575 21.032646 1.7577231 5.802171 5.9073567 5.820366
00000000: a686 8041 c4ea 8a40 1b26 c041 2ee3 9240
00000010: 1f45 7340 64c0 8c40 121c 8940 c21d 7040
00000020: d90a c741 489d 5740 8fc7 123f dc42 a841
00000030: 12fd e03f 63ab b940 1109 bd40 7040 ba40

layer2.0.weight f4 [32, 16, 3, 3]
-2.5722756 -2.2154293 -2.1326096 -1.488097 -3.3730612 -2.8771818 -0.9792686 -0.37969837
1.0790794 -0.24531038 0.35777548 2.8164601 5.0174503 3.6329832 1.0107625 1.3882776
-0.11773177 1.454775 -1.1998049 -4.045989 -2.2719324 -4.494147 -3.6840448 -2.4737332
-0.4339099 -1.6936187 0.41946724 -1.3535656 0.1836773 1.3578074 0.1871274 -1.076513
-1.1859592 -3.6546369 -3.1457837 -0.42856526 -0.28213206 2.683446 -4.236049 -0.0032368652
2.2930903 -1.0718254 0.8300222 0.54017246 2.2621455 2.263829 0.36523452 -0.55316424
-3.124352 -1.9853605 -1.3173223 -0.9297314 -1.2860651 1.1180714 2.13175 0.2843671
-0.74687237 0.28146914 -3.115061 1.5491986 1.7197481 1.5348074 -1.1520827 3.220952
0.2884935 2.132938 2.476739 0.04327287 1.1503348 2.0255592 -0.14122006 -0.0553167
-1.2801888 -3.3752766 -2.562136 -5.827527 -3.8808212 -1.469698 -2.3781397 -1.5910778
-3.667346 0.04788776 1.4080068 0.9595879 0.67516506 0.32617027 -0.9606465 -1.5454463
1.9604325 2.4776464 -0.9131632 0.76486707 0.4367195 -0.59137994 -2.4968526 1.8678162
0.9350475 4.107233 4.156362 -1.4213167 -2.7437134 0.325365 -4.5925117 -4.729245
-1.3618686 -1.3761268 -2.2549117 -4.159351 1.8008635 3.25746 0.26988137 1.9410279
3.610063 4.1398506 2.3669696 2.0565355 3.5311804 -1.7946969 1.9994384 3.1395347
-1.2734642 0.4080783 -1.2349026 -3.8893282 -3.432102 -4.275528 0.48067924 -3.0153484
-0.6494136 -2.1610534 -4.5839295 0.39679164 -3.7528872 -0.6527287 0.20566174 0.54774016
4.265423 -0.7038856 3.0331447 0.23417087 3.8711522 -3.8338234 1.8671002 -0.60161906
-0.3469102 0.89031905 -1.2423414 -2.1668518 -3.2512293 -2.0299356 -1.9445153 -2.4048157
-4.4602275 -4.416063 -2.214728 -1.7440706 -1.3888035 4.1859894 0.82600737 0.6870292
6.4421024 1.1352246 -0.7933127 1.3537017 1.817088 -2.5839875 -0.37372494 -2.1553102
-2.5589218 -3.0319767 -4.2792344 0.008155804 0.4355175 -1.0761628 -1.9681665 -1.8628186
2.024943 -0.28063625 -0.086046174 -0.1264294 -1.0693238 -1.6164331 -3.8271675 1.3498808
1.5976329 0.024334868 1.2375057 2.0303736 -2.949569 0.5676367 0.5322082 -1.1157403
-0.20014846 -1.433729 2.156535 -0.64514875 1.8271376 -1.149529 0.07137845 -1.797157
-1.0360256 -1.8270215 -2.6097922 -2.8534749 -2.9849718 -3.732075 -3.66283 -2.8384895
-2.9898415 2.9465926 -4.5033507 0.5530508 -1.5034584 -2.5471604 3.055059 0.76310307
-1.9808414 0.08793537 -3.1821835 1.2679288 -2.4692054 -0.49479893 0.42741558 -1.7622465
2.258635 0.79884183 -3.2675564 -2.4165683 -0.7860525 0.35656726 -1.7209487 -0.01579697
-1.8204999 -3.3352406 2.6329157 0.68084586 2.497208 -0.7133882 -0.024358325 1.3816636
1.0035312 -1.2075945 -2.0284288 -2.7549667 -1.122208 -2.5014882 -1.2538608 -2.8814492
-0.51201874 -1.3070446 -1.1418767 2.604177 -1.0153935 -2.4204223 -4.601512 2.6478512
00000000: 2aa0 24c0 98c9 0dc0 ad7c 08c0 f679 bebf
00000010: 3ce0 57c0 bf23 38c0 59b1 7abf d367 c2be
00000020: 461f 8a3f a532 7bbe 592e b73e e240 3440
00000030: f48e a040 cc82 6840 aa60 813f 15b3 b13f
00000040: 5b1d f1bd 1136 ba3f 3593 99bf be78 81c0
00000050: 5767 11c0 0dd0 8fc0 64c7 6bc0 a551 1ec0
00000060: 7029 debe 7fc8 d8bf 69c4 d63e a341 adbf
00000070: e715 3c3e a2cc ad3f 539e 3f3e 2ecb 89bf
00000080: 83cd 97bf 92e5 69c0 8554 49c0 e86c dbbe
00000090: 9d73 90be 94bd 2b40 b78d 87c0 9621 54bb
000000a0: fec1 1240 9331 89bf 567c 543f be48 0a3f
000000b0: fec6 1040 93e2 1040 0500 bb3e 2c9c 0dbf
000000c0: 62f5 47c0 4b20 febf 049e a8bf e102 6ebf
000000d0: c89d a4bf f71c 8f3f 986e 0840 9198 913e
000000e0: 0733 3fbf b91c 903e 295d 47c0 244c c63f
000000f0: b520 dc3f 9274 c43f 7277 93bf 1424 4e40
00000100: 6cb5 933e 0e82 0840 e482 1e40 e53e 313d
00000110: 2c3e 933f c3a2 0140 fe9b 10be c493 62bd
00000120: 3add a3bf 8804 58c0 09fa 23c0 1a7b bac0
00000130: 605f 78c0 101f bcbf 7133 18c0 70a8 cbbf
00000140: ccb5 6ac0 f525 443d 9139 b43f 8da7 753f
00000150: 9ed7 2c3f caff a63e eeec 75bf 2fd1 c5bf
00000160: 74ef fa3f c291 1e40 10c5 69bf 54ce 433f
00000170: b399 df3e ad64 17bf 6fcc 1fc0 9a14 ef3f
00000180: 465f 6f3f 746e 8340 eb00 8540 b5ed b5bf
00000190: 0099 2fc0 3e96 a63e dbf5 92c0 fa55 97c0
000001a0: b651 aebf ec24 b0bf 7950 10c0 6719 85c0
000001b0: b282 e63f 3a7a 5040 e42d 8a3e 9a73 f83f
000001c0: 460b 6740 a879 8440 6e7c 1740 479e 0340
000001d0: dcfe 6140 a1b8 e5bf 99ed ff3f 23ee 4840
000001e0: e000 a3bf a4ef d03e 4a11 9ebf c1ea 78c0
000001f0: 8fa7 5bc0 20d1 88c0 971b f63e 78fb 40c0
00000200: f83f 26bf b34e 0ac0 8daf 92c0 4628 cb3e
00000210: 4e2f 70c0 3a19 27bf fe98 523e b338 0c3f
00000220: 587e 8840 d931 34bf 0b1f 4240 7dca 6f3e
00000230: f5c0 7740 5d5d 75c0 24fd ee3f b503 1abf
00000240: 379e b1be f3eb 633f 0b05 9fbf b3ad 0ac0
00000250: 2414 50c0 77ea 01c0 e1e5 f8bf 80e8 19c0
00000260: 2fba 8ec0 6350 8dc0 1bbe 0dc0 b53d dfbf
00000270: 50c4 b1bf a0f3 8540 3875 533f 25e1 2f3f
00000280: b425 ce40 0a4f 913f 8b16 4bbf 1946 ad3f
00000290: 5796 e83f 0d60 25c0 e058 bfbe 9af0 09c0
000002a0: 60c5 23c0 e80b 42c0 7def 88c0 ec9f 053c
000002b0: 26fc de3e b4bf 89bf e1ec fbbf d770 eebf
000002c0: ab98 0140 8eaf 8fbe fa38 b0bd b576 01be
000002d0: 9adf 88bf 48e7 cebf 50f0 74c0 e5c8 ac3f
000002e0: 3c7f cc3f eb59 c73c 9666 9e3f a4f1 0140
000002f0: bdc5 3cc0 a450 113f cc3e 083f 94d0 8ebf
00000300: b8f3 4cbe 6f84 b7bf ab04 0a40 7828 25bf
00000310: a5df e93f c423 93bf dd2e 923d 3e09 e6bf
00000320: 7d9c 84bf d7db e9bf d606 27c0 559f 36c0
00000330: c709 3fc0 51da 6ec0 cf6b 6ac0 d0a9 35c0
00000340: 9059 3fc0 f994 3c40 731b 90c0 bd94 0d3f
00000350: 5371 c0bf ad04 23c0 1686 4340 b95a 433f
00000360: 368c fdbf 7617 b43d e5a8 4bc0 7e4b a23f
00000370: 7607 1ec0 4956 fdbe 37d6 da3e 4b91 e1bf
00000380: 7a8d 1040 e680 4c3f a51f 51c0 0ea9 1ac0
00000390: bd3a 49bf fc8f b63e 0c48 dcbf a668 81bc
000003a0: 2406 e9bf 9574 55c0 b181 2840 ea4b 2e3f
000003b0: 42d2 1f40 9ca0 36bf 1c8b c7bc 5ada b03f
000003c0: b673 803f 7592 9abf c7d1 01c0 6051 30c0
000003d0: 83a4 8fbf 6218 20c0 837e a0bf aa69 38c0
000003e0: a913 03bf 3d4d a7bf 0429 92bf d6aa 2640
000003f0: 6af8 81bf 33e8 1ac0 963f 93c0 6576 2940

layer2.0.bias f4 [32]
0.8710975 0.20917572 -0.43346384 0.005795802 0.011079263 -0.4166717 -0.80817777 0.029855866
0.29227346 0.005530836 0.4850263 0.33099958 -0.5798839 -1.4083328 0.16956782 -0.5219511
-0.23258515 -0.67456377 -0.07161994 -0.43917072 0.13752535 0.6746415 0.4409587 -1.0960612
0.9442913 -0.7537311 -1.1589042 -1.6156284 0.149225 -0.61375725 0.34806427 -0.42794853
00000000: 3f00 5f3f 2932 563e f9ee ddbe b6ea bd3b
00000010: cc85 353c fe55 d5be bde4 4ebf 4a94 f43c
00000020: dea4 953e 043c b53b 5e55 f83e c778 a93e
00000030: 4573 14bf 4044 b4bf 30a3 2d3e 969e 05bf
00000040: cd2a 6ebe 36b0 2cbf 7aad 92bd fcda e0be
00000050: 72d3 0c3e 4eb5 2c3f 57c5 e13e bc4b 8cbf
00000060: 13bd 713f 85f4 40bf f956 94bf e9cc cebf
00000070: 70ce 183e 321f 1dbf 7b35 b23e 121c dbbe

layer2.1.weight f4 [32]
2.4973462 3.0066438 2.803572 3.5280938 3.254914 2.2121644 2.5906057 1.7547462
3.0286243 2.402558 2.622652 2.0223026 2.1833937 3.6414754 2.2289903 2.6373427
4.6741033 2.4722717 3.0008838 3.5386348 0.22844765 2.0628307 2.4412658 3.631626
2.057212 2.8589644 3.6537542 2.6126637 4.058072 3.158808 2.5792484 1.9486269
00000000: 85d4 1f40 da6c 4040 b96d 3340 4acc 6140
00000010: 8350 5040 1a94 0d40 7ccc 2540 869b e03f
00000020: fbd4 4140 83c3 1940 88d9 2740 686d 0140
00000030: b9bc 0b40 ef0d 6940 c7a7 0e40 39ca 2840
00000040: 4192 9540 b339 1e40 7b0e 4040 fe78 6240
00000050: 2eee 693e 6b05 0440 b33d 1c40 8f6c 6840
00000060: 5da9 0340 46f9 3640 1cd7 6940 e235 2740
00000070: badb 8140 e929 4a40 6812 2540 9b6c f93f

layer2.1.bias f4 [32]
-3.7698386 -1.0286287 -3.730885 -2.1344838 -1.2592769 -0.7400583 -0.08031134 -2.6321075
-0.99563646 -1.7815138 -0.7449811 -2.048396 -3.4617138 0.22033292 -0.4322992 -2.7928848
-0.99425346 -0.9049685 -1.154171 -0.23551434 -0.6000041 -1.3572912 -3.5551505 -0.27125946
-0.4906326 -0.36388075 -1.3050376 -0.048587177 -2.1556673 -0.95820636 0.08571533 -0.58126676
00000000: 0945 71c0 1baa 83bf d2c6 6ec0 629b 08c0
00000010: fc2f a1bf 7674 3dbf 467a a4bd 7374 28c0
00000020: 08e2 7ebf a508 e4bf 15b7 3ebf ec18 03c0
00000030: b88c 5dc0 f49e 613e 5256 ddbe a0be 32c0
00000040: 6587 7ebf 04ac 67bf e0bb 93bf ac2a 71be
00000050: de99 19bf b8bb adbf 9687 63c0 85e2 8abe
00000060: 3234 fbbe 944e babe 790b a7bf 5903 47bd
00000070: 74f6 09c0 034d 75bf 858b af3d e6cd 14bf

layer2.1.running_mean f4 [32]
-71.341415 -182.60556 -138.45569 -84.508675 4.214583 -151.35701 -14.660503 -108.924866
30.147032 32.58604 -161.47955 -29.412575 -67.293594 -47.205883 -23.960138 -140.48248
-26.672232 -114.61186 67.99003 26.128895 -9.801722 -165.2482 -144.95007 32.154663
-126.66939 -13.341248 14.963593 -81.15393 -5.0446644 -151.75684 -107.455925 12.925329
00000000: ceae 8ec2 069b 36c3 a874 0ac3 7104 a9c2
00000010: dddd 8640 655b 17c3 6c91 6ac1 88d9 d9c2
00000020: 1f2d f141 1b58 0242 c47a 21c3 f44c ebc1
00000030: 5296 86c2 d3d2 3cc2 5dae bfc1 847b 0cc3
00000040: bb60 d5c1 4639 e5c2 e5fa 8742 fa07 d141
00000050: dad3 1cc1 8a3f 25c3 38f3 10c3 609e 0042
00000060: ba56 fdc2 c075 55c1 e06a 6f41 d04e a2c2
00000070: e46d a1c0 c0c1 17c3 6fe9 d6c2 26ce 4e41

layer2.1.running_var f4 [32]
5789.539 6489.5215 2644.9836 8441.215 7506.7383 5315.9043 7637.6646 4488.4604
5043.297 6431.846 7191.381 4315.985 2736.275 9148.0 3340.1523 5842.992
9192.654 6509.0254 6776.098 7191.395 75.2905 5910.7905 2992.8145 13068.472
6933.853 3286.934 4775.267 10947.267 8607.224 7800.9478 5738.6426 5109.1333
00000000: 50ec b445 2ccc ca45 bd4f 2545 dce4 0346
00000010: e895 ea45 3c1f a645 51ad ee45 af43 8c45
00000020: 609a 9d45 c5fe c845 0cbb e045 e1df 8645
00000030: 6604 2b45 00f0 0e46 70c2 5045 f097 b645
00000040: 9ea2 0f46 3468 cb45 c9c0 d345 29bb e045
00000050: bc94 9642 53b6 b845 080d 3b45 e331 4c46
00000060: d3ae d845 f26e 4d45 233a 9545 110d 2b46
00000070: e57c 0646 95c7 f345 2455 b345 11a9 9f45

layer3.0.weight f4 [64, 32, 3, 3]
-0.8066824 -1.8662473 0.9254185 -1.3484726 -2.055191 2.4161937 -2.7582366 1.9380194
-1.1697378 -0.00768141 3.2799687 -2.0253563 -2.77924 -0.18513502 1.2395445 3.4737825
-1.6722044 -1.168023 1.5979079 0.6822808 2.753136 0.7584269 -2.9077322 -1.7711316
2.4295502 1.7695926 -0.44148362 2.0127234 3.1673813 -0.029141001 2.5629792 -4.0605497
-1.1956973 5.1503115 -2.9698594 0.029456314 0.35084468 -0.2503533 -1.3922507 -5.8502107
4.9099426 -0.17371717 -2.2474422 7.8923855 -3.2015522 -0.05728287 2.2666695 -0.5704267
2.092026 1.4613525 -2.514022 2.9778326 -1.038523 0.89188254 0.45756465 0.6322853
-0.75092316 -0.021384249 3.1490214 -0.34454256 -0.71502066 0.056301773 5.530913 -0.12129187
3.3192477 0.1778862 -0.23167634 -0.16261986 -0.51711935 -0.89568067 0.8935252 1.4628501
2.4826434 -1.9074287 -0.22487155 2.345394 1.9109052 0.3364865 3.5750716 -0.8674344
0.49210003 -0.28351775 0.8016741 -1.6309357 1.9226373 2.2282462 -0.34513748 2.6922336
-1.4824269 -1.6814106 2.6667006 -0.7114139 -1.6282235 2.6854236 -5.7660418 -3.8100216
0.9704144 -1.2329265 -1.2950534 -3.315369 0.08784881 3.9160876 1.2340493 -2.2077081
-6.2851562 2.6749196 -5.5287457 -1.601496 -0.6382301 -0.13351123 -1.4698207 0.9658168
-0.4653316 3.1055305 -0.15591997 -2.5100605 2.2495923 2.477819 1.0845643 0.67524856
1.9647564 -2.4668164 -1.8732761 1.410879 -3.7852554 -0.7222427 -0.20681906 -2.91153
0.8059764 -0.9927949 -0.89792967 0.79719615 3.3936377 -4.350814 5.5698133 -0.5466237
3.498943 -0.9194672 2.2747355 -1.6395556 -2.3383822 2.2228382 0.476603 -1.096789
0.3502808 -2.189242 0.036186602 1.6238437 0.4287105 1.9514252 1.8676013 0.22098847
1.6465573 0.027691223 1.4505987 2.0934486 -0.91315734 -2.6911807 -2.6970246 0.14548914
-2.4080844 1.8253636 1.3230125 -0.50310963 2.6055887 0.7418278 -4.6080914 2.2235727
1.8008821 -3.1698997 1.48981 0.6018787 -2.4643922 4.7625375 -0.28463542 0.1819017
3.9563699 1.2743245 0.98382765 -3.2192957 -0.06925506 -0.14627501 -0.08659077 0.14247626
-0.081217274 -0.11860846 -0.17093246 0.003190902 -0.026830152 -1.945873 -3.3487298 -0.82893735
-1.8168868 0.20221958 0.9486071 0.15224594 -0.660661 -0.579413 1.9641131 -1.128411
-0.17546724 -0.038900595 -2.997447 2.7318444 -1.1487327 -0.11402649 0.37661037 1.3610123
-0.8840791 -0.09329792 0.18732964 1.2126199 -2.1046934 0.23011464 1.1180484 -0.9307242
-1.7207688 1.8761555 0.7017801 -2.1731913 -0.6808555 -2.9988945 0.43991482 -6.6854577
0.051116504 0.86420697 0.26209202 -1.1082476 -4.22413 -0.23816346 -2.5777154 1.9940188
-0.6710964 -3.976616 -1.8820072 -1.2705508 0.37031144 -1.8289597 -0.13472886 0.64925534
2.2364223 -2.5010364 0.59147054 6.3411884 -0.77119476 -2.2597995 2.33053 4.1286573
-1.3501236 1.9360601 5.0652823 -2.5609994 1.474817 -1.7744888 -0.46518305 1.961487
00000000: bd82 4ebf 31e1 eebf 3ae8 6c3f c09a acbf
00000010: 4088 03c0 eba2 1a40 f386 30c0 0511 f83f
00000020: f8b9 95bf 56b4 fbbb 02eb 5140 709f 01c0
00000030: 11df 31c0 0994 3dbe 65a9 9e3f 7452 5e40
00000040: cb0a d6bf c781 95bf 3f88 cc3f f4a9 2e3f
00000050: 6133 3040 4428 423f 4918 3ac0 71b4 e2bf
00000060: c07d 1b40 0382 e23f 240a e2be 76d0 0040
00000070: 60b6 4a40 1cb9 eebc da07 2440 06f0 81c0
00000080: 9c0c 99bf 5acf a440 2d12 3ec0 5e4e f13c
00000090: eaa1 b33e 4f2e 80be 4535 b2bf ed34 bbc0
000000a0: 401e 9d40 eae2 31be 18d6 0fc0 6c8e fc40
000000b0: 3be6 4cc0 71a1 6abd 1d11 1140 7c07 12bf
000000c0: c1e3 0540 990d bb3f bde5 20c0 cf94 3e40
000000d0: 52ee 84bf 6a52 643f ea45 ea3e 73dd 213f
000000e0: 803c 40bf 052e afbc 9189 4940 e267 b0be
000000f0: 980b 37bf b09c 663d 3dfd b040 df67 f8bd
00000100: 8e6e 5440 cd27 363e 903c 6dbe d285 26be
00000110: ef61 04bf 544b 65bf 11be 643f ac3e bb3f
00000120: a1e3 1e40 a026 f4bf ba44 66be ef1a 1640
00000130: 8b98 f43f f547 ac3e f9cd 6440 2e10 5ebf
00000140: 89f4 fb3e 3d29 91be 843a 4d3f 80c2 d0bf
00000150: fb18 f63f 969b 0e40 dcb5 b0be 8e4d 2c40
00000160: 2ac0 bdbf 7638 d7bf 39ab 2a40 391f 36bf
00000170: a169 d0bf fbdd 2b40 6a83 b8c0 65d7 73c0
00000180: 146d 783f 89d0 9dbf 4fc4 a5bf 012f 54c0
00000190: 14ea b33d 2ea1 7a40 54f5 9d3f 174b 0dc0
000001a0: 0020 c9c0 e231 2b40 7ceb b0c0 d2fd ccbf
000001b0: 0c63 23bf 2bb7 08be 1623 bcbf c53f 773f
000001c0: f23f eebe 03c1 4640 7ca9 1fbe d5a4 20c0
000001d0: 52f9 0f40 9694 1e40 01d3 8a3f 17dd 2c3f
000001e0: 237d fb3f 52e0 1dc0 83c7 efbf af97 b43f
000001f0: a041 72c0 e6e4 38bf 60c8 53be 8256 3ac0
00000200: 7854 4e3f ce27 7ebf b8de 65bf 0c15 4c3f
00000210: 5c31 5940 de39 8bc0 e93b b240 88ef 0bbf
00000220: afee 5f40 3462 6bbf 4495 1140 f5dc d1bf
00000230: 0ea8 15c0 fb42 0e40 4f05 f43e 9563 8cbf
00000240: 0158 b33e 8a1c 0cc0 6738 143d 1cda cf3f
00000250: f17f db3e 4dc8 f93f 8f0d ef3f cd4a 623e
00000260: 64c2 d23f b4d8 e23c 38ad b93f 10fb 0540
00000270: aec4 69bf 4e3c 2cc0 0d9c 2cc0 1bfb 143e
00000280: 0e1e 1ac0 84a5 e93f 7958 a93f cbcb 00bf
00000290: f7c1 2640 6de8 3d3f 7c75 93c0 044f 0e40
000002a0: 4e83 e63f a3df 4ac0 18b2 be3f b914 1a3f
000002b0: 9ab8 1dc0 b566 9840 bcbb 91be 7044 3a3e
000002c0: 2a35 7d40 111d a33f 21dc 7b3f f108 4ec0
000002d0: 99d5 8dbd 1ec9 15be 8056 b1bd 4ce5 113e
000002e0: 3e55 a6bd fee8 f2bd eb08 2fbe 741e 513b
000002f0: e8ca dbbc 5e12 f9bf 9751 56c0 3d35 54bf
00000300: bf8f e8bf a612 4f3e ead7 723f 5ce6 1b3e
00000310: 1421 29bf 6954 14bf 0f68 fb3f c66f 90bf
00000320: afad 33be 3b56 1fbd 2cd6 3fc0 8ad6 2e40
00000330: ac09 93bf b886 e9bd 13d3 c03e a735 ae3f
00000340: 0253 62bf fb12 bfbd 57d3 3f3e 2137 9b3f
00000350: 4cb3 06c0 2ca3 6b3e 361c 8f3f f143 6ebf
00000360: 2742 dcbf dd25 f03f dca7 333f 9115 0bc0
00000370: 8c4c 2ebf e3ed 3fc0 843c e13e 45ef d5c0
00000380: 8a5f 513d ab3c 5d3f ed30 863e 0fdb 8dbf
00000390: 132c 87c0 1fe1 73be 4af9 24c0 023c ff3f
000003a0: f9cc 2bbf e080 7ec0 9de5 f0bf 69a1 a2bf
000003b0: 7699 bd3e 5a1b eabf 5df6 09be 9935 263f
000003c0: 8b21 0f40 fb10 20c0 9d6a 173f 04eb ca40
000003d0: 056d 45bf 8ea0 10c0 6727 1540 f61d 8440
000003e0: dad0 acbf d1d0 f73f cb16 a240 6ae7 23c0
000003f0: cec6 bc3f 7322 e3bf 792c eebe 0212 fb3f

layer3.0.bias f4 [64]
-0.02901283 0.031411357 -0.026540825 -0.04522084 -0.00042962216 0.06417513 0.040785324 -0.046229385
-0.00047385175 -0.020467862 0.050107695 0.020277532 0.0012074842 0.08329798 -0.00013013848 -0.0017496767
0.024184179 0.006875281 0.08050614 -0.0020527358 0.051862136 0.09744102 0.017393388 0.057275515
-0.026625382 0.023313127 0.020343315 0.09784922 0.06473199 0.007460172 0.026288258 -0.022508515
0.13252878 -0.0028724724 -0.03080048 0.0485297 0.04276447 -0.005096756 -0.15020853 -0.008617697
-0.13432051 0.119798094 -0.025826516 0.06908518 -0.13292146 -0.04680514 0.078667045 -0.044032622
0.11018693 -0.023342472 0.0059119803 -0.011322897 0.090733215 0.09050569 0.04042193 -0.069887094
-0.11325207 -0.019224746 0.034820743 -0.050001625 0.03605012 -0.010721562 0.15727884 0.08018503
00000000: 51ac edbc 32a9 003d 256c d9bc 7d39 39bd
00000010: e93e e1b9 406e 833d 830e 273d 065b 3dbd
00000020: 4e6f f8b9 38ac a7bc ba3d 4d3d 111d a63c
00000030: 7244 9e3a 2298 aa3d c875 08b9 6855 e5ba
00000040: e61d c63c 0a4a e13b 67e0 a43d 3187 06bb
00000050: 646d 543d 288f c73d 947c 8e3c bb99 6a3d
00000060: 791d dabc 2cfb be3c 06a7 a63c 2c65 c83d
00000070: 3592 843d 7574 f43b 795a d73c c763 b8bc
00000080: a0b5 073e 1740 3cbb 4a51 fcbc 14c7 463d
00000090: cc29 2f3d b002 a7bb 44d0 19be 3e31 0dbc
000000a0: 518b 09be b458 f53d 2192 d3bc 887c 8d3d
000000b0: 901c 08be bfb6 3fbd 301c a13d 8d5b 34bd
000000c0: afa9 e13d b638 bfbc 49b9 c13b ac83 39bc
000000d0: 56d2 b93d 0c5b b93d 7791 253d f720 8fbd
000000e0: b4f0 e7bd 377d 9dbc 32a0 0e3d 81ce 4cbd
000000f0: 4aa9 133d 7ea9 2fbc b40d 213e 0d38 a43d

layer3.1.weight f4 [64]
2.8527603 2.1019578 2.4536114 3.1859663 2.2021248 2.6055708 2.4953573 2.6629806
3.563813 3.408257 2.6175056 2.368538 2.7690632 2.5914896 2.3438506 2.8125765
2.4091163 2.1345809 2.6147082 2.544568 2.1964295 2.35537 3.5591664 3.446478
2.5081844 2.8351688 2.1299403 2.647187 2.3422663 2.5336199 2.3228333 2.1185472
2.7069342 2.2510204 2.260848 2.5908673 2.2569714 2.4995744 2.5290058 2.1773226
2.5969796 2.3589218 2.6997552 2.55422 1.95232 2.9597964 2.8249927 2.0912712
2.545107 1.9363152 3.0728712 3.123507 2.6789796 2.4418702 2.1594381 2.2102258
3.50837 1.9330114 2.0547187 2.6841516 2.2540953 1.9986279 2.577988 2.9158354
00000000: a093 3640 7a86 0640 f807 1d40 dfe6 4b40
00000010: 9def 0c40 acc1 2640 efb3 1f40 466e 2a40
00000020: 8315 6440 e220 5a40 3685 2740 2096 1740
00000030: 5538 3140 f7da 2540 a601 1640 4101 3440
00000040: f62e 1a40 f99c 0840 6157 2740 34da 2240
00000050: 4d92 0c40 62be 1640 62c9 6340 1893 5c40
00000060: 1886 2040 6873 3540 f150 0840 836b 2940
00000070: b1e7 1540 d426 2240 4da9 1440 4796 0740
00000080: 693e 2d40 b810 1040 bcb1 1040 c5d0 2540
00000090: 3872 1040 07f9 1f40 3bdb 2140 4159 0b40
000000a0: ea34 2640 93f8 1640 cac8 2c40 5778 2340
000000b0: 9fe5 f93f 4e6d 3d40 aecc 3440 63d7 0540
000000c0: 08e3 2240 2dd9 f73f eca9 4440 8ae7 4740
000000d0: 6774 2b40 9a47 1c40 3c34 0a40 5774 0d40
000000e0: 2289 6040 eb6c f73f 8380 0340 24c9 2b40
000000f0: 1943 1040 0ad3 ff3f c1fd 2440 0c9d 3a40

layer3.1.bias f4 [64]
-2.7637854 -1.3587353 -2.1273568 -4.042228 -1.123518 -2.709028 -2.4534554 -2.1834545
-3.0186915 -2.9609733 -1.7963283 -2.1959245 -1.5942354 -2.9384196 -2.442471 -2.490153
-2.758851 -2.68234 -1.7250994 -3.0642133 -1.8528433 -3.1509068 -1.8776904 -2.1402042
-3.8583815 -2.7963538 -1.3856415 -1.5520401 -2.5303788 -2.2048304 -2.6214755 -2.190541
-2.4810157 -2.1851122 -1.3295152 -1.7996858 -1.8854109 -1.9609569 -1.97498 -1.11646
-1.7057842 -1.4928119 -2.5511098 -1.7429188 -1.7006572 -2.6287963 -2.8272686 -1.6883609
-2.2353654 -1.7782191 -1.6886705 -2.3967752 -1.9424495 -2.3151064 -2.4825158 -2.950174
-1.733617 -0.8754678 -1.639577 -2.236607 -1.5516932 -1.3778195 -1.9619548 -2.5427563
00000000: dce1 30c0 0aeb adbf 9d26 08c0 ef59 81c0
00000010: 70cf 8fbf b760 2dc0 6a05 1dc0 b8bd 0bc0
00000020: 3e32 41c0 9680 3dc0 16ee e5bf 078a 0cc0
00000030: e80f ccbf 110f 3cc0 7251 1cc0 ab5e 1fc0
00000040: 0491 30c0 75ab 2bc0 0fd0 dcbf 121c 44c0
00000050: f829 edbf 75a8 49c0 2958 f0bf 1bf9 08c0
00000060: b9ef 76c0 76f7 32c0 b35c b1bf 40a9 c6bf
00000070: baf1 21c0 f11b 0dc0 41c6 27c0 d331 0cc0
00000080: f6c8 1ec0 e1d8 0bc0 8e2d aabf 1b5c e6bf
00000090: 2555 f1bf a300 fbbf 25cc fcbf 29e8 8ebf
000000a0: 2357 dabf 7614 bfbf 6245 23c0 f717 dfbf
000000b0: 23af d9bf 333e 28c0 f8f1 34c0 361c d8bf
000000c0: 3a10 0fc0 af9c e3bf 5b26 d8bf c464 19c0
000000d0: 2fa2 f8bf b42a 14c0 8ae1 1ec0 a7cf 3cc0
000000e0: 29e7 ddbf a81e 60bf a9dd d1bf 9224 0fc0
000000f0: e29d c6bf 645c b0bf 5621 fbbf 85bc 22c0

layer3.1.running_mean f4 [64]
30.477118 -14.031977 -164.23819 8.181818 -114.1598 47.44476 108.05102 7.381416
-30.937124 -112.14131 -178.34547 -117.11738 -114.06076 -117.436775 -57.395164 -32.56533
-8.5021515 -35.570847 78.061806 -114.35134 -36.25382 -54.156227 -62.77907 -177.93509
-22.81777 -139.02232 24.005949 -64.585976 -7.2741365 -34.604908 -142.13681 -13.985083
-131.19278 -50.148396 -96.265785 -73.29491 -72.071396 -55.446735 -91.43713 -76.5871
-60.95533 1.382459 -150.03958 -69.24481 12.953819 -99.26297 -63.97441 -37.165836
-39.36423 42.409073 -56.099606 82.756424 -156.11053 -26.951885 9.606726 39.66088
-79.74387 -142.51541 -46.56798 -94.65535 -72.38655 -158.35178 30.455921 -7.241534
00000000: 23d1 f341 fa82 60c1 fa3c 24c3 bae8 0241
00000010: d151 e4c2 6fc7 3d42 1f1a d842 8f34 ec40
00000020: 3b7f f7c1 5a48 e0c2 7158 32c3 193c eac2
00000030: 1c1f e4c2 a1df eac2 a694 65c2 e642 02c2
00000040: d008 08c1 8c48 0ec2 a51f 9c42 e3b3 e4c2
00000050: e903 11c2 fa9f 58c2 c51d 7bc2 62ef 31c3
00000060: cb8a b6c1 b705 0bc3 2f0c c041 052c 81c2
00000070: bac5 e8c0 6d6b 0ac2 0623 0ec3 e6c2 5fc1
00000080: 5a31 03c3 f597 48c2 1588 c0c2 fe96 92c2
00000090: 8e24 90c2 75c9 5dc2 d0df b6c2 982c 99c2
000000a0: 42d2 73c2 6bf4 b03f 220a 16c3 587d 8ac2
000000b0: d842 4f41 a486 c6c2 cce5 7fc2 d1a9 14c2
000000c0: f974 1dc2 e4a2 2942 ff65 60c2 4a83 a542
000000d0: 4c1c 1cc3 769d d7c1 26b5 1941 bea4 1e42
000000e0: dd7c 9fc2 f283 0ec3 9d45 3ac2 8a4f bdc2
000000f0: eac5 90c2 0e5a 1ec3 baa5 f341 a6ba e7c0

layer3.1.running_var f4 [64]
12416.123 10473.996 8681.452 10602.397 17748.81 12784.05 8359.645 11487.394
12558.247 14541.3 13820.581 10819.748 10576.291 7100.593 7437.3867 9455.755
9260.152 8608.42 10456.593 9186.212 9957.826 9338.728 16555.793 20156.91
9505.278 9539.316 10017.674 10501.437 8386.598 10420.48 10351.99 11477.619
11599.508 9159.479 11414.642 13904.965 12521.503 9777.15 9646.615 10830.929
10722.792 13539.317 14165.633 13243.221 7013.492 14563.672 8476.995 12035.48
11934.781 10147.058 21082.166 13412.218 16809.36 12512.284 12850.955 11621.16
19022.568 11495.375 11592.686 11418.286 12362.833 17209.172 8062.3926 9247.911
00000000: 7e00 4246 fca7 2346 cfa5 0746 97a9 2546
00000010: 9fa9 8a46 33c0 4746 949e 0246 937d 3346
00000020: fd38 4446 3335 6346 53f2 5746 fe0e 2946
00000030: 2a41 2546 bee4 dd45 186b e845 05bf 1346
00000040: 9cb0 1046 ae81 0646 5f62 2346 d988 0f46
00000050: 4e97 1b46 e9ea 1146 9657 8146 d279 9d46
00000060: 1d85 1446 440d 1546 b286 1c46 bf15 2446
00000070: 640a 0346 ecd1 2246 f6bf 2146 7a56 3346
00000080: 083e 3546 ea1d 0f46 915a 3246 dc43 5946
00000090: 03a6 4346 9ac4 1846 76ba 1646 b73b 2946
000000a0: 2b8b 2746 458d 5346 8856 5d46 e2ec 4e46
000000b0: f02b db45 b08e 6346 fb73 0446 ec0d 3c46
000000c0: 207b 3a46 3b8c 1e46 55b4 a446 df90 5146
000000d0: b852 8346 2381 4346 d2cb 4846 a494 3546
000000e0: 239d 9446 809d 3346 be22 3546 2569 3246
000000f0: 552b 4146 5872 8646 24f3 fb45 a57f 1046

layer4.0.weight f4 [128, 64, 3, 3]
1.2287366 -2.1845677 3.0664568 -1.0968807 -3.586355 -0.6859378 3.106557 -0.7984078
-0.90106446 -5.6688056 -3.2843478 1.726328 -1.2893053 -2.0193896 -2.0216613 -2.2651157
2.360463 3.578312 -1.8681391 -2.5533435 0.5248055 -0.4556101 -0.49896163 2.9403925
3.365757 -1.139987 0.4713806 -2.3041918 0.77851117 -0.3433083 -2.1990209 -3.765637
1.9421734 -3.1113183 0.0667647 1.5675862 -3.1029778 0.57776165 2.734058 1.8662806
-2.9070566 1.5043149 -2.2969117 -5.6624913 2.573844 -2.610283 1.7114503 0.87526304
-0.33011445 -1.5358077 2.3755736 2.6855636 0.71973205 -4.4252257 1.4377948 2.4458025
1.4837232 0.66185594 -2.9800313 -2.0919783 1.9963421 -2.4591177 1.762848 -1.0426673
1.2946696 3.015516 -2.5950682 0.383311 2.3704002 -2.3693595 0.1339157 -0.32528225
-4.0031404 1.0406002 1.5228993 2.2799494 0.65804476 -1.391124 -0.8480771 -1.491953
-2.5979297 1.8495858 3.2172806 4.4277787 2.3473232 -4.3360195 -2.1870892 -1.297491
-2.9605043 -5.054881 -1.3056848 -0.27465993 0.09424454 -3.5343058 2.083037 0.38182485
3.182533 -2.5692728 -3.1865308 -4.519403 -1.4984134 -0.72345877 -0.12381626 2.731543
-1.5090948 3.2444491 1.305526 1.8576978 -2.4165509 0.03929161 2.2473042 -6.600691
-0.6494696 2.011644 1.576268 -1.7638459 -2.4142272 -2.6466491 1.0654467 -0.43572524
-0.11326887 -1.1465988 2.00044 4.9809237 2.178827 0.1223906 -4.5282083 -3.179533
-0.59649575 1.1177765 2.1598048 2.894733 2.0173435 0.79143405 0.45920676 -5.462127
-4.542987 -4.3946996 1.0253717 -3.9272115 -1.0774661 1.5385041 -0.06696684 -2.2937617
-3.1091297 -0.34396982 2.6892548 1.804491 -0.19658786 1.8198862 1.6477431 0.34910035
-3.456038 -3.8633318 -4.3244576 1.1376135 -3.2614675 0.6619738 3.6991334 2.419477
2.5166404 -3.0691168 -0.32965103 -1.8497506 2.0592513 -2.556207 -4.137193 -1.1900985
-1.5015395 -2.030829 2.0030887 -1.9175744 4.77615 2.4878364 0.6835042 -1.4689679
2.505091 1.5178096 3.2398152 0.37464508 -3.8548946 -3.151484 -0.89107704 -0.2896493
-0.9804929 -0.95474786 2.0815914 -2.2333426 0.25118905 -0.5025212 1.1048411 2.398191
-6.628842 -3.7286654 -3.4003794 2.9938834 -0.7415434 0.67893344 0.4178611 1.9910269
2.2141285 -2.6640866 0.829052 -1.2635108 -2.1730313 3.379661 1.5706323 1.0028974
-0.7394588 2.466626 1.177747 -1.1301687 2.333681 -3.5916572 -1.9734393 -0.7007131
-2.4620142 -0.83321357 -0.5487065 -3.6515586 0.5754396 1.1006794 -1.4346849 1.5564637
0.5656017 -2.8100917 -1.7625972 1.2025925 -0.98907787 1.7549433 -0.9837213 2.0963326
3.3427339 -0.99822444 2.3210478 1.1758902 -1.3122613 2.3751564 1.2196026 -0.14922987
-3.5430396 -2.1962526 -1.570546 0.08452541 -0.71934175 -1.7056159 -1.0314001 2.7842433
-3.1815732 1.9061918 -1.3184005 -1.3159591 -1.2310555 2.4402153 -1.1835105 -0.17264535
00000000: 3e47 9d3f f5cf 0bc0 d440 4440 9666 8cbf
00000010: d786 65c0 9f99 2fbf d4d1 4640 7464 4cbf
00000020: 29ac 66bf db66 b5c0 c132 52c0 51f8 dc3f
00000030: f507 a5bf ae3d 01c0 e662 01c0 a8f7 10c0
00000040: d311 1740 1003 6540 2f1f efbf fb69 23c0
00000050: a759 063f ba45 e9be e677 ffbe 642f 3c40
00000060: 9068 5740 18eb 91bf cc58 f13e e177 13c0
00000070: 824c 473f 1bc6 afbe c2bc 0cc0 3200 71c0
00000080: 2399 f83f d71f 47c0 eebb 883d aaa6 c83f
00000090: 3097 46c0 30e8 133f cefa 2e40 48e2 ee3f
000000a0: 370d 3ac0 648d c03f 9a00 13c0 2133 b5c0
000000b0: dcb9 2440 e00e 27c0 ce10 db3f 3d11 603f
000000c0: c304 a9be 5995 c4bf 6609 1840 46e0 2b40
000000d0: 5c40 383f 739b 8dc0 a909 b83f 0788 1c40
000000e0: a4ea bd3f 646f 293f d5b8 3ec0 f9e2 05c0
000000f0: 2388 ff3f 2f62 1dc0 01a5 e13f 1f76 85bf
00000100: bcb7 a53f 37fe 4040 9915 26c0 5741 c43e
00000110: a3b4 1740 96a3 17c0 3221 093e 658b a6be
00000120: ba19 80c0 6332 853f 5dee c23f b1ea 1140
00000130: 9f75 283f 5a10 b2bf 951b 59bf 51f8 bebf
00000140: 7b44 26c0 3abf ec3f ede7 4d40 5db0 8d40
00000150: 8b3a 1640 acc0 8ac0 45f9 0bc0 2f14 a6bf
00000160: e778 3dc0 96c1 a1c0 ae20 a7bf 3aa0 8cbe
00000170: 4803 c13d 1132 62c0 7a50 0540 8c7e c33e
00000180: 9fae 4b40 f76e 24c0 1ff0 4bc0 f39e 90c0
00000190: 03cc bfbf 9834 39bf 6193 fdbd 9ad1 2e40
000001a0: 052a c1bf 0ea5 4f40 7a1b a73f 0bc9 ed3f
000001b0: c5a8 1ac0 3df0 203d d5d3 0f40 dc38 d3c0
000001c0: a443 26bf c6be 0040 26c3 c93f b4c5 e1bf
000001d0: b382 1ac0 b362 29c0 8f60 883f 6117 dfbe
000001e0: 82f9 e7bd c0c3 92bf 3507 0040 ba63 9f40
000001f0: e771 0b40 eca7 fa3d 15e7 90c0 787d 4bc0
00000200: f2b3 18bf 4d13 8f3f 3e3a 0a40 4e43 3940
00000210: 281c 0140 6c9b 4a3f 261d eb3e bfc9 aec0
00000220: 2660 91c0 61a1 8cc0 613f 833f 6f57 7bc0
00000230: 69ea 89bf b4ed c43f e925 89bd fecc 12c0
00000240: fbfb 46c0 d01c b0be c01c 2c40 90f9 e63f
00000250: 544e 49be 08f2 e83f 3fe9 d23f 48bd b23e
00000260: ba2f 5dc0 d440 77c0 f561 8ac0 529d 913f
00000270: e2bb 50c0 1d77 293f 9abe 6c40 b6d8 1a40
00000280: a310 2140 696c 44c0 05c8 a8be a1c4 ecbf
00000290: c6ca 0340 e598 23c0 e363 84c0 2655 98bf
000002a0: 7232 c0bf 1af9 01c0 9b32 0040 1473 f5bf
000002b0: 39d6 9840 b638 1f40 22fa 2e3f 2407 bcbf
000002c0: 6953 2040 9647 c23f 2259 4f40 7bd1 bf3e
000002d0: 98b6 76c0 eab1 49c0 a01d 64bf ea4c 94be
000002e0: 9501 7bbf 5b6a 74bf cb38 0540 16ef 0ec0
000002f0: da9b 803e 3ba5 00bf 6f6b 8d3f f67b 1940
00000300: 791f d4c0 74a2 6ec0 d19f 59c0 c99b 3f40
00000310: cad5 3dbf 95ce 2d3f e4f1 d53e f8d9 fe3f
00000320: 48b4 0d40 6580 2ac0 c03c 543f b9ba a1bf
00000330: f212 0bc0 5e4c 5840 7b0a c93f f15e 803f
00000340: 2c4d 3dbf 33dd 1d40 6ac0 963f 5ea9 90bf
00000350: 085b 1540 b6dd 65c0 a999 fcbf ef61 33bf
00000360: a491 1dc0 7c4d 55bf 0778 0cbf 23b3 69c0
00000370: 0250 133f 10e3 8c3f c1a3 b7bf 343a c73f
00000380: 46cb 103f 8bd8 33c0 c99c e1bf 8dee 993f
00000390: 3534 7dbf fba1 e03f 29d5 7bbf 502a 0640
000003a0: 5aef 5540 a38b 7fbf 0c8c 1440 9283 963f
000003b0: 2ef8 a7bf 9002 1840 f01b 9c3f b7cf 18be
000003c0: 29c1 62c0 678f 0cc0 a707 c9bf a81b ad3d
000003d0: c826 38bf 9f51 dabf eb04 84bf 0b31 3240
000003e0: e59e 4bc0 18fe f33f 59c1 a8bf 5971 a8bf
000003f0: 3a93 9dbf 7d2c 1c40 467d 97bf f1c9 30be

layer4.0.bias f4 [128]
0.044546317 0.011830462 -0.0051853103 -0.014277344 -0.01793993 -0.027278004 0.03761695 -0.024026718
-0.030719323 0.05219242 -0.031793073 0.029529648 -0.0031809735 -0.014392793 0.0058768657 0.038485695
0.0067436877 -0.022397244 -0.033404954 0.013840207 0.005162406 0.036365904 0.011586781 -0.0029201524
-0.0055710147 0.0381897 -0.0107868025 0.00903272 -7.209889e-05 -0.021253197 0.013736684 0.007069282
0.0090836985 -0.00859858 -0.027828386 -0.0021742622 0.0034483676 -0.021052517 -0.046720095 0.011402778
-0.004375638 -0.023967925 -0.009850162 0.003415713 -0.0050827977 0.012642533 -0.05245463 -0.04254449
0.036701698 0.038321186 0.024181565 -0.063717246 0.04249942 -0.02128052 0.022954615 0.0016248098
-0.032828316 -0.016882291 0.013211821 0.07921417 0.02316734 -0.019515375 -0.03191664 0.022767276
0.04443732 0.03937659 0.009512545 -0.05554617 0.05891903 0.029376438 -0.00017263895 0.025252875
-0.03821748 -0.005015909 0.04915659 -0.010917337 -0.02281122 -0.013550445 -0.040252253 -0.0394624
-0.020506203 0.028430283 0.007385755 -0.05558686 -0.018645475 0.026278976 0.062555775 -0.050060008
0.010903657 -0.030517727 -0.0171541 -0.0020249905 -0.037371702 -0.009712831 -0.006600718 0.0103339795
0.022770537 0.032648455 -0.008544748 -0.0133809745 -0.025452383 -0.016047033 -0.016133536 0.057420455
-0.0056554936 -0.018190522 0.06569162 -0.023775686 -0.0310509 -0.041780595 -0.0011566326 0.042993177
0.021269633 -0.009243299 -0.007203662 -0.0007127881 -0.020823346 -0.026711415 0.028434481 0.009559812
-0.037461855 0.021202337 0.0034185345 0.019596014 0.008652894 -0.023578523 -0.02042792 0.06014114
00000000: 3376 363d 8ed4 413c 89e9 a9bb 85eb 69bc
00000010: c3f6 92bc 1f76 dfbc 3b14 1a3d aed3 c4bc
00000020: 17a7 fbbc b8c7 553d 7439 02bd 29e8 f13c
00000030: e177 50bb c0cf 6bbc b992 c03b 2da3 1d3d
00000040: 27fa dc3b 6d7a b7bc a2d3 08bd 09c2 623c
00000050: 6629 a93b 6af4 143d 7bd6 3d3c 0760 3fbb
00000060: 0f8d b6bb ce6c 1c3d 21bb 30bc f9fd 133c
00000070: cc33 97b8 2f1b aebc d40f 613c 6fa5 e73b
00000080: cbd3 143c 0fe1 0cbc 5bf8 e3bc 117e 0ebb
00000090: 02fe 613b 5476 acbc 925d 3fbd b8d2 3a3c
000000a0: 8361 8fbb 6258 c4bc 9362 21bc 28da 5f3b
000000b0: 998d a6bb a022 4f3c abda 56bd 2243 2ebd
000000c0: 8554 163d adf6 1c3d 6b18 c63c 307e 82bd
000000d0: df13 2e3d 7c54 aebc 510b bc3c 92f7 d43a
000000e0: fc76 06bd bb4c 8abc 6576 583c 0a3b a23d
000000f0: 6fc9 bd3c b5de 9fbc 06bb 02bd 7082 ba3c
00000100: e803 363d 5949 213d 81da 1b3c 6184 63bd
00000110: 1555 713d dba6 f03c 6a06 35b9 1edf ce3c
00000120: ef89 1cbd 7f5c a4bb 6c58 493d a1de 32bc
00000130: 98de babc b002 5ebc 8cdf 24bd 53a3 21bd
00000140: a0fc a7bc a0e6 e83c 3404 f23b 0caf 63bd
00000150: 65be 98bc 0247 d73c 3e1d 803d b90b 4dbd
00000160: 41a5 323c 5000 fabc c186 8cbc b4b5 04bb
00000170: 1213 19bd 9122 1fbc d64a d8bb da4f 293c
00000180: 4789 ba3c 63ba 053d 45ff 0bbc e03b 5bbc
00000190: 8481 d0bc 1175 83bc 7a2a 84bc b631 6b3d
000001a0: b851 b9bb 4a04 95bc 5489 863d 3ac5 c2bc
000001b0: 755e febc 2122 2bbd 269a 97ba 9d19 303d
000001c0: a73d ae3c 3571 17bc b20c ecbb 66da 3aba
000001d0: b995 aabc e6d1 dabc 6eef e83c c2a0 1c3c
000001e0: 9a71 19bd 86b0 ad3c 7e09 603b d287 a03c
000001f0: dec4 0d3c bf27 c1bc 7458 a7bc 8e56 763d

layer4.1.weight f4 [128]
1.1050047 1.7462146 1.4147018 1.5270122 1.486164 1.5784342 1.9350977 1.2049094
2.054421 0.17985778 1.3771639 1.6958202 2.1046512 1.1496949 0.3641815 0.83697194
1.016886 1.7311049 1.0671817 1.6258771 1.1937584 1.5070843 1.2434999 1.2832452
1.0861151 1.7324891 0.48508912 1.9946554 1.6521925 1.6468916 1.2235616 1.2751478
1.9374096 1.258604 0.37457126 0.51142114 1.3863503 1.3726174 1.475681 1.8013701
0.32099897 1.4951396 0.1889002 1.2430991 1.6541375 1.5481194 0.3128535 1.5201143
1.182972 1.4152659 1.8559185 1.2381536 1.4348081 0.24937765 1.7682512 1.2525972
1.418143 1.432061 1.6152068 1.4913282 1.4786777 0.2690926 1.5968102 1.2328479
1.0606917 1.1337996 1.5790046 1.4195795 1.4075124 0.381701 1.2315516 1.302059
1.656909 1.4539332 1.4392451 0.47171864 2.184959 1.818787 1.1816776 1.3519353
0.25766537 1.4596368 1.7158045 2.149146 2.4280066 1.6758579 1.2712896 1.2893667
1.8155324 1.0886999 1.3184826 1.3818115 1.9916595 2.1470468 2.1460822 1.346889
0.27341157 0.97564673 1.5273142 1.4388317 1.425852 1.069632 1.202781 2.5007286
1.2664775 1.5685666 1.400239 0.9917059 1.2813712 1.2392467 1.4564886 1.5753337
1.7321277 2.0151358 0.72133315 0.359994 1.907986 1.2700759 1.33867 1.106263
1.3588175 1.3670484 1.7415469 2.3001034 1.63078 0.9269179 1.4729288 1.5528094
00000000: cb70 8d3f f683 df3f f314 b53f 2375 c33f
00000010: 9f3a be3f 220a ca3f 48b1 f73f 793a 9a3f
00000020: a27b 0340 a32c 383e e846 b03f a310 d93f
00000030: 9bb2 0640 3429 933f ff75 ba3e cb43 563f
00000040: 5229 823f d894 dd3f 6999 883f be1c d03f
00000050: 13cd 983f 23e8 c03f 012b 9f3f 6141 a43f
00000060: d205 8b3f 34c2 dd3f 9a5d f83e de50 ff3f
00000070: 0b7b d33f 58cd d23f ab9d 9c3f 0b38 a33f
00000080: 0afd f73f f019 a13f cec7 bf3e 7fec 023f
00000090: ed73 b13f edb1 af3f 1de3 bc3f 4c93 e63f
000000a0: fa59 a43e bc60 bf3f 0e6f 413e df1d 9f3f
000000b0: c7ba d33f c728 c63f 552e a03e 1b93 c23f
000000c0: a06b 973f 6f27 b53f bd8e ed3f d17b 9e3f
000000d0: cba7 b73f db5c 7f3e 0e56 e23f 1b55 a03f
000000e0: b685 b53f c64d b73f 19bf ce3f d8e3 be3f
000000f0: 5045 bd3f 81c6 893e 4764 cc3f f6cd 9d3f
00000100: bfc4 873f 5820 913f d31c ca3f c8b4 b53f
00000110: 5e29 b43f 506e c33e 7ca3 9d3f dfa9 a63f
00000120: 9815 d43f 7c1a ba3f 2f39 b83f 1b85 f13e
00000130: 5ed6 0b40 03ce e83f 3641 973f 370c ad3f
00000140: b7ec 833e 61d5 ba3f 7b9f db3f 9c8b 0940
00000150: 7664 1b40 8382 d63f 9eb9 a23f f809 a53f
00000160: 5e63 e83f 855a 8b3f 0ac4 a83f 33df b03f
00000170: b3ee fe3f 3769 0940 6959 0940 dc66 ac3f
00000180: 9afc 8b3e fcc3 793f 087f c33f a32b b83f
00000190: 5182 b63f b4e9 883f baf4 993f f00b 2040
000001a0: ef1b a23f cac6 c83f 083b b33f 70e0 7d3f
000001b0: f903 a43f a39f 9e3f 386e ba3f 89a4 c93f
000001c0: 5cb6 dd3f fcf7 0040 4aa9 383f 2251 b83e
000001d0: e338 f43f d991 a23f 8a59 ab3f 079a 8d3f
000001e0: bbed ad3f 71fb ae3f 02eb de3f e534 1340
000001f0: 66bd d03f 7e4a 6d3f ee88 bc3f 75c2 c63f

layer4.1.bias f4 [128]
-1.2135698 -1.2551751 -1.4968811 -0.37365964 -1.2673603 -0.42673275 -0.24730593 0.09075094
0.016754568 -1.473392 -2.2297752 -0.48525167 -0.72252995 -1.5378478 -0.63732797 -0.39992115
-1.3881205 -0.15961769 -1.538543 -0.31334332 -1.3613698 -1.2521917 -1.3223438 -1.7690898
-1.2119881 -0.5836886 -0.79316944 -0.5190949 -0.9855088 0.013377465 -1.5714011 -1.6638776
-0.08468555 -1.4402705 -0.6122281 -2.0206382 -0.4811348 0.52180374 -1.4711229 -0.94755465
-1.7402569 -1.8433841 -0.7190717 -1.4669975 -1.549585 -1.5538557 -1.0564064 -0.8958808
-1.923628 -0.694734 -0.4138521 -1.3127967 -1.4253232 -1.0809715 -1.4475272 -1.018791
-1.2605348 -1.4538107 -0.5210691 -1.526346 0.0008226115 -1.0501357 -1.4906923 -1.881677
-1.7378519 -0.995319 0.10356606 -2.063528 -1.0811256 -1.0987782 -0.6807474 0.052348953
-0.48827 -0.9250481 -1.7603889 -0.7682791 -0.6167171 -0.18381481 -1.4901662 -1.2032592
-1.4711118 -1.4705855 -1.5787092 -0.4725236 -0.7169334 0.06207504 -1.6897962 -1.0318489
-1.3097262 -1.2559376 -1.7071667 -0.35627583 -0.938814 -0.48698828 -0.14517581 -1.0668786
-0.73197824 -1.2679781 -1.433005 -1.0053843 -2.2174034 -1.993728 -0.7485697 -0.14457986
-1.5154619 -1.5258589 -0.05461706 -1.1873784 -1.1980958 -1.4645201 -1.6669519 -0.9317595
-0.7464109 -1.0034986 -1.0738258 -1.3792889 -0.48352453 -1.2776887 -1.3075155 -0.83416426
-1.7284635 -0.56755894 -0.94138014 -0.908203 0.13347793 -1.2044784 -0.7666213 -2.1404014
00000000: 4156 9bbf 94a9 a0bf cd99 bfbf 5150 bfbe
00000010: dd38 a2bf b77c dabe c43d 7dbe a1db b93d
00000020: e040 893c 1c98 bcbf a3b4 0ec0 e872 f8be
00000030: b9f7 38bf 32d8 c4bf ed27 23bf 77c2 ccbe
00000040: efad b1bf d272 23be faee c4bf 896e a0be
00000050: 5e41 aebf d147 a0bf 9042 a9bf 8971 e2bf
00000060: 6d22 9bbf 9e6c 15bf 270d 4bbf 67e3 04bf
00000070: 4e4a 7cbf 282d 5b3c ac23 c9bf f1f9 d4bf
00000080: 9e6f adbd c95a b8bf fbba 1cbf 2352 01c0
00000090: 4d57 f6be ee94 053f c14d bcbf f192 72bf
000000a0: bdc0 debf 03f4 ebbf 1515 38bf 93c6 bbbf
000000b0: cd58 c6bf bee4 c6bf 5338 87bf 7258 65bf
000000c0: 7139 f6bf 16da 31bf 6ce4 d3be b909 a8bf
000000d0: fe70 b6bf 465d 8abf 9248 b9bf be67 82bf
000000e0: 3459 a1bf 7816 babf c964 05bf 4e5f c3bf
000000f0: 86a4 573a d96a 86bf 01cf bebf cbda f0bf
00000100: ee71 debf 3acd 7ebf 711a d43d d810 04c0
00000110: 5362 8abf c4a4 8cbf 7645 2ebf db6b 563d
00000120: 87fe f9be f4cf 6cbf 6c54 e1bf f0ad 44bf
00000130: 2ce1 1dbf f339 3cbe c4bd bebf 6604 9abf
00000140: 644d bcbf 253c bcbf 2513 cabf 9dee f1be
00000150: f388 37bf 6642 7e3d 3e4b d8bf a013 84bf
00000160: 1ca5 a7bf 90c2 a0bf 7084 dabf c969 b6be
00000170: 1d56 70bf 8756 f9be f8a8 14be 7a8f 88bf
00000180: ed62 3bbf 1b4d a2bf b56c b7bf 6fb0 80bf
00000190: f0e9 0dc0 7b32 ffbf 44a2 3fbf be0c 14be
000001a0: a8fa c1bf 584f c3bf 23b6 5fbd 04fc 97bf
000001b0: 345b 99bf 6575 bbbf ae5e d5bf ca87 6ebf
000001c0: c914 3fbf a472 80bf 2073 89bf 8a8c b0bf
000001d0: 8790 f7be 4e8b a3bf ab5c a7bf ca8b 55bf
000001e0: 4b3e ddbf 8b4b 11bf 4afe 70bf fe7f 68bf
000001f0: 70ae 083e 592c 9abf 4b41 44bf 56fc 08c0

layer4.1.running_mean f4 [128]
-51.71173 -14.963138 -33.117306 50.76519 -104.368385 15.249278 65.048134 4.3415437
18.400087 -30.805532 27.720768 3.1026626 -5.1258616 -99.58133 -42.217133 14.993067
4.1106696 39.086433 -86.69024 7.8147306 25.990875 -52.33028 122.49371 -41.41606
-45.669216 -16.408125 -12.499797 4.3033743 -54.286568 64.32878 10.90592 4.245177
-30.889622 61.33692 -21.639006 -28.3482 -23.02792 60.37617 -48.994556 97.44244
-6.617765 -87.25043 -18.013042 -17.446512 -141.70753 -70.89995 3.1731515 13.571711
-14.608358 25.087324 50.05157 -89.90462 -15.97275 4.004252 5.496312 -3.3896987
-28.5228 -29.364698 75.71775 0.10612397 -18.756098 -5.212476 -106.42877 -60.239372
-25.290604 13.240559 7.622876 -33.29647 -67.88049 -45.147346 65.572365 21.585907
17.05494 -116.266914 -9.086656 -9.989026 7.295332 35.172813 -165.99593 12.669894
-31.458189 -17.459755 -57.24756 43.463326 39.858807 -17.724081 -65.10432 -16.130459
45.79478 9.190778 -22.03057 6.0550723 32.413918 -3.9414876 -37.647144 35.41769
11.587853 13.445459 -14.58009 45.93034 -20.54426 33.30274 11.1256 64.24427
50.578453 -22.055738 49.18384 -24.769308 -24.701635 -18.196892 -76.53407 -50.575325
72.70021 -16.427546 16.834621 -19.773153 10.954752 -106.551575 -57.335636 77.654594
24.842741 34.25303 -36.288967 32.127308 12.48984 47.54909 -8.748473 -22.85049
00000000: d0d8 4ec2 0369 6fc1 1f78 04c2 8e0f 4b42
00000010: 9dbc d0c2 0bfd 7341 a518 8242 eded 8a40
00000020: 6133 9341 bb71 f6c1 22c4 dd41 0692 4640
00000030: 0f07 a4c0 a429 c7c2 58de 28c2 9ae3 6f41
00000040: 9b8a 8340 8258 1c42 6761 adc2 4612 fa40
00000050: 50ed cf41 3552 51c2 c8fc f442 0caa 25c2
00000060: 47ad 36c2 d743 83c1 2bff 47c1 3eb5 8940
00000070: 7225 59c2 56a8 8042 a67e 2e41 7dd8 8740
00000080: f21d f7c1 0259 7542 af1c adc1 1dc9 e2c1
00000090: 2e39 b8c1 3381 7142 6dfa 43c2 87e2 c242
000000a0: bbc4 d3c0 3880 aec2 b61a 90c1 7592 8bc1
000000b0: 21b5 0dc3 c6cc 8dc2 ea14 4b40 ba25 5941
000000c0: d6bb 69c1 d7b2 c841 cf34 4842 2acf b3c2
000000d0: 6290 7fc1 d522 8040 cae1 af40 d3f0 58c0
000000e0: b22e e4c1 e7ea eac1 7d6f 9742 8657 d93d
000000f0: 7d0c 96c1 9acc a6c0 88db d4c2 1ef5 70c2
00000100: 2853 cac1 54d9 5341 9aee f340 962f 05c2
00000110: d0c2 87c2 e296 34c2 0d25 8342 f0af ac41
00000120: 8470 8841 a988 e8c2 f162 11c1 0dd3 1fc1
00000130: 5c73 e940 f6b0 0c42 f5fe 25c3 e3b7 4a41
00000140: 5faa fbc1 94ad 8bc1 80fd 64c2 72da 2d42
00000150: 6b6f 1f42 ebca 8dc1 6935 82c2 2e0b 81c1
00000160: db2d 3742 6d0d 1341 9b3e b0c1 27c3 c140
00000170: daa7 0142 5541 7cc0 ad96 16c2 b7ab 0d42
00000180: d967 3941 9a20 5741 0c48 69c1 abb8 3742
00000190: a55a a4c1 0136 0542 7502 3241 117d 8042
000001a0: 5650 4a42 2772 b0c1 41bc 4442 8b27 c6c1
000001b0: f39c c5c1 3c93 91c1 7211 99c2 224d 4ac2
000001c0: 8266 9142 9d6b 83c1 4ead 8641 6b2f 9ec1
000001d0: aa46 2f41 681a d5c2 b157 65c2 274f 9b42
000001e0: efbd c641 1a03 0942 e727 11c2 5d82 0042
000001f0: 62d6 4741 4532 3e42 bff9 0bc1 cecd b6c1

layer4.1.running_var f4 [128]
19816.719 15792.461 13657.911 28732.191 21507.17 20187.762 25134.809 17833.033
30906.588 2424.221 9503.4 19649.023 27328.525 9420.358 9105.532 13294.683
11855.743 31497.05 16320.616 28130.924 10421.495 13882.776 30289.025 12921.555
17922.129 25680.111 4007.191 33230.184 22283.826 25545.865 8770.327 13376.928
32913.273 10734.315 1310.2809 9059.504 13422.051 39920.195 11949.147 25666.688
7463.5537 14185.658 2192.569 15276.784 12286.259 14918.132 1130.2687 28282.404
11565.19 19265.188 23622.654 15738.103 10774.921 1576.2592 24671.016 12574.422
13947.215 14755.483 32815.355 12302.77 26610.37 1159.6713 15282.128 10601.722
11066.361 11841.992 33789.527 13147.891 9777.792 1329.5221 16421.113 25773.67
24723.438 16658.934 9858.655 6431.5166 27911.447 24834.014 14234.902 13107.885
3699.3599 12391.4795 17795.018 32198.566 35842.55 24626.58 26698.14 13033.686
37594.61 15032.464 16253.305 23700.51 24443.824 43383.48 32536.383 14770.369
935.3001 8654.56 10074.77 14050.144 10046.814 13081.674 9923.83 34295.242
11650.938 14880.977 28660.432 12973.89 10426.613 10890.551 11640.762 16602.387
29496.314 33968.066 15127.362 5420.1074 25646.193 15568.904 10553.861 14766.854
10733.66 30840.037 18819.162 34045.344 29943.416 13018.427 20258.387 10912.869
00000000: 70d1 9a46 d8c1 7646 a567 5546 6278 e046
00000010: 5706 a846 86b7 9d46 9e5d c446 1152 8b46
00000020: 2d75 f146 8983 1745 9a7d 1446 0c82 9946
00000030: 0d81 d546 6f31 1346 2146 0e46 bbba 4f46
00000040: f93e 3946 1a12 f646 7702 7f46 d9c5 db46
00000050: fbd5 2246 1beb 5846 0da2 ec46 38e6 4946
00000060: 4204 8c46 39a0 c846 0e73 7a45 2fce 0147
00000070: a717 ae46 bb93 c746 4f09 0946 b603 5146
00000080: 4691 0047 43b9 2746 fdc8 a344 048e 0d46
00000090: 34b8 5146 32f0 1b47 97b4 3a46 6085 c846
000000a0: 6e3c e945 a2a6 5d46 1b09 0945 23b3 6e46
000000b0: 09f9 3f46 8718 6946 9948 8d44 cff4 dc46
000000c0: c3b4 3446 6082 9646 4f8d b846 69e8 7546
000000d0: af5b 2846 4b08 c544 08be c046 b079 4446
000000e0: dcec 5946 ef8d 6646 5b2f 0047 143b 4046
000000f0: bde4 cf46 7bf5 9044 83c8 6e46 e3a6 2546
00000100: 72e9 2c46 f807 3946 87fd 0347 906f 4d46
00000110: 2bc7 1846 b530 a644 3a4a 8046 575b c946
00000120: e026 c146 de25 8246 9f0a 1a46 22fc c845
00000130: e50e da46 0704 c246 9c6b 5e46 8acf 4c46
00000140: c235 6745 eb9d 4146 0906 8b46 228d fb46
00000150: 8d02 0c47 2965 c046 4894 d046 bea6 4b46
00000160: 9cda 1247 dbe1 6a46 38f5 7d46 0529 b946
00000170: a6f7 be46 7b77 2947 c430 fe46 7ac9 6646
00000180: 35d3 6944 3d3a 0746 146b 1d46 9388 5b46
00000190: 42fb 1c46 b266 4c46 520f 1b46 3ef7 0547
000001a0: c10b 3646 e883 6846 dde8 df46 8fb7 4a46
000001b0: 74ea 2246 342a 2a46 0ce3 3546 c6b4 8146
000001c0: a170 e646 11b0 0447 735d 6c46 dc60 a945
000001d0: 635c c846 9e43 7346 72e7 2446 6abb 6646
000001e0: a4b6 2746 13f0 f046 5306 9346 58fd 0447
000001f0: d5ee e946 b569 4b46 c644 9e46 7a83 2a46
